trained_models/MSIL_2d_problem2000.pt (torch, 670365 bytes, 48 tensors)

hidden.weight f4 [64, 9, 3, 3]
000000 dd c8 b7 2e 8e 18 3d 2f 68 79 2b 2f 2d 72 49 2e
       8.357557e-11 1.7198173e-10 1.5595492e-10 4.5803517e-11
000010 f7 c6 18 2f 5f e4 01 2f 15 a3 5f 2e 2f c7 00 2f
       1.3895006e-10 1.1813615e-10 5.0849176e-11 1.1712296e-10
000020 ed 8c db 2e bf ea 9a 2d bd 10 aa 2d 7b b5 a2 2d
       9.9840004e-11 1.7612021e-11 1.9334196e-11 1.8497861e-11
000030 ea ca ac 2d 14 b0 d5 2d db b2 b1 2d 88 f7 a5 2d
       1.9644248e-11 2.429349e-11 2.0201998e-11 1.8868254e-11
000040 6c 43 b4 2d e5 85 ab 2d 28 6e ac 2c 76 c1 ec 2c
       2.0493572e-11 1.949991e-11 4.900764e-12 6.729002e-12
000050 1b 68 cf 2c 0c b4 d0 2c 4e 74 0f 2d 78 01 0e 2d
       5.894852e-12 5.9317048e-12 8.154434e-12 8.072092e-12
000060 89 30 95 2c 39 1b f9 2c ee e5 ba 2c ca 67 f9 2c
       4.240223e-12 7.080028e-12 5.3119653e-12 7.0885285e-12
000070 97 5e 00 2d 38 cf 19 2d 35 36 f4 2c 37 ec 43 2d
       7.296961e-12 8.743055e-12 6.9409153e-12 1.1136917e-11
000080 92 78 0a 2d cd 18 ec 2c dc 08 05 2d fe af 11 2d
       7.871164e-12 6.710277e-12 7.562142e-12 8.281374e-12
000090 90 3e 5c ad 3c f8 cb ad d3 80 31 ad c7 19 ce ad
       -1.2519444e-11 -2.3188666e-11 -1.008989e-11 -2.3430936e-11
0000a0 ec 15 2e ae c4 b6 c3 ad 49 fd 63 ad bc 9e ce ad
       -3.958249e-11 -2.2250098e-11 -1.2959697e-11 -2.348998e-11
0000b0 91 06 38 ad 78 e6 e4 36 a6 dc d5 31 fe 62 fd 35
       -1.0460647e-11 6.8217596e-06 6.2242007e-09 1.8878779e-06
0000c0 49 bd 0e 32 2e 4a 90 ac 83 15 19 b3 38 89 1a 36
       8.308526e-09 -4.1009618e-12 -3.5642653e-08 2.302766e-06
0000d0 1d e7 28 32 f5 3b b0 35 bc 47 07 2c 9b 34 10 2d
       9.831436e-09 1.3130472e-06 1.9224474e-12 8.197133e-12
0000e0 fa 6a 2b 2c 9e 13 0d 2d 3e a0 eb 2c 19 a8 24 2d
       2.4359945e-12 8.019278e-12 6.696892e-12 9.359646e-12
0000f0 9e 3d 47 2c dd 80 1a 2d d4 6d 55 2c d7 c5 ee ad
       2.8313805e-12 8.7825e-12 3.0330087e-12 -2.7145326e-11
000100 fd 9c 1a ae fc 70 da ad c9 8c 16 ae 85 37 4c ae
       -3.515498e-11 -2.4833906e-11 -3.4231094e-11 -4.643354e-11
000110 17 1d 0c ae 35 8a e7 ad 58 60 13 ae 9a 90 d1 ad
       -3.185815e-11 -2.6323036e-11 -3.35095e-11 -2.3824765e-11
000120 de 8e e0 2b 2c 6a 14 ac 14 7a 92 2c cd 0b 94 ac
       1.5955811e-12 -2.1091002e-12 4.163123e-12 -4.207723e-12
000130 7e f2 1b ad 75 50 0e ac 74 5b 79 a8 aa 99 93 ac
       -8.864574e-12 -2.0224076e-12 -1.3842107e-14 -4.1950514e-12
000140 e1 0f 2c 2c c6 b1 7b b0 8c 31 a5 b0 86 db 9f b0
       2.4451485e-12 -9.15659e-10 -1.2019412e-09 -1.1631165e-09
000150 16 7a 99 b0 8d cc fc b0 99 3e b7 b0 2d 5e 84 b0
       -1.1166914e-09 -1.839355e-09 -1.3332794e-09 -9.63103e-10
000160 d3 fc a8 b0 1f 1d 9b b0 00 64 16 2f 91 a0 25 2f
       -1.2295466e-09 -1.1286011e-09 1.3677948e-10 1.5063707e-10
000170 43 71 16 2f 51 a8 25 2f f3 ad 2a 2f 27 a5 25 2f
       1.3682659e-10 1.506646e-10 1.5523209e-10 1.5065336e-10
000180 9c 4a 16 2f f5 a4 25 2f 55 56 16 2f 62 5f 52 2e
       1.3668927e-10 1.5065267e-10 1.3673092e-10 4.783319e-11
000190 1b f8 26 2e 83 3f 53 2e d1 9d 27 2e 7b 73 85 2e
       3.7964392e-11 4.8032255e-11 3.8111573e-11 6.068653e-11
0001a0 af 0a 27 2e 8c 58 51 2e c2 9d 27 2e 34 50 52 2e
       3.7980893e-11 4.7599744e-11 3.811152e-11 4.7819707e-11
0001b0 c7 fa c7 ac 56 8a 2a ac 25 dc c8 ac 4b 51 29 ac
       -5.683762e-12 -2.4235245e-12 -5.708783e-12 -2.4061471e-12
0001c0 bd c5 16 ab 42 53 29 ac de e8 c5 ac e7 39 28 ac
       -5.356512e-13 -2.4062562e-12 -5.62493e-12 -2.3906378e-12
0001d0 d4 e0 c6 ac 6f e5 09 2f 69 da 79 2f 2a 3d 09 2f
       -5.6524594e-12 1.2541589e-10 2.2724013e-10 1.2481807e-10
0001e0 a0 52 7b 2f ce d6 5e 2f 9d c1 79 2f 5c 7d 0a 2f
       2.2857671e-10 2.0267096e-10 2.2715203e-10 1.2595563e-10
0001f0 4c 42 7b 2f fa d6 09 2f 9e 2a 98 ad 51 ee 6a ad
       2.285187e-10 1.2536452e-10 -1.7299325e-11 -1.3354277e-11
000200 98 f0 97 ad da df 68 ad 56 85 14 2e a9 38 6b ad
       -1.7273558e-11 -1.3237378e-11 3.376973e-11 -1.33707845e-11
000210 f9 ac 98 ad 7e f9 68 ad 18 78 98 ad c7 5b ae 2c
       -1.7357215e-11 -1.3243072e-11 -1.7333732e-11 4.9555668e-12
000220 e5 a1 84 2c e2 48 ae 2c be 37 84 2c 81 c5 88 ad
       3.7696395e-12 4.953469e-12 3.7578543e-12 -1.554912e-11
000230 61 36 84 2c cc 56 ad 2c bc b2 83 2c e7 32 ad 2c
       3.757703e-12 4.926592e-12 3.7430874e-12 4.922607e-12
000240 e4 2b 3c 2f 24 96 38 2f 81 d6 3c 2f 88 24 38 2f
       1.7114093e-10 1.6788043e-10 1.7174707e-10 1.6747681e-10
000250 80 a9 1c 2f b9 88 38 2f d3 4a 3b 2f 8f 13 38 2f
       1.4248336e-10 1.6783276e-10 1.7034134e-10 1.6741651e-10
000260 54 ed 3b 2f 75 c4 1e ae b2 0a 3e ae 06 a5 1e ae
       1.7091867e-10 -3.609953e-11 -4.3210498e-11 -3.607161e-11
000270 71 59 3e ae 1a d4 74 ae be 21 3e ae a4 e2 1e ae
       -4.3280438e-11 -5.566756e-11 -4.3230967e-11 -3.6126338e-11
000280 e8 57 3e ae ee c0 1e ae 9f 33 2b 35 ef 74 04 33
       -4.3279075e-11 -3.6096397e-11 6.377758e-07 3.0839995e-08
000290 39 e4 3a 35 ad c1 37 31 df df 24 b5 ca fa 03 32
       6.962251e-07 2.6740097e-09 -6.1420536e-07 7.682226e-09
0002a0 66 37 33 35 d9 f3 f9 32 f0 a7 3b 35 36 e2 7a b2
       6.676331e-07 2.9098304e-08 6.990731e-07 -1.460335e-08
0002b0 b2 ce 67 b2 5d 90 78 b2 30 c7 66 b2 3e 00 aa 31
       -1.3492967e-08 -1.4468324e-08 -1.3433052e-08 4.9476787e-09
0002c0 08 79 68 b2 15 5a 7c b2 27 3e 67 b2 8d f2 79 b2
       -1.3531697e-08 -1.4688813e-08 -1.34601015e-08 -1.4548857e-08
0002d0 cc e9 5c 33 bc 78 2b b3 28 37 5f 33 3a 73 2b b3
       5.143538e-08 -3.9923847e-08 5.1971398e-08 -3.9918838e-08
0002e0 c1 63 c6 31 da 96 2b b3 cc a2 5f 33 ab 8c 2b b3
       5.773899e-09 -3.995124e-08 5.2069296e-08 -3.9941977e-08
0002f0 b2 78 61 33 3a bd f4 31 a0 78 c0 b1 49 a8 1f 32
       5.2496667e-08 7.122847e-09 -5.601649e-09 9.293282e-09
000300 70 0c b0 b1 23 20 2c 33 a0 38 b1 b1 aa 61 4c 31
       -5.123688e-09 4.00761e-08 -5.1578155e-09 2.9741423e-09
000310 2b ba a3 b1 9b c2 ab 31 0b a1 36 b2 9b a4 a6 31
       -4.765089e-09 4.998879e-09 -1.0630411e-08 4.8499493e-09
000320 6a 37 34 b2 a3 34 94 31 f2 ae 6f b3 ed 89 a4 31
       -1.0489979e-08 4.313351e-09 -5.5805636e-08 4.7887085e-09
000330 0c b7 3b b2 6b 3d 92 31 67 a5 39 b2 03 a4 89 b6
       -1.0926453e-08 4.2561417e-09 -1.0806025e-08 -4.1020116e-06
000340 03 82 86 36 2d 3b 04 b4 4a b8 50 35 75 47 43 36
       4.0086466e-06 -1.2314986e-07 7.7754214e-07 2.9098858e-06
000350 41 d1 9e 36 76 66 89 b5 3c 1b 2d 35 8c 54 dd 35
       4.7331273e-06 -1.0237115e-06 6.4487153e-07 1.649039e-06
000360 b0 c7 c9 b2 29 82 af 31 fd 31 d1 b2 78 39 b6 31
       -2.3490287e-08 5.107968e-09 -2.4353534e-08 5.3034306e-09
000370 ce f2 1d b2 bd 9f b0 31 b6 77 bd b2 dd c7 b7 31
       -9.19381e-09 5.1404343e-09 -2.2056934e-08 5.348723e-09
000380 20 b8 c5 b2 d0 0b b9 b2 43 04 c6 b2 d6 5b b7 b2
       -2.3017549e-08 -2.1542206e-08 -2.3052172e-08 -2.1345766e-08
000390 1d f7 c5 b2 51 6d 33 b3 f1 92 c5 b2 7a 2f bd b2
       -2.3046193e-08 -4.1776108e-08 -2.300064e-08 -2.2024086e-08
0003a0 d9 83 c5 b2 b4 a1 bb b2 aa dd 90 32 e7 d3 9f b1
       -2.2993776e-08 -2.18432e-08 1.6864607e-08 -4.6515995e-09
0003b0 76 b6 91 32 40 ee a4 b1 9b ac 60 32 6b 08 a3 b1
       1.6963195e-08 -4.800114e-09 1.3077762e-08 -4.7448814e-09
0003c0 a8 26 93 32 bd 04 a8 b1 50 dd 93 32 32 3a 0e ae
       1.7130631e-08 -4.889982e-09 1.7213694e-08 -3.233875e-11
0003d0 01 34 1c ae 88 47 14 ae dd a0 1e ae ca ec 1a ae
       -3.5516482e-11 -3.3714836e-11 -3.6067916e-11 -3.5225857e-11
0003e0 da 76 24 ae 4f 51 15 ae fc db 1f ae 1e 31 17 ae
       -3.7394844e-11 -3.3950894e-11 -3.63478e-11 -3.437705e-11
0003f0 53 aa f0 2b b3 b1 06 2c c2 9b f4 2b 12 73 08 2c
       1.71003e-12 1.9141188e-12 1.7380474e-12 1.939064e-12

hidden.bias f4 [64]
000000 ba dd f5 2e 0e d7 3b b4 e2 42 b1 b4 f2 e5 f7 b0
       1.11806966e-10 -1.7493969e-07 -3.3017483e-07 -1.803697e-09
000010 fc 85 b8 ae a9 5a 84 2c 86 f7 01 ae 5f 07 5f ad
       -8.391152e-11 3.761731e-12 -2.955105e-11 -1.2677719e-11
000020 f4 02 7e 2f ca c3 27 2e 22 60 11 b3 8b 13 c2 b5
       2.3102215e-10 3.81453e-11 -3.3847876e-08 -1.4459814e-06
000030 dd 10 0e af 29 62 b7 30 c7 c8 55 2e 26 28 24 ae
       -1.2920816e-10 1.3342901e-09 4.860892e-11 -3.7324942e-11
000040 49 1d 39 2e f1 55 0a af 53 fe b3 2f 99 a0 7a ad
       4.209014e-11 -1.258156e-10 3.2740619e-10 -1.42465146e-11
000050 8a b7 c6 ae a5 3d 86 2e 18 a3 45 ae d8 31 63 b3
       -9.0366006e-11 6.104565e-11 -4.493747e-11 -5.289789e-08
000060 00 5f 6b 35 14 d8 57 2f f7 9e 89 b5 a6 42 06 33
       8.7682565e-07 1.9630902e-10 -1.025356e-06 3.1259923e-08
000070 26 87 be af 21 c7 ca ac 65 46 85 31 03 77 cc af
       -3.4656827e-10 -5.763293e-12 3.8788124e-09 -3.7191947e-10
000080 27 d5 6b 30 9f c0 4c 36 d0 39 e9 ad 74 3f 74 2f
       8.579541e-10 3.051049e-06 -2.6514707e-11 2.2214214e-10
000090 5a bf 88 2f fd 8b 50 af 28 5c 9d 31 e1 b0 89 2f
       2.487422e-10 -1.8967224e-10 4.5797783e-09 2.5045835e-10
0000a0 b6 17 60 ae 60 40 1b b3 dd 82 29 2c 7d a6 b2 35
       -5.0952763e-11 -3.61473e-08 2.4088988e-12 1.3310488e-06
0000b0 24 6d fe 30 58 a7 0c 2f 9d 49 06 b2 65 bd bf b4
       1.8511952e-09 1.2792378e-10 -7.816564e-09 -3.5714325e-07
0000c0 65 66 df 2f bb b6 40 34 00 c5 0c 35 e2 7b 95 31
       4.063622e-10 1.794787e-07 5.2440737e-07 4.3505546e-09
0000d0 66 5d 8d 2e 37 f9 c1 ad 50 db 41 2d f3 e3 08 2d
       6.4285285e-11 -2.2052233e-11 1.1019477e-11 7.78132e-12
0000e0 62 13 b2 ae 8f 90 95 b2 83 32 df ae da 5e 01 ad
       -8.097946e-11 -1.741162e-08 -1.01498386e-10 -7.353862e-12
0000f0 41 a3 7c 30 d0 01 8d b0 1a 0d 92 2e 89 e5 c4 b5
       9.1909064e-10 -1.0259615e-09 6.6416386e-11 -1.4669941e-06

h0.weight f4 [64, 64, 3, 3]
000000 a3 5d 74 2f 7b 02 79 2f 3e 43 78 2f c3 5c 74 2f
       2.2224937e-10 2.26473e-10 2.2579358e-10 2.2224626e-10
000010 3d 1e 70 2f 45 ec 78 2f 18 da 71 2f 2e b6 73 2f
       2.1838616e-10 2.2639408e-10 2.1996305e-10 2.2165444e-10
000020 69 58 73 2f 87 8c 03 31 3d b3 a0 30 aa 6a 03 31
       2.2132131e-10 1.914289e-09 1.1692475e-09 1.912364e-09
000030 3f a4 a0 30 6f a2 1b 30 77 91 a0 30 ca 72 04 31
       1.1688214e-09 5.6619504e-10 1.1682876e-09 1.9273778e-09
000040 01 dd a1 30 13 1f 05 31 69 57 f2 b3 a9 e1 80 33
       1.1777105e-09 1.937171e-09 -1.1284903e-07 6.001512e-08
000050 d4 4d fe b3 45 da 52 33 f9 2d 00 34 bb 1b 83 33
       -1.18419536e-07 4.909295e-08 1.1937654e-07 6.105207e-08
000060 a7 fa f7 b3 c2 2b 35 33 ed bf 01 b4 d7 ea 69 2e
       -1.1547427e-07 4.2182144e-08 -1.2083883e-07 5.3186646e-11
000070 79 9f 41 2e 43 72 69 2e 68 13 40 2e cb 07 0b 2e
       4.402476e-11 5.307955e-11 4.3672982e-11 3.1611862e-11
000080 a4 22 40 2e a6 c0 68 2e f0 5c 40 2e 4f 26 69 2e
       4.3686513e-11 5.29218e-11 4.373829e-11 5.301209e-11
000090 b9 f8 3b 2c 37 91 70 2c ef fd 31 2c cb cc 6c 2c
       2.6712367e-12 3.4186662e-12 2.5294174e-12 3.36513e-12
0000a0 d4 92 8f 2c a8 14 64 2c c7 c3 21 2c c8 89 5a 2c
       4.0806056e-12 3.2412215e-12 2.2988154e-12 3.1056147e-12
0000b0 8a 74 1a 2c 56 11 eb 2c 55 f4 01 2d 2c 27 e6 2c
       2.1949408e-12 6.6810264e-12 7.387054e-12 6.541342e-12
0000c0 90 99 01 2d 0a d8 42 2d 99 95 f8 2c 87 90 dc 2c
       7.366899e-12 1.1075594e-11 7.0651926e-12 6.268822e-12
0000d0 c7 17 f6 2c 13 bc db 2c b8 1f d6 2b 5f b7 e1 2b
       6.9943803e-12 6.245235e-12 1.5214418e-12 1.6038107e-12
0000e0 44 53 cc 2b ee 39 dd 2b 47 15 e1 2b 1c af d4 2b
       1.4518183e-12 1.5719073e-12 1.5993117e-12 1.5112109e-12
0000f0 69 4c c3 2b eb 1c d2 2b 78 e8 bc 2b 92 b0 0d 2b
       1.3876791e-12 1.4929424e-12 1.3422726e-12 5.0338303e-13
000100 22 92 7b 2a ac 0e 1a 2b cf a7 86 2a ee e0 b9 2a
       2.2343978e-13 5.473215e-13 2.3919622e-13 3.3018678e-13
000110 cf f5 87 2a 4e 0e 1c 2b 13 8e 94 2a 95 00 2c 2b
       2.415138e-13 5.5442185e-13 2.6388665e-13 6.1107483e-13
000120 87 a4 4d ad 2b ba 40 ad 3e 95 4b ad 8b 8f 41 ad
       -1.1689433e-11 -1.0955274e-11 -1.15723525e-11 -1.1002653e-11
000130 96 dc 61 ad 9c 13 3e ad 0f be 46 ad 08 dd 3a ad
       -1.2838749e-11 -1.0804604e-11 -1.1297198e-11 -1.0621955e-11
000140 44 89 44 ad 1d c1 86 ab 88 cc 18 ad fe ef 81 ab
       -1.1171789e-11 -9.574872e-13 -8.685615e-12 -9.232613e-13
000150 41 af 1c ad f8 d7 27 ad d4 c9 1a ad 73 87 91 ab
       -8.9064875e-12 -9.540806e-12 -8.798701e-12 -1.0340464e-12
000160 f8 e5 1a ad 8b b4 87 ab c9 1e a6 b1 1c 7c 94 b1
       -8.80495e-12 -9.642438e-13 -4.8347357e-09 -4.3214765e-09
000170 c4 20 ad b1 dd a9 8c b1 8f 60 61 30 d8 6c 8d b1
       -5.0386877e-09 -4.0938475e-09 8.199174e-10 -4.116014e-09
000180 a9 06 97 b1 08 52 97 b1 5f e0 9e b1 90 2b 93 31
       -4.3954356e-09 -4.4040043e-09 -4.6239133e-09 4.2832156e-09
000190 a7 60 94 30 6c 23 92 31 0c 90 a1 30 db a9 e9 b0
       1.0795888e-09 4.2531862e-09 1.1755232e-09 -1.7001257e-09
0001a0 76 55 a7 30 7c 25 9b 31 a4 25 b3 30 8c 15 a0 31
       1.2175139e-09 4.515355e-09 1.3034662e-09 4.6590625e-09
0001b0 0c 31 be 2c a0 d6 c8 2c f2 07 bd 2c 95 e4 c9 2c
       5.40557e-12 5.70817e-12 5.372585e-12 5.7381413e-12
0001c0 59 10 c1 2c c2 f0 c8 2c 2c 38 bc 2c c0 32 ca 2c
       5.487205e-12 5.7110714e-12 5.3495177e-12 5.7468197e-12
0001d0 17 31 bb 2c c7 2c 14 ae c9 c9 49 ae 11 2c 06 ae
       5.3203097e-12 -3.3691074e-11 -4.588133e-11 -3.050721e-11
0001e0 f5 c3 4a ae bc cb 72 ae 35 06 33 ae 6d 5e 0b ae
       -4.6103527e-11 -5.5205382e-11 -4.07054e-11 -3.1688808e-11
0001f0 03 d5 42 ae 9e 31 f7 ad c1 c8 28 ac e7 8b 1e ac
       -4.4299685e-11 -2.8102683e-11 -2.3985677e-12 -2.2530812e-12
000200 e2 0a 2a ac b3 28 21 ac a1 9f 0c ac 93 40 22 ac
       -2.4164494e-12 -2.2902069e-12 -1.9983808e-12 -2.305743e-12
000210 7d b9 2d ac 21 a9 25 ac 32 c6 2e ac d6 52 e8 2b
       -2.4687745e-12 -2.3541796e-12 -2.4836908e-12 1.6507583e-12
000220 75 fe 2c 2b ed a9 f1 2b 8b 66 27 2b 15 a7 cc 2b
       6.1459805e-13 1.7171244e-12 5.9472625e-13 1.4541446e-12
000230 34 1b 33 2b ec ac e7 2b 5d ce 2e 2b 4d 66 ee 2b
       6.3631327e-13 1.6461533e-12 6.2103605e-13 1.6939311e-12
000240 45 72 06 ac a8 2d e0 ab b7 87 0c ac e4 2a d9 ab
       -1.9105978e-12 -1.5928829e-12 -1.9970533e-12 -1.5430682e-12
000250 52 ee 1d ac 88 22 dd ab 3f 0c fa ab f5 fb d2 ab
       -2.2443336e-12 -1.5712579e-12 -1.7766967e-12 -1.499133e-12
000260 3a 18 06 ac ed 48 01 2d 0f ef 09 2d 42 31 fd 2c
       -1.9055994e-12 7.348994e-12 7.84063e-12 7.196161e-12
000270 dd e3 06 2d f8 ff 1e 2d 32 43 05 2d 7a b9 ef 2c
       7.667614e-12 9.038097e-12 7.575095e-12 6.8133806e-12
000280 1c d3 02 2d 14 3f ec 2c 88 5b a1 ad 26 5f c6 ad
       7.43652e-12 6.7145265e-12 -1.8344229e-11 -2.2552248e-11
000290 28 a3 97 ad 8e 28 c1 ad 75 3e d0 ad 9a 27 ba ad
       -1.7239168e-11 -2.195957e-11 -2.3674599e-11 -2.1163338e-11
0002a0 73 82 8d ad 35 80 b5 ad 5a 25 87 ad 86 f6 57 ac
       -1.6087775e-11 -2.0634253e-11 -1.536431e-11 -3.0690186e-12
0002b0 94 a2 28 ac 79 42 60 ac f8 ec 22 ac 94 74 33 ab
       -2.3964485e-12 -3.1869214e-12 -2.3153129e-12 -6.375536e-13
0002c0 c1 4b 2c ac 15 66 5c ac 3a 91 28 ac f0 ea 5e ac
       -2.4484722e-12 -3.1320547e-12 -2.3954853e-12 -3.1678514e-12
0002d0 19 74 d8 2c 6f 79 d8 2c 88 07 cd 2c 2d 11 d2 2c
       6.1519787e-12 6.152571e-12 5.8272866e-12 5.970466e-12
0002e0 bf 97 e2 2c 27 ed c9 2c 82 6f c3 2c 66 86 c6 2c
       6.4401535e-12 5.739093e-12 5.554613e-12 5.6424197e-12
0002f0 1a c1 be 2c 0a 0d 50 ac fa 2d 70 ac 34 c1 41 ac
       5.4215634e-12 -2.9565816e-12 -3.4131573e-12 -2.7534199e-12
000300 1b b6 69 ac 0d b7 87 ac d3 55 60 ac b9 e8 37 ac
       -3.321238e-12 -3.8572535e-12 -3.1879957e-12 -2.6135051e-12
000310 31 b1 5c ac 36 6c 2f ac 3e c3 b9 2c c9 5f b1 2c
       -3.1362241e-12 -2.4929065e-12 5.2796925e-12 5.041277e-12
000320 b3 a8 af 2c 47 ea aa 2c 14 9d a3 2c ff 34 a5 2c
       4.9925285e-12 4.8577006e-12 4.650178e-12 4.695466e-12
000330 62 1f a8 2c 01 bc a2 2c a5 cb a4 2c 08 64 3b 30
       4.7783314e-12 4.6251896e-12 4.6837694e-12 6.8172357e-10
000340 28 af ec 2f 38 d7 3b 30 00 9f eb 2f 6f 8d 76 2f
       4.3052606e-10 6.833605e-10 4.2859227e-10 2.2423817e-10
000350 2d 51 ec 2f a8 e3 3b 30 be 23 ed 2f 0f 2d 3d 30
       4.298583e-10 6.835372e-10 4.3135445e-10 6.882183e-10
000360 ac 8b bf b3 81 91 b4 b5 b8 20 fc 32 4c a1 b4 b5
       -8.919537e-08 -1.3453392e-06 2.935154e-08 -1.3457989e-06
000370 20 30 33 b5 74 65 b4 b5 60 be 2c b4 36 4a b4 b5
       -6.675273e-07 -1.3440572e-06 -1.6088006e-07 -1.3432643e-06
000380 c7 95 9d b3 d2 8a 76 ad a7 a8 82 ad ec 3b 6e ad
       -7.3381266e-08 -1.4014305e-11 -1.4854186e-11 -1.3542039e-11
000390 cf 9f 7e ad 49 e7 89 ad 8d 21 79 ad 77 fe 60 ad
       -1.4473713e-11 -1.5677808e-11 -1.4161461e-11 -1.2789428e-11
0003a0 4a 60 73 ad 9d 9f 5d ad 3f 03 8f b4 34 83 19 b5
       -1.3834331e-11 -1.2597837e-11 -2.6638187e-07 -5.718787e-07
0003b0 09 fd 93 b4 08 a8 1c b5 a4 a5 90 b4 88 52 1b b5
       -2.756499e-07 -5.8359046e-07 -2.694261e-07 -5.78621e-07
0003c0 f5 84 87 b4 b1 31 1e b5 76 33 9e b4 f6 53 64 b1
       -2.5242448e-07 -5.89319e-07 -2.9467236e-07 -3.3226093e-09
0003d0 c1 30 90 31 4d 6b 8b b1 3b 7b 8c 31 0e 61 d8 b1
       4.1964943e-09 -4.057631e-09 4.088546e-09 -6.297461e-09
0003e0 87 b7 97 31 69 27 85 b1 4c 1f 91 31 b8 29 a2 b1
       4.415543e-09 -3.87529e-09 4.2236135e-09 -4.7195634e-09
0003f0 86 ea ce 2c 78 9d 0a 2d 9d d4 c3 2c 51 ed 07 2d
       5.8809095e-12 7.879357e-12 5.565838e-12 7.726556e-12

h0.bias f4 [64]
000000 10 51 55 3c e6 c8 2a bc 7c 8b 2d b7 75 9e b8 b8
       0.013019815 -0.0104238745 -1.034408e-05 -8.8033186e-05
000010 3a d0 f1 b4 db f1 73 35 5f 21 2c b7 b5 67 7d b7
       -4.5041253e-07 9.08765e-07 -1.0259769e-05 -1.5104121e-05
000020 94 4c 1f b7 97 10 55 bc ec d0 54 bc 76 ed 54 bc
       -9.494968e-06 -0.013004444 -0.012989264 -0.012996068
000030 a5 e1 6c b6 24 a8 82 b7 5c 88 06 39 ff f6 55 3c
       -3.5298083e-06 -1.5575504e-05 0.00012830034 0.013059377
000040 09 6e 9e b6 22 e0 55 bc 4e 46 3f 36 fc d4 0f 36
       -4.7215767e-06 -0.013053926 2.850214e-06 2.1432634e-06
000050 59 68 8a 36 e5 c6 55 bc 8c 63 54 3c 69 c9 cf b6
       4.124868e-06 -0.013047908 0.012963187 -6.192528e-06
000060 97 64 ed b6 9b ff 98 b6 d6 97 28 b9 5b 32 20 35
       -7.0748606e-06 -4.5597094e-06 -0.00016078292 5.967792e-07
000070 f1 cc 49 b6 11 b0 55 bc 5d 63 54 3c 7a ec 2e b4
       -3.0070626e-06 -0.013042466 0.012963143 -1.6291042e-07
000080 c3 3a b1 b7 52 0f 91 35 75 32 23 b5 9d 05 b4 36
       -2.1127407e-05 1.0807801e-06 -6.0795657e-07 5.3650715e-06
000090 38 ff 4c b7 b4 96 55 bc d6 7c 54 3c 11 55 02 b7
       -1.221877e-05 -0.013036419 0.012969216 -7.76841e-06
0000a0 d2 72 64 b5 5d 33 55 bc 2d f7 ca b5 93 0b e9 36
       -8.5103704e-07 -0.013012734 -1.512211e-06 6.9452885e-06
0000b0 9f 4f d1 37 7c a3 55 bc 9c de b2 35 e9 0d f0 36
       2.4951818e-05 -0.013039466 1.3326821e-06 7.1541767e-06
0000c0 0c 5f 06 37 a6 b1 0a 37 54 6e 4d 37 80 34 83 36
       8.009152e-06 8.266803e-06 1.224464e-05 3.910216e-06
0000d0 0c ef 0b 37 65 f4 1e b9 e0 66 55 3c 05 77 e6 37
       8.340703e-06 -0.00015159098 0.013025016 2.747356e-05
0000e0 20 3b 30 37 15 40 1f 37 24 62 80 36 5d e5 55 3c
       1.0504184e-05 9.492059e-06 3.8261223e-06 0.013055173
0000f0 48 db 42 37 ce df a6 b6 5d 8a dc 37 87 03 43 37
       1.16143565e-05 -4.97324e-06 2.6290474e-05 1.1623727e-05

c0.weight f4 [64, 64, 3, 3]
000000 63 ea 74 2e 0f 6f a7 2e 19 7f 85 2e c3 d8 9f 2e
       5.5687354e-11 7.614009e-11 6.070717e-11 7.2689875e-11
000010 f1 02 c2 2e 3c 3b a8 2e ea 7b 6a 2e 32 82 a1 2e
       8.822621e-11 7.6502776e-11 5.3315498e-11 7.34456e-11
000020 f6 c3 79 2e 20 32 32 31 4c 2e 5d 31 0c 02 32 31
       5.6790093e-11 2.5930902e-09 3.218605e-09 2.5903573e-09
000030 cf 19 5d 31 eb ce 7a 31 b3 eb 5c 31 3d b8 31 31
       3.2174403e-09 3.6497407e-09 3.2148193e-09 2.5861617e-09
000040 f7 be 5c 31 88 7c 31 31 4b 81 a0 b3 03 91 b2 b4
       3.2122764e-09 2.5827678e-09 -7.474099e-08 -3.3260594e-07
000050 51 7f a7 b3 7f 35 b1 b4 05 59 cb b4 11 85 b3 b4
       -7.799702e-08 -3.3007743e-07 -3.7876467e-07 -3.3438167e-07
000060 7f 5a a7 b3 9d 02 b1 b4 0e c8 a6 b3 92 32 05 2e
       -7.7930046e-08 -3.297072e-07 -7.766367e-08 3.0285614e-11
000070 29 2d 10 2e 14 1d 05 2e 62 63 0f 2e 9a 1e 20 2e
       3.278192e-11 3.0266525e-11 3.2602705e-11 3.6406968e-11
000080 f8 36 0f 2e 09 60 04 2e 4c d6 0e 2e 9d 6b 04 2e
       3.2563258e-11 3.009862e-11 3.2477396e-11 3.0108905e-11
000090 23 4d a7 2b 53 60 de 2b ae 3d 8e 2b b8 40 da 2b
       1.1887473e-12 1.5800784e-12 1.0106826e-12 1.5507795e-12
0000a0 51 e4 e8 2b 59 64 cc 2b c5 f7 88 2b b2 4f c5 2b
       1.6547962e-12 1.4522924e-12 9.732151e-13 1.4019812e-12
0000b0 ad a8 69 2b 52 05 16 2c 3b 8b 53 2c 5e a9 00 2c
       8.3012313e-13 2.1319235e-12 3.0062192e-12 1.8283912e-12
0000c0 0f 33 54 2c 23 0b e1 2b 68 fe 53 2c fc b7 18 2c
       3.0155355e-12 1.5990303e-12 3.0126127e-12 2.170263e-12
0000d0 53 0a 59 2c 3b 20 f4 2b 3d fd 5d 2b 38 24 94 2b
       3.0843286e-12 1.7346189e-12 7.886641e-13 1.0526085e-12
0000e0 51 04 4d 2b 25 ca 91 2b f8 3b 99 2b 1d ed 89 2b
       7.283662e-13 1.0358976e-12 1.0887949e-12 9.800248e-13
0000f0 98 14 43 2b 65 86 88 2b aa f9 35 2b d9 82 bc 2a
       6.9306496e-13 9.700683e-13 6.4650596e-13 3.3486302e-13
000100 00 f8 1d 2b 80 f6 b9 2a 6f 18 26 2b 5e 83 90 2b
       5.6121774e-13 3.3033645e-13 5.9008955e-13 1.0268277e-12
000110 62 3a 1f 2b 65 ce cc 2a 0f 35 24 2b 00 dd c0 2a
       5.656917e-13 3.6380894e-13 5.833814e-13 3.42594e-13
000120 92 33 2b ac ce bc f5 ac d6 e6 1b ac 5a 46 00 ad
       -2.4329189e-12 -6.9842803e-12 -2.2154964e-12 -7.291579e-12
000130 7a 76 15 ad a0 09 f7 ac 76 a7 2a ac 3e 7e fc ac
       -8.4959765e-12 -7.021231e-12 -2.4251413e-12 -7.1762865e-12
000140 fa 6a 13 ac f3 a9 15 ac 48 61 bd 28 84 61 10 ac
       -2.094934e-12 -2.1268514e-12 2.1025404e-14 -2.0517763e-12
000150 96 51 4c 2a 0e c1 3f 2c 24 ba 7b a9 a6 71 1f ac
       1.8147146e-13 2.72499e-12 -5.5894647e-14 -2.2658347e-12
000160 3b d5 37 aa 0e ab 16 ac 8d 0e 1e b2 2d 77 97 31
       -1.6327644e-13 -2.1411236e-12 -9.200119e-09 4.408227e-09
000170 31 48 26 b2 ac 5d 93 31 9c 73 ed 31 a9 57 91 31
       -9.678886e-09 4.2889123e-09 6.910751e-09 4.2300212e-09
000180 89 50 21 b2 9a 43 93 31 91 cc 25 b2 59 93 c2 32
       -9.389745e-09 4.2859485e-09 -9.650777e-09 2.2651578e-08
000190 63 91 c6 32 a8 20 c2 32 93 e6 c7 32 34 26 b8 32
       2.3116348e-08 2.2599423e-08 2.3271502e-08 2.1437792e-08
0001a0 9c 6a c7 32 43 58 c2 32 1f 4e c8 32 ae 1c c2 32
       2.321513e-08 2.262471e-08 2.331859e-08 2.2597614e-08
0001b0 5a 81 5e 2c a8 ab 35 2c 64 da 5b 2c 7c ae 37 2c
       3.1619902e-12 2.5816935e-12 3.1243003e-12 2.6102722e-12
0001c0 4d 5f 27 2c 4a 5c 35 2c 73 4a 5e 2c 3b 40 39 2c
       2.378503e-12 2.5772878e-12 3.1589425e-12 2.6325736e-12
0001d0 cd 4c 5d 2c e7 51 6a ab f1 ac 41 ad 63 6d 91 aa
       3.1448622e-12 -8.324716e-13 -1.10091805e-11 -2.5833076e-13
0001e0 be 2e f9 ac 1a de b3 2b 66 b8 fd ac 8a cf 1d 2c
       -7.082195e-12 1.278036e-12 -7.211165e-12 2.242625e-12
0001f0 a5 51 04 ac 66 3f a5 2b 27 68 a0 ab c6 05 6f ab
       -1.880365e-12 1.1741552e-12 -1.1397592e-12 -8.491787e-13
000200 80 ed a0 ab 1c 55 74 ab b0 81 90 ab 1e ef 75 ab
       -1.1434603e-12 -8.6804327e-13 -1.0267811e-12 -8.7373327e-13
000210 c0 49 a7 ab ff 75 7c ab dd 0d a9 ab 31 fc 04 2a
       -1.1886533e-12 -8.9692137e-13 -1.201202e-12 1.1811452e-13
000220 aa 45 cb 2b 64 0b cf 29 82 b9 c9 2b c2 4b f4 2b
       1.4443353e-12 9.1946226e-14 1.4333398e-12 1.735827e-12
000230 99 91 ca 2b 4d 7f 16 2a eb 05 ca 2b ec cf f6 29
       1.4393375e-12 1.3366843e-13 1.4354606e-12 1.0960663e-13
000240 60 84 78 a9 a0 5d 28 ab f5 1d 83 29 57 2e 29 ab
       -5.518188e-14 -5.981552e-13 5.8227654e-14 -6.010517e-13
000250 e4 3d 8d ab 62 cd 1a ab e2 9c f3 26 dd f2 13 ab
       -1.0035831e-12 -5.4996817e-13 1.6904035e-15 -5.256193e-13
000260 cf eb 3b 2a bd b2 68 2c 38 47 a5 2c c4 21 60 2c
       1.6690749e-13 3.3068403e-12 4.697489e-12 3.1851058e-12
000270 22 84 a4 2c 80 d1 ce 2c 40 33 a1 2c 0a 8b 6a 2c
       4.67583e-12 5.8781313e-12 4.581585e-12 3.3330582e-12
000280 fd f3 a0 2c 61 b2 65 2c 4e 9a eb ac 02 4e 00 ad
       4.5745616e-12 3.2641877e-12 -6.696233e-12 -7.293279e-12
000290 72 e5 cf ac 3c c9 f7 ac 13 e7 25 ad 29 5d df ac
       -5.9087674e-12 -7.0425037e-12 -9.430473e-12 -6.348384e-12
0002a0 d4 9e b8 ac 6e 32 d3 ac e5 0e a3 ac ff 27 c0 2b
       -5.247228e-12 -6.0025795e-12 -4.6343923e-12 1.3653522e-12
0002b0 57 cb 66 aa 8a 02 b4 2b 24 2b 58 aa d5 95 ff 2a
       -2.0498651e-13 1.2790474e-12 -1.9199621e-13 4.5401066e-13
0002c0 cc 84 a5 aa d0 42 ae 2b 5e d5 a3 aa 42 25 a3 2b
       -2.9402034e-13 1.2381988e-12 -2.910267e-13 1.1592188e-12
0002d0 5f 27 59 2c 07 f7 78 2c 7d b5 4c 2c 57 4d 72 2c
       3.085941e-12 3.5380047e-12 2.909089e-12 3.44332e-12
0002e0 b4 ed 95 2c b1 57 63 2c f2 0e 3c 2c e5 14 5d 2c
       4.261225e-12 3.2307319e-12 2.6724703e-12 3.1417588e-12
0002f0 84 3c 31 2c 21 51 a3 ab 11 93 b7 ab c6 fe 91 ab
       2.5186806e-12 -1.1604364e-12 -1.3043751e-12 -1.0373584e-12
000300 a9 61 af ab cc 33 d8 ab 9b 2d a1 ab 6a 6d 7f ab
       -1.2461604e-12 -1.53621e-12 -1.1452396e-12 -9.074604e-13
000310 1b 1b 9a ab 11 51 66 ab 56 dd 6c 2c 4b f4 8c 2c
       -1.0949881e-12 -8.1824917e-13 3.3660483e-12 4.0061613e-12
000320 c4 6e 64 2c c8 0c 89 2c bc 1e b0 2c e2 34 85 2c
       3.2462236e-12 3.895193e-12 5.005633e-12 3.7859585e-12
000330 c4 6c 59 2c 4d ab 82 2c 9a 96 51 2c 58 c9 55 30
       3.0897932e-12 3.7138404e-12 2.9784287e-12 7.7775075e-10
000340 c2 38 85 30 ec 92 55 30 f5 42 85 30 3c fb 9c 30
       9.693155e-10 7.7697737e-10 9.696054e-10 1.1421899e-09
000350 35 25 85 30 6a 44 55 30 a9 12 85 30 f4 0c 55 30
       9.687599e-10 7.758617e-10 9.682327e-10 7.7507356e-10
000360 c3 6e c8 b4 7f 05 10 b3 4c f0 be b4 f8 3c 87 32
       -3.7333493e-07 -3.353261e-08 -3.5565097e-07 1.5743794e-08
000370 9e ef 61 34 4c fd 39 b2 c1 80 cd b4 ae 1f c5 31
       2.104193e-07 -1.082601e-08 -3.8277906e-07 5.737056e-09
000380 57 8c c6 b4 f6 d4 2f 2b 98 87 37 ab 6a 14 7c 2b
       -3.6982485e-07 6.246803e-13 -6.5202834e-13 8.9556715e-13
000390 bc 12 19 ab 60 5c f1 ab 48 27 ab aa f0 b3 a7 2b
       -5.438252e-13 -1.7149719e-12 -3.040296e-13 1.1916006e-12
0003a0 3f d9 f2 a9 aa c0 c5 2b 98 e3 22 36 9c ec 02 36
       -1.0784645e-13 1.4051167e-12 2.4272358e-06 1.9509234e-06
0003b0 da dd 21 36 e2 6b 02 36 3f 32 f4 34 58 b7 f8 35
       2.4120004e-06 1.9434306e-06 4.54851e-07 1.85308e-06
0003c0 01 6b 28 36 67 75 fc 35 91 b7 29 36 0e b4 60 31
       2.5096235e-06 1.8809632e-06 2.5289812e-06 3.269864e-09
0003d0 4e 7a 47 31 3f e8 2d 31 90 45 37 31 bf eb 0f 32
       2.9027833e-09 2.530683e-09 2.6669547e-09 8.377298e-09
0003e0 3f 62 59 31 49 aa 64 31 d5 e0 49 31 67 fd 24 31
       3.1633502e-09 3.3275163e-09 2.9377152e-09 2.4009184e-09
0003f0 35 72 a6 2c 7f d0 c4 2c 95 14 9d 2c 0b 33 c2 2c
       4.7306833e-12 5.5938028e-12 4.4644934e-12 5.5194785e-12

c0.bias f4 [64]
000000 27 b0 ce 3b 64 4d 8d bb 23 93 b1 b7 5d 70 c3 37
       0.00630762 -0.004312204 -2.116856e-05 2.3298135e-05
000010 05 8d 42 38 df ab 3f 36 d2 aa 6d b7 9b 90 d4 b7
       4.638454e-05 2.856126e-06 -1.4166073e-05 -2.5339707e-05
000020 66 b8 1c b7 7e 79 cd bb 05 e7 cb bb d3 f8 cc bb
       -9.341258e-06 -0.0062705865 -0.006222608 -0.006255248
000030 1a 07 af b6 cb b1 78 b7 e7 4f 0d b7 49 1b d3 3b
       -5.216233e-06 -1.4823348e-05 -8.422859e-06 0.0064424616
000040 c7 2b f9 b6 69 06 d2 bb c6 f7 c0 36 44 82 34 37
       -7.4258746e-06 -0.0064094556 5.7508905e-06 1.0759166e-05
000050 f8 57 89 37 f5 ee d1 bb 28 11 cb 3b 46 a8 34 b7
       1.6372636e-05 -0.0064066597 0.0061971135 -1.0768015e-05
000060 a1 9b 82 b7 f8 72 96 b5 de f1 86 36 1f 5f df 36
       -1.5569678e-05 -1.1209331e-06 4.0216682e-06 6.6569914e-06
000070 79 85 95 b7 18 b4 d0 bb 6a d7 ca 3b f1 41 50 37
       -1.7824337e-05 -0.006369125 0.00619023 1.2413119e-05
000080 c8 18 16 b8 44 db 69 36 d5 54 d0 35 97 2d fd 36
       -3.5785866e-05 3.4847335e-06 1.5521897e-06 7.545295e-06
000090 87 b0 ae b7 3a 46 d1 bb 48 ed ca 3b c6 62 72 b7
       -2.0824618e-05 -0.0063865455 0.006192837 -1.44473215e-05
0000a0 17 32 6a 36 60 53 ce bb 9f c5 de b5 34 48 82 36
       3.4897873e-06 -0.00629656 -1.6597804e-06 3.8827075e-06
0000b0 c4 4e 33 38 b1 36 d1 bb 48 7d 70 35 86 a3 95 35
       4.2750282e-05 -0.0063846936 8.9589275e-07 1.1148957e-06
0000c0 68 d9 1e 37 6d ac 8f 37 3e ff 93 37 cd be 39 37
       9.468153e-06 1.712722e-05 1.7642622e-05 1.1071284e-05
0000d0 98 f7 a1 37 e4 2d 08 37 52 7d cf 3b d7 7b f0 37
       1.930799e-05 8.116916e-06 0.006332078 2.8667897e-05
0000e0 35 1b b2 37 be 67 92 37 a1 52 ca 36 7c 65 d1 3b
       2.1231923e-05 1.7452865e-05 6.0296884e-06 0.0063902717
0000f0 48 91 16 38 b8 2a a2 35 3f 20 13 38 3e d5 9c 37
       3.589809e-05 1.2082373e-06 3.5077563e-05 1.8695948e-05

conv.weight f4 [64, 64, 3, 3]
000000 91 35 0f bb 3b 59 0c bb af 35 0f bb ad 58 0c bb
       -0.0021851996 -0.002141549 -0.0021852066 -0.002141516
000010 29 fd 0a bb e0 58 0c bb d8 34 0f bb 55 58 0c bb
       -0.0021208024 -0.0021415278 -0.0021851566 -0.0021414955
000020 10 35 0f bb b4 cc 10 3b 2a d8 0d 3b d0 cc 10 3b
       -0.0021851696 0.0022094669 0.0021643736 0.0022094734
000030 bd d7 0d 3b 42 32 0c 3b ec d7 0d 3b 2c cc 10 3b
       0.0021643483 0.002139226 0.0021643592 0.0022094352
000040 71 d7 0d 3b 59 cc 10 3b 0f b4 de b7 f5 a5 fe b6
       0.0021643306 0.0022094457 -2.6548309e-05 -7.58911e-06
000050 ca b4 de b7 0a a6 fe b6 62 97 cb 37 95 a5 fe b6
       -2.6548649e-05 -7.5891194e-06 2.4269979e-05 -7.589066e-06
000060 18 b5 de b7 f5 a4 fe b6 88 b5 de b7 90 fa fe b5
       -2.654879e-05 -7.5889934e-06 -2.6548994e-05 -1.8997398e-06
000070 77 8e d3 37 97 f9 fe b5 3b 8e d3 37 a3 38 6b 38
       2.52195e-05 -1.8997115e-06 2.5219391e-05 5.6081113e-05
000080 4c 8e d3 37 54 fa fe b5 29 8e d3 37 0c fa fe b5
       2.5219422e-05 -1.899733e-06 2.5219359e-05 -1.8997248e-06
000090 99 71 fe b6 3f 55 10 38 7c 71 fe b6 2d 55 10 38
       -7.5830144e-06 3.4411667e-05 -7.583001e-06 3.44116e-05
0000a0 b0 10 bb 36 34 55 10 38 5b 71 fe b6 40 55 10 38
       5.574977e-06 3.4411627e-05 -7.582986e-06 3.441167e-05
0000b0 45 71 fe b6 a7 3b a3 b5 4c 84 63 b5 f6 3b a3 b5
       -7.582976e-06 -1.2161807e-06 -8.4756607e-07 -1.2161897e-06
0000c0 e9 83 63 b5 de 32 5d b5 72 84 63 b5 8e 3c a3 b5
       -8.4756044e-07 -8.2402937e-07 -8.4756823e-07 -1.216207e-06
0000d0 05 84 63 b5 e3 3d a3 b5 d7 28 4c 37 0c 53 21 37
       -8.4756203e-07 -1.2162458e-06 1.2168856e-05 9.615684e-06
0000e0 bd 28 4c 37 ee 52 21 37 fd 65 fd b6 06 53 21 37
       1.2168833e-05 9.615656e-06 -7.5518606e-06 9.615678e-06
0000f0 f5 28 4c 37 10 53 21 37 f6 28 4c 37 0b d9 1d 37
       1.2168884e-05 9.615687e-06 1.21688845e-05 9.4084635e-06
000100 ac 6c b2 36 e0 d8 1d 37 9d 6c b2 36 62 7d ef b6
       5.3174645e-06 9.408424e-06 5.3174576e-06 -7.1373515e-06
000110 ba 6c b2 36 d6 d8 1d 37 ae 6c b2 36 e1 d8 1d 37
       5.317471e-06 9.408415e-06 5.3174654e-06 9.408425e-06
000120 df 6e 84 34 2d 18 b6 35 87 76 84 34 9d 18 b6 35
       2.4667585e-07 1.3567093e-06 2.4673156e-07 1.356722e-06
000130 02 63 e8 35 9f 18 b6 35 7a 55 84 34 11 19 b6 35
       1.7314162e-06 1.3567222e-06 2.4649108e-07 1.3567352e-06
000140 f3 67 84 34 d6 3b 0f 3b 08 6b 0c 3b fc 3b 0f 3b
       2.466255e-07 0.0021855733 0.00214261 0.0021855822
000150 70 6a 0c 3b e0 36 0b 3b b1 6a 0c 3b 1a 3b 0f 3b
       0.0021425746 0.0021242425 0.0021425898 0.0021855296
000160 27 6a 0c 3b 50 3b 0f 3b 76 33 0f 3b b9 56 0c 3b
       0.0021425576 0.0021855421 0.0021850741 0.0021413995
000170 98 33 0f 3b 2a 56 0c 3b 45 01 0b 3b 69 56 0c 3b
       0.002185082 0.0021413662 0.0021210473 0.002141381
000180 b3 32 0f 3b e0 55 0c 3b f1 32 0f 3b fa 3b 0f 3b
       0.0021850287 0.002141349 0.0021850432 0.0021855817
000190 00 6f 0c 3b 18 3c 0f 3b 78 6e 0c 3b 65 45 0b 3b
       0.0021428466 0.0021855887 0.002142815 0.002125108
0001a0 a8 6e 0c 3b 37 3b 0f 3b 23 6e 0c 3b 79 3b 0f 3b
       0.002142826 0.0021855363 0.0021427951 0.0021855517
0001b0 d3 8a 8b b4 1c 02 8f b5 2a 8b 8b b4 2d 02 8f b5
       -2.5991775e-07 -1.0654944e-06 -2.5992023e-07 -1.0654963e-06
0001c0 6c 6c cc b6 0e 02 8f b5 29 8b 8b b4 f6 01 8f b5
       -6.0922957e-06 -1.0654928e-06 -2.599202e-07 -1.0654901e-06
0001d0 ab 8b 8b b4 a2 17 1c 36 db 2e 95 35 e6 17 1c 36
       -2.599239e-07 2.3259568e-06 1.1115002e-06 2.3259722e-06
0001e0 cd 2e 95 35 6c bb 57 b6 b4 2e 95 35 71 16 1c 36
       1.1114986e-06 -3.214659e-06 1.1114957e-06 2.3258874e-06
0001f0 b3 2e 95 35 f9 16 1c 36 ab 1c c8 35 1d 53 5d b7
       1.1114956e-06 2.3259183e-06 1.4909505e-06 -1.3191978e-05
000200 77 1c c8 35 17 53 5d b7 90 89 72 b8 f8 52 5d b7
       1.4909446e-06 -1.3191972e-05 -5.782541e-05 -1.3191944e-05
000210 ad 1d c8 35 e5 52 5d b7 a7 1e c8 35 ab 47 0f bb
       1.4909798e-06 -1.3191927e-05 1.4910082e-06 -0.0021862786
000220 50 8b 0c bb c2 47 0f bb c3 8a 0c bb a4 85 0b bb
       -0.0021445341 -0.002186284 -0.0021445013 -0.0021289373
000230 ff 8a 0c bb ef 46 0f bb 73 8a 0c bb 26 47 0f bb
       -0.0021445153 -0.0021862348 -0.0021444827 -0.0021862476
000240 4b ff e3 36 27 0f e8 36 23 ff e3 36 20 0f e8 36
       6.794847e-06 6.9159028e-06 6.794829e-06 6.9158996e-06
000250 01 7a d4 b6 20 0f e8 36 7c ff e3 36 3e 0f e8 36
       -6.3322955e-06 6.9158996e-06 6.7948695e-06 6.915913e-06
000260 5e ff e3 36 9a 4b 0f 3b 0a 95 0c 3b af 4b 0f 3b
       6.794856e-06 0.002186513 0.002145114 0.002186518
000270 81 94 0c 3b 33 a8 0b 3b af 94 0c 3b e1 4a 0f 3b
       0.002145082 0.0021309971 0.0021450927 0.00218647
000280 2b 94 0c 3b 11 4b 0f 3b 96 59 cd b5 c6 ae 81 34
       0.002145062 0.0021864811 -1.5299763e-06 2.4155287e-07
000290 ad 59 cd b5 9c ae 81 34 17 fe a4 35 09 af 81 34
       -1.5299789e-06 2.4155167e-07 1.2292902e-06 2.4155477e-07
0002a0 33 59 cd b5 f1 ae 81 34 59 59 cd b5 cd 20 ea 36
       -1.5299651e-06 2.415541e-07 -1.5299694e-06 6.977562e-06
0002b0 bd b0 a1 36 b7 1f ea 36 be b0 a1 36 b3 ed 33 b7
       4.818749e-06 6.9774355e-06 4.8187494e-06 -1.0724575e-05
0002c0 82 b0 a1 36 3c 20 ea 36 1f b0 a1 36 7f 1f ea 36
       4.818722e-06 6.977496e-06 4.818677e-06 6.97741e-06
0002d0 7f c2 27 b6 17 f4 08 b4 70 c2 27 b6 a0 f6 08 b4
       -2.499815e-06 -1.2754786e-07 -2.4998117e-06 -1.2755709e-07
0002e0 a9 02 bb 37 ca f5 08 b4 92 c2 27 b6 96 f5 08 b4
       2.2293376e-05 -1.2755405e-07 -2.4998194e-06 -1.275533e-07
0002f0 90 c2 27 b6 e6 45 0f 3b b4 89 0c 3b 04 46 0f 3b
       -2.499819e-06 0.002186173 0.0021444382 0.00218618
000300 2f 89 0c 3b c4 84 0b 3b 65 89 0c 3b 30 45 0f 3b
       0.0021444072 0.0021288851 0.0021444198 0.0021861307
000310 d4 88 0c 3b 69 45 0f 3b 74 23 0f bb b1 2f 0c bb
       0.002144386 0.002186144 -0.00218412 -0.002139073
000320 8e 23 0f bb 2c 2f 0c bb ed 9d 0a bb 5c 2f 0c bb
       -0.002184126 -0.0021390421 -0.002115126 -0.0021390533
000330 bc 22 0f bb d3 2e 0c bb f2 22 0f bb b6 ad 7b b5
       -0.0021840772 -0.0021390214 -0.0021840897 -9.375757e-07
000340 ae 27 28 35 e6 ad 7b b5 5f 27 28 35 62 b2 7b b5
       6.264262e-07 -9.375784e-07 6.264217e-07 -9.376437e-07
000350 5e 27 28 35 45 af 7b b5 bc 27 28 35 23 af 7b b5
       6.2642164e-07 -9.375984e-07 6.26427e-07 -9.3759644e-07
000360 b5 76 47 36 91 ac b9 34 a8 76 47 36 5d b0 b9 34
       2.9722407e-06 3.4584494e-07 2.9722378e-06 3.4587256e-07
000370 9e c4 eb b7 53 af b9 34 15 77 47 36 8a b0 b9 34
       -2.810574e-05 3.45865e-07 2.9722626e-06 3.4587384e-07
000380 9d 76 47 36 8f 85 03 b6 cd 56 ec b4 90 84 03 b6
       2.9722353e-06 -1.9598262e-06 -4.402158e-07 -1.9597683e-06
000390 c5 57 ec b4 1f b2 d9 35 04 57 ec b4 69 86 03 b6
       -4.4022286e-07 1.62196e-06 -4.4021738e-07 -1.9598758e-06
0003a0 f0 56 ec b4 4f 85 03 b6 af 7c 22 b6 23 2e 10 37
       -4.402168e-07 -1.9598117e-06 -2.4212457e-06 8.593811e-06
0003b0 37 7c 22 b6 f9 2d 10 37 e8 d0 8e 38 f4 2d 10 37
       -2.4212184e-06 8.593773e-06 6.8099995e-05 8.593768e-06
0003c0 66 7c 22 b6 0a 2e 10 37 7b 7c 22 b6 da e2 2f 37
       -2.421229e-06 8.593788e-06 -2.4212338e-06 1.0483631e-05
0003d0 f4 22 26 34 53 e3 2f 37 50 09 26 34 36 15 19 b7
       1.547267e-07 1.0483741e-05 1.5463343e-07 -9.124449e-06
0003e0 04 e3 25 34 2d e2 2f 37 5b d5 25 34 07 e2 2f 37
       1.544941e-07 1.04834735e-05 1.5444441e-07 1.0483439e-05
0003f0 1a 0a 2a 37 ea f7 9e b7 0f 0a 2a 37 b5 f7 9e b7
       1.0135142e-05 -1.8950512e-05 1.0135132e-05 -1.8950415e-05

conv.bias f4 [64]
000000 4b 11 10 bb fb a6 0f bb 7c 32 10 bb 46 bf 0f 3b
       -0.0021982964 -0.0021919596 -0.0022002747 0.0021934076
000010 87 94 33 3b 65 30 10 3b 0a 2a 10 3b 5f c2 0f 3b
       0.0027401762 0.0022001502 0.0021997713 0.0021935923
000020 a6 03 10 3b 1e 1b 10 3b f8 bc 0f 3b 09 05 10 3b
       0.002197483 0.002198882 0.0021932703 0.0021975657
000030 fc 02 10 bb bc ac 0f bb 0e 14 10 3b f0 09 37 3b
       -0.0021974435 -0.0021923026 0.002198461 0.0027929507
000040 11 b2 0f bb 90 ae 0f bb 24 bd 0f 3b 02 aa 0f bb
       -0.0021926204 -0.0021924116 0.0021932805 -0.00219214
000050 f5 02 10 bb 0c 1a 10 bb a2 fc 0f bb 64 03 10 bb
       -0.0021974419 -0.0021988181 -0.002197065 -0.0021974677
000060 93 ac 0f bb 54 2c 10 bb 00 2c 10 3b 93 af 0f bb
       -0.002192293 -0.0021999078 0.0021998882 -0.0021924719
000070 38 04 10 3b a8 b1 0f bb ad 03 10 bb 5d 04 10 bb
       0.002197517 -0.002192596 -0.0021974847 -0.0021975257
000080 c8 08 10 3b 1c a7 3a bb 71 33 10 3b 00 be 0f 3b
       0.002197789 -0.0028480953 0.0022003318 0.0021933317
000090 38 0d 10 bb 8d 87 b7 bd 6b 03 10 bb 67 16 10 3b
       -0.0021980535 -0.08961401 -0.0021974694 0.002198601
0000a0 fd be 0f 3b 41 18 39 be 0f 14 10 bb 9a c1 0f 3b
       0.0021933906 -0.18075658 -0.0021984612 0.0021935464
0000b0 fb bd 0f bb a4 fe 0f 3b 7e 00 10 3b 4f c2 2f be
       -0.0021933306 0.0021971846 0.002197295 -0.17163967
0000c0 ff 55 b2 bd 5f b7 14 bd e6 fd 0f 3b 80 fa 68 bd
       -0.08707809 -0.03630769 0.0021971404 -0.05687952
0000d0 70 b1 0f bb c4 04 10 3b 6e b0 10 3b 8a 0b 11 3b
       -0.002192583 0.0021975497 0.0022077817 0.0022132122
0000e0 c0 a2 0f 3b 72 20 10 bb ff 2e 10 3b e4 ab 0f bb
       0.0021917075 -0.0021991995 0.0022000668 -0.0021922523
0000f0 23 ff 0f bb 79 2d 10 3b 00 bb 0f bb 0d 2f 10 bb
       -0.0021972142 0.002199976 -0.002193153 -0.00220007

lstm.weight_ih f4 [256, 64]
000000 06 40 85 b9 54 b8 82 b9 80 0b 86 b9 46 4c 83 39
       -0.00025415438 -0.00024932867 -0.0002556704 0.00025043095
000010 97 1b 40 3a c0 fe 85 39 b9 d7 85 39 f6 5e 83 39
       0.000732833 0.0002555754 0.00025528463 0.00025057019
000020 db ec 84 39 e3 7c 85 39 0b 3e 83 39 ba f5 84 39
       0.00025353473 0.00025460785 0.00025032493 0.00025360083
000030 e5 e8 84 b9 fb da 82 b9 17 51 85 39 de ac 4f 3a
       -0.00025350522 -0.00024958685 0.00025428153 0.00079221826
000040 db fa 82 b9 4c e6 82 b9 f0 3e 83 39 70 ca 82 b9
       -0.00024982434 -0.00024967117 0.0002503316 -0.0002494636
000050 e0 e8 84 b9 ed 75 85 b9 73 c2 84 b9 86 eb 84 b9
       -0.00025350507 -0.00025455598 -0.00025321878 -0.0002535248
000060 0b da 82 b9 89 e5 85 b9 fe e3 85 39 7d ec 82 b9
       -0.00024957987 -0.00025538754 0.00025537604 -0.0002497173
000070 9a f0 84 39 20 f9 82 b9 fa ec 84 b9 ae f1 84 b9
       0.00025356264 -0.00024981145 -0.00025353563 -0.00025357067
000080 8f 0c 85 39 82 77 61 ba 0b 11 86 39 fd 43 83 39
       0.00025377094 -0.0008600877 0.0002557117 0.00025036922
000090 e6 27 85 b9 d8 62 a9 bc 5b eb 84 b9 0b 60 85 39
       -0.00025397463 -0.020677015 -0.00025352355 0.00025439294
0000a0 2e 4a 83 39 02 1a 29 bd 18 51 85 b9 af 59 83 39
       0.00025041535 -0.04128457 -0.00025428156 0.00025053087
0000b0 05 44 83 b9 91 ce 84 39 f0 d9 84 39 92 a3 20 bd
       -0.00025036946 0.00025330906 0.00025339378 -0.039218493
0000c0 3c b0 a4 bc 2a 80 0e bc 00 ca 84 39 e6 1a 5a bc
       -0.020103566 -0.008697549 0.00025327504 -0.013312077
0000d0 0e f8 82 b9 22 f4 84 39 0d 0e 89 39 de 3c 8b 39
       -0.00024980347 0.00025358895 0.00026141145 0.00026557496
0000e0 40 9e 82 39 d3 9c 85 b9 34 f6 85 39 30 d6 82 b9
       0.00024913438 -0.0002548458 0.00025551172 -0.00024955114
0000f0 c7 d1 84 b9 ba ec 85 39 eb 31 83 b9 56 f6 85 b9
       -0.00025333298 0.00025544112 -0.0002502346 -0.0002555127
000100 79 31 43 bb c2 cf 41 bb ae a0 43 bb 4d 20 42 3b
       -0.0029784127 -0.0029573296 -0.0029850411 0.0029621304
000110 ac a4 a1 3b 4d 99 43 3b 3a 84 43 3b 8c 2a 42 3b
       0.0049329605 0.0029846013 0.0029833452 0.002962741
000120 fc 03 43 3b 52 52 43 3b 92 18 42 3b cf 08 43 3b
       0.0029757014 0.0029803705 0.0029616696 0.002975989
000130 da 01 43 bb 94 e2 41 bb b6 3a 43 3b 8a ed a8 3b
       -0.0029755742 -0.0029584514 0.0029789633 0.00515527
000140 e2 f3 41 bb ae e8 41 bb 26 19 42 3b b3 d9 41 bb
       -0.0029594828 -0.002958815 0.002961704 -0.0029579222
000150 da 01 43 bb f3 4e 43 bb 14 ed 42 bb ae 03 43 bb
       -0.0029755742 -0.0029801696 -0.002974336 -0.0029756832
000160 f3 e1 41 bb d8 8b 43 bb 0b 8b 43 3b 3d ec 41 bb
       -0.002958414 -0.0029837992 0.0029837515 -0.0029590272
000170 2a 06 43 3b cd f2 41 bb f4 03 43 bb a4 06 43 bb
       0.0029758313 -0.0029594183 -0.0029756995 -0.0029758597
000180 69 15 43 3b ec 0e b1 bb 7e a3 43 3b cd 1b 42 3b
       0.00297674 -0.00540339 0.0029852088 0.0029618621
000190 fe 23 43 bb 8a 4d ab bd 90 03 43 bb f8 42 43 3b
       -0.0029776092 -0.08364399 -0.0029756762 0.0029794555
0001a0 2a 1f 42 3b 9a 5e 10 be c3 3a 43 bb b9 27 42 3b
       0.0029620626 -0.14098588 -0.0029789663 0.0029625727
0001b0 c6 1b 42 bb b7 f3 42 3b cf f9 42 3b 61 03 0a be
       -0.0029618605 0.0029747316 0.0029750948 -0.13477851
0001c0 a0 a8 a7 bd 4a 51 36 bd 52 f1 42 3b 3c 3a 78 bd
       -0.081864595 -0.044511117 0.002974589 -0.06060241
0001d0 4b f2 41 bb 07 08 43 3b 5f 44 45 3b f1 74 46 3b
       -0.002959388 0.0029759423 0.0030100567 0.0030282105
0001e0 1e c1 41 3b 09 64 43 bb db 94 43 3b 1f e0 41 bb
       0.002956457 -0.0029814264 0.0029843363 -0.002958305
0001f0 0c f5 42 bb f6 8f 43 3b dd 11 42 bb f0 94 43 bb
       -0.002974811 0.0029840446 -0.0029612698 -0.0029843412
000200 a1 0e 08 ba 82 76 08 ba d9 ed 07 ba c6 5e 08 3a
       -0.0005190168 -0.00052056473 -0.00051852834 0.00052021106
000210 89 3e ab 39 f1 ef 07 3a 36 f6 07 3a d6 5b 08 3a
       0.00032662254 0.00051855954 0.00051865296 0.0005201673
000220 f6 1b 08 3a c2 04 08 3a 0b 61 08 3a 88 1a 08 3a
       0.0005192155 0.0005188697 0.0005202449 0.0005191942
000230 a0 1c 08 ba f0 70 08 ba cd 0b 08 3a a7 98 9b 39
       -0.0005192254 -0.0005204817 0.0005189747 0.0002967764
000240 c6 6b 08 ba 0e 6f 08 ba de 60 08 3a 89 73 08 ba
       -0.0005204048 -0.0005204537 0.00052024226 -0.00052052044
000250 9e 1c 08 ba eb 05 08 ba b5 22 08 ba 0f 1c 08 ba
       -0.00051922526 -0.000518887 -0.000519316 -0.00051921693
000260 15 71 08 ba f8 f3 07 ba 3f f4 07 3a 16 6e 08 ba
       -0.0005204839 -0.00051861955 0.0005186237 -0.00052043924
000270 57 1b 08 3a 18 6c 08 ba f7 1b 08 ba 2b 1b 08 ba
       0.0005192062 -0.00052040955 -0.00051921554 -0.00051920366
000280 be 16 08 3a e2 bf 88 b9 18 ed 07 3a 09 60 08 3a
       0.0005191377 -0.00026082905 0.0005185171 0.00052022986
000290 88 12 08 ba 8c 97 4c 3d 14 1c 08 ba 5b 09 08 3a
       -0.00051907497 0.049949214 -0.0005192172 0.00051893824
0002a0 2f 5f 08 3a 9f f6 d2 3d cd 0b 08 ba ae 5c 08 3a
       0.0005202172 0.103009455 -0.0005189747 0.00052017986
0002b0 03 60 08 ba dc 20 08 3a 00 1f 08 3a 32 11 c8 3d
       -0.0005202295 0.0005192885 0.00051926076 0.09768905
0002c0 35 86 46 3d 12 c9 9c 3c 97 21 08 3a c9 c7 fd 3c
       0.048467834 0.019138847 0.00051929936 0.030979054
0002d0 49 6c 08 ba b3 1a 08 3a 8d 71 07 3a d8 16 07 3a
       -0.0005204124 0.0005191967 0.00051667617 0.00051532453
0002e0 99 7a 08 3a ae ff 07 ba 4f f1 07 3a bf 71 08 ba
       0.0005206257 -0.00051879406 0.0005185799 -0.0005204938
0002f0 4a 20 08 ba e2 f2 07 3a f9 62 08 ba 45 f1 07 ba
       -0.00051928 0.00051860337 -0.00052027364 -0.0005185793
000300 db 28 0d ba dd d9 07 ba 11 d3 0e ba 72 10 09 3a
       -0.0005384811 -0.00051823055 -0.00054483215 0.0005228586
000310 fe 21 29 3b 35 b9 0e 3a 4c 66 0e 3a 06 37 09 3a
       0.0025807614 0.0005444468 0.00054321135 0.00052343344
000320 5c 7a 0c 3a b3 a8 0d 3a a7 f3 08 3a bf 8d 0c 3a
       0.0005358809 0.0005403861 0.00052242953 0.0005361698
000330 55 72 0c ba e8 21 08 ba ca 4c 0d 3a 73 01 3a 3b
       -0.0005357613 -0.00051930407 0.00053901656 0.0028382211
000340 9a 64 08 ba b7 3a 08 ba a6 f4 08 3a 51 ff 07 ba
       -0.0005202979 -0.00051967375 0.0005224444 -0.00051878864
000350 62 72 0c ba 2e 9a 0d ba 1f 22 0c ba d8 77 0c ba
       -0.00053576205 -0.00054016977 -0.00053456606 -0.0005358434
000360 4c 20 08 ba 8d 84 0e ba be 81 0e 3a f3 47 08 ba
       -0.0005192801 -0.0005436622 0.0005436203 -0.00051987096
000370 c3 81 0c 3a 9f 61 08 ba 60 7a 0c ba 99 83 0c ba
       0.0005359912 -0.0005202535 -0.00053588115 -0.0005360186
000380 ad bc 0c 3a 48 39 4d bb e7 de 0e 3a 58 ff 08 3a
       0.0005368691 -0.003131466 0.0005450085 0.00052260375
000390 ba f5 0c ba 54 5c 45 3d 7a 77 0c ba 04 6c 0d 3a
       -0.0005377192 0.048183754 -0.00053583796 0.0005394819
0003a0 83 0c 09 3a c5 c1 b7 3d 12 4d 0d ba 24 2c 09 3a
       0.00052279996 0.089725055 -0.00053902075 0.0005232713
0003b0 5a ff 08 ba d1 3a 0c 3a e2 51 0c 3a 31 b2 ae 3d
       -0.00052260386 0.00053493405 0.00053527777 0.08530081
0003c0 f2 89 41 3d 70 87 eb 3c 74 30 0c 3a 82 89 12 3d
       0.047250696 0.028751105 0.0005347796 0.03577567
0003d0 84 5f 08 ba 8f 89 0c 3a 66 24 15 3a 53 ba 19 3a
       -0.0005202221 0.0005361074 0.0005689323 0.0005864251
0003e0 f9 a2 07 3a c4 ea 0d ba b7 a7 0e 3a f6 17 08 ba
       0.0005174126 -0.0005413706 0.00054418616 -0.0005191559
0003f0 6b 41 0c ba 66 93 0e 3a 40 d9 08 ba 71 a8 0e ba
       -0.0005350324 0.0005438834 -0.0005220361 -0.000544197
