trained_models/MSIL_2d_problem1000.pt (torch, 670365 bytes, 48 tensors)

hidden.weight f4 [64, 9, 3, 3]
9.654216e-06 7.83748e-06 1.0459191e-05 7.217509e-06 6.133096e-06 8.108154e-06 9.124097e-06 7.633617e-06
1.0215407e-05 -4.1449074e-08 2.2857602e-08 3.6382154e-08 -2.6569846e-09 3.1847048e-08 1.12035636e-07 1.4508591e-08
1.9129095e-08 -2.8103475e-08 -1.000977e-07 -1.0251009e-07 -9.4416144e-08 -1.13927854e-07 -1.17988414e-07 -1.09882414e-07
-1.015334e-07 -1.07882116e-07 -3.1130128e-08 1.9153714e-07 -6.340073e-10 1.9019963e-07 8.864444e-08 1.9358933e-07
2.1359183e-07 1.9440509e-07 2.0413583e-07 1.8336998e-07 -2.5926914e-07 -4.6956288e-07 -2.868548e-07 -2.1898074e-07
-5.27617e-07 -4.4113358e-07 -2.0785124e-07 -4.6928704e-07 -2.9730853e-07 -4.4670546e-08 2.7760342e-07 -7.687997e-08
2.5259595e-07 -8.81337e-08 2.5083918e-07 2.548836e-07 2.8086592e-07 -9.815116e-08 2.9900356e-08 -3.830397e-09
1.3554379e-08 -2.0413475e-08 -2.1686638e-08 -3.3979735e-09 -4.8527022e-09 -1.696405e-08 -6.6000814e-09 1.3473412e-08
1.285025e-07 1.2129192e-08 1.277425e-07 9.263566e-08 1.375797e-07 1.5075724e-08 1.3402591e-07 1.36487595e-08
1.9414213e-07 3.2631738e-07 1.9540411e-07 3.2759897e-07 2.2281188e-07 3.2907514e-07 1.9787062e-07 3.303083e-07
2.0315404e-07 1.7322864e-10 2.579023e-10 1.7439258e-10 2.788627e-10 3.5774106e-10 2.6261965e-10 1.9932024e-10
2.8574687e-10 1.8895766e-10 2.3691147e-12 2.8892e-14 2.4221011e-12 -3.7356321e-13 -1.6483824e-12 2.1778601e-13
2.1442785e-12 -3.295384e-13 2.4756668e-12 7.953432e-12 8.144548e-12 7.605903e-12 8.493655e-12 9.2352116e-12
8.212427e-12 8.367744e-12 8.371994e-12 7.959935e-12 1.5099514e-11 -7.70653e-12 1.37497175e-11 -8.224268e-12
5.8521057e-12 -7.725894e-12 1.6341253e-11 -8.314704e-12 1.4843834e-11 1.4945536e-11 1.5441835e-11 1.3900473e-11
1.6708673e-11 1.637487e-11 1.5245276e-11 1.549249e-11 1.6179516e-11 1.4354636e-11 -6.0093876e-06 1.24203495e-11
-1.2785646e-06 1.193629e-11 -1.548111e-12 1.239158e-11 1.5182777e-06 8.471445e-12 2.0071045e-06 2.0521052e-12
-4.903225e-12 2.041268e-12 -5.02492e-12 -1.9596772e-12 -4.8316984e-12 2.1842701e-12 -5.0246135e-12 2.258036e-12
-2.408162e-12 -2.1491892e-12 -2.249311e-12 -2.1066202e-12 -1.2860923e-13 -2.121557e-12 -2.4671942e-12 -2.1191824e-12
-2.2955784e-12 -2.6239351e-12 -3.7472976e-12 -1.5750567e-12 -4.601249e-12 1.1099473e-11 -3.0936631e-12 -3.232269e-12
-4.3169253e-12 -2.2249058e-12 -0.0002642446 -0.00030989366 -0.0002828587 -0.00029472078 -0.00032110192 -0.0003111785
-0.00026114195 -0.00030631915 -0.00027208249 1.1525987e-05 1.2920562e-05 1.1184824e-05 1.2958169e-05 1.132982e-05
1.3131424e-05 1.1232954e-05 1.3058752e-05 1.1164261e-05 4.622486e-06 1.0878782e-05 5.4629677e-06 1.0493709e-05
1.4795775e-05 1.1082598e-05 4.3278956e-06 1.0440514e-05 3.988528e-06 -5.0425915e-06 -3.0003878e-06 -5.507051e-06
-2.6094233e-06 1.3883251e-05 6.6711905e-06 -5.5715814e-06 -3.4388183e-06 5.810931e-08 8.1310045e-06 -2.4437936e-06
7.706215e-06 6.3277084e-06 -5.3270123e-06 5.2610253e-06 9.616781e-06 -2.2989623e-06 9.363349e-06 1.0075494e-06
2.5663555e-06 1.9941674e-06 2.5884958e-06 1.509783e-06 2.5888332e-06 1.7209525e-06 2.0363411e-06 2.0147488e-06
1.1985896e-06 8.055186e-06 1.1841969e-06 7.959147e-06 1.3062348e-05 7.923442e-06 1.3108701e-06 7.834573e-06
1.2876864e-06 -2.4962112e-06 -5.4434468e-06 6.029189e-06 -5.2470004e-06 -6.0318257e-06 -5.265238e-06 -5.224924e-06
-5.318889e-06 3.0752128e-06 -4.4602716e-06 -8.671771e-06 -4.0968434e-06 -8.718697e-06 -4.5756515e-06 -8.780893e-06
-3.97941e-06 -8.814564e-06 -3.6676024e-06 -7.31534e-12 -1.6212934e-11 -6.796787e-12 -1.0384548e-11 -2.5764968e-11
-1.0717593e-11 -5.532686e-12 -1.6149979e-11 -5.704863e-12 -3.831901e-12 4.380979e-13 -6.2472844e-12 1.3744367e-13
00000000: 8bf8 2137 b87d 0337 e279 2f37 ee2d f236
00000010: e5ca cd36 4208 0837 b313 1937 2312 0037
00000020: d762 2b37 bd05 32b3 6658 c432 9a42 1c33
00000030: 2b96 36b1 33c8 0833 3e98 f033 7541 7932
00000040: 5351 a432 3268 f1b2 4bf5 d6b3 8523 dcb3
00000050: d3c1 cab3 80a8 f4b3 d160 fdb3 7ff8 ebb3
00000060: 940a dab3 d2ac e7b3 f0b3 05b3 54a9 4d34
00000070: 4c46 2eb0 ad39 4c34 cc5c be33 6edd 4f34
00000080: ad57 6534 aabd 5034 6e30 5b34 5be4 4434
00000090: ae31 8bb4 3b18 fcb4 0601 9ab4 f820 6bb4
000000a0: 90a1 0db5 f0d4 ecb4 b72d 5fb4 52f2 fbb4
000000b0: c69d 9fb4 c9db 3fb3 8609 9534 3619 a5b3
000000c0: 869c 8734 0444 bdb3 13ab 8634 efd6 8834
000000d0: ebc9 9634 2cc7 d2b3 ca6b 0033 879c 83b1
000000e0: cadc 6832 b559 afb2 6c49 bab2 c881 69b1
000000f0: d2bc a6b1 57b8 91b2 eec6 e2b1 b178 6732
00000100: 80fa 0934 c060 5032 9729 0934 feee c633
00000110: 9fb9 1334 de7f 8132 c3e8 0f34 e17b 6a32
00000120: 6275 5034 b830 af34 46d0 5134 dce0 af34
00000130: 103e 6f34 beab b034 4376 5434 3a55 b134
00000140: 8f22 5a34 8777 3e2f 86c8 8d2f 26bf 3f2f
00000150: 704e 992f 94ab c42f 6e60 902f a927 5b2f
00000160: 4c17 9d2f dac2 4f2f 2db6 262c 351e 0229
00000170: b270 2a2c 224c d2aa 3cfd e7ab 8b34 752a
00000180: e3e3 162c 7d83 b9aa a635 2e2c 13eb 0b2d
00000190: c947 0f2d f1cd 052d 066c 152d b277 222d
000001a0: 7c79 102d f834 132d 1c48 132d 5c08 0c2d
000001b0: 15d1 842d 2093 07ad 39e3 712d cfae 10ad
000001c0: 15e7 cd2c 55ea 07ad 3bbd 8f2d 1946 12ad
000001d0: 5891 822d 5b76 832d ecd3 872d 2a8a 742d
000001e0: 96f8 922d ee08 902d 4f19 862d fc45 882d
000001f0: 0851 8e2d 8987 7c2d 3fa4 c9b6 4880 5a2d
00000200: 259b abb5 45fc 512d 94e0 d9ab b7fe 592d
00000210: a0c7 cb35 ff07 152d cbb1 0636 7167 102c
00000220: 5384 acac 37a4 0f2c 75cc b0ac 68e6 09ac
00000230: 1200 aaac 50b4 192c b2c9 b0ac 29e5 1e2c
00000240: 9775 29ac 5a3c 17ac fc47 1eac 7f3d 14ac
00000250: 16cd 10aa 934a 15ac 059d 2dac cc1f 15ac
00000260: 7789 21ac 9da4 38ac a8d8 83ac 66ab ddab
00000270: 5ee4 a1ac 9543 432d 7bb2 59ac 6273 63ac
00000280: 68e3 97ac 5790 1cac 4f8a 8ab9 3979 a2b9
00000290: a74c 94b9 c184 9ab9 9259 a8b9 ac25 a3b9
000002a0: e1e9 88b9 7699 a0b9 4ba6 8eb9 bd5f 4137
000002b0: 64c5 5837 74a6 3b37 e966 5937 3515 3e37
000002c0: 094f 5c37 2c75 3c37 ea16 5b37 234e 3b37
000002d0: da1a 9b36 0384 3637 894e b736 230e 3037
000002e0: 5f3b 7837 65ef 3937 5738 9136 ab29 2f37
000002f0: 32d5 8536 8833 a9b6 455a 49b6 35c9 b8b6
00000300: 8d1d 2fb6 1cec 6837 17d9 df36 85f3 bab6
00000310: 73c6 66b6 dd93 7933 666a 0837 0e00 24b6
00000320: f149 0137 9a52 d436 b0be b2b6 dd87 b036
00000330: c357 2137 df47 1ab6 4717 1d37 223b 8735
00000340: a739 2c36 89d3 0536 05b6 2d36 c0a3 ca35
00000350: d1bb 2d36 7afb e635 13a8 0836 1f35 0736
00000360: 3adf a035 c324 0737 b2f0 9e35 4788 0537
00000370: 5c26 5b37 edee 0437 27f1 af35 3c71 0337
00000380: 91d4 ac35 9584 27b6 daa6 b6b6 574e ca36
00000390: 640f b0b6 fd64 cab6 0dac b0b6 c151 afb6
000003a0: e978 b2b6 c15f 4e36 71a9 95b6 f97c 11b7
000003b0: 9e77 89b6 8546 12b7 8c88 99b6 a651 13b7
000003c0: df86 85b6 44e2 13b7 ee20 76b6 5db1 00ad
000003d0: 489c 8ead 0424 efac d9af 36ad 8da1 e2ad
000003e0: bf8b 3cad 01aa c2ac 850e 8ead d6b8 c8ac
000003f0: b2d2 86ac 90a0 f62a 89ce dbac 71bf 1a2a

hidden.bias f4 [64]
2.544292e-05 5.64956e-10 -0.00066121947 6.2974785e-11 4.134699e-05 -5.637755e-08 -4.2669076e-06 -3.31295e-10
7.658005e-07 -8.6460074e-07 -7.9768284e-08 -5.695085e-10 4.2154044e-10 -1.1878485e-08 0.00037704848 9.798254e-07
6.7289157e-06 1.3443188e-06 1.1885954e-06 -2.076606e-07 -2.8960224e-07 7.263907e-07 -1.276592e-10 -1.0778896e-07
-0.00044647363 1.0681217e-09 2.4907532e-09 3.5724634e-10 -2.702622e-09 8.0586543e-10 4.251959e-05 4.7013263e-08
2.696564e-10 1.3405386e-05 -1.1860675e-06 -6.589173e-07 -2.759357e-08 1.356703e-06 -1.11352066e-10 -7.8550194e-10
1.0105033e-10 6.2700465e-08 -9.636364e-07 -2.3890489e-06 -5.9598365e-06 -9.875432e-10 -1.8234803e-10 3.6089123e-10
-1.1853325e-09 -4.7289066e-07 -5.1200013e-09 2.5408335e-09 -1.2928453e-07 -0.0001893833 1.9785655e-06 -6.8529773e-09
-0.0007365392 -0.0009703526 0.0010923655 2.7919074e-09 -1.2055622e-05 -1.6487147e-07 2.0345789e-07 6.995045e-10
00000000: 416e d537 3f4b 1b30 b055 2dba a77b 8a2e
00000010: fe6b 2d38 c623 72b3 752c 8fb6 a021 b6af
00000020: 6991 4d35 e916 68b5 144d abb3 998b 1cb0
00000030: 8bbe e72f 2112 4cb2 97ae c539 8b82 8335
00000040: f2c8 e136 716e b435 d487 9f35 50f9 5eb4
00000050: a17a 9bb4 30fd 4235 df5c 0caf 9c79 e7b3
00000060: ad14 eab9 31cd 9230 cb29 2b31 f465 c42f
00000070: 07b9 39b1 bd83 5d30 1057 3238 a1eb 4933
00000080: c43e 942f b2e7 6037 f830 9fb5 74e0 30b5
00000090: e706 edb2 f617 b635 a4dd f4ae c9ea 57b0
000000a0: 4736 de2e f2a5 8633 4b56 81b5 8c53 20b6
000000b0: 9bfa c7b6 16ba 87b0 687e 48af ed66 c62f
000000c0: 2ee9 a2b0 99e1 fdb4 02ec afb1 d19a 2e31
000000d0: 76d1 0ab4 3195 46b9 7fc7 0436 6d77 ebb1
000000e0: 4f14 41ba 435f 7eba b42d 8f3a c1db 3f31
000000f0: 8142 4ab7 8607 31b4 1476 5a34 4147 4030

h0.weight f4 [64, 64, 3, 3]
6.9665934e-06 5.175846e-06 6.8572795e-06 5.0437593e-06 2.6738755e-06 4.998407e-06 6.6409143e-06 4.8882457e-06
6.734052e-06 -7.752754e-11 -9.2315586e-11 -7.7854063e-11 -9.360083e-11 -1.12580376e-10 -9.397565e-11 -8.0019776e-11
-9.5896485e-11 -7.819451e-11 -0.00010439845 -0.00011575984 -0.00010509708 -0.000113954375 -6.7861474e-05 -0.0001144027
-0.000104489496 -0.00011354913 -0.00010401876 -2.0849246e-11 -2.4693272e-11 -2.086e-11 -2.4459422e-11 -2.3476183e-11
-2.4648074e-11 -2.1050042e-11 -2.481001e-11 -2.0845966e-11 1.0791089e-05 8.474598e-06 1.0689008e-05 8.317254e-06
4.8889865e-06 8.277917e-06 1.04190185e-05 8.118319e-06 1.0547027e-05 -7.1432313e-09 -8.08998e-09 -7.2716553e-09
-7.949468e-09 -7.1818578e-09 -8.017959e-09 -7.0914212e-09 -7.846853e-09 -7.150016e-09 4.1559306e-06 2.5801146e-06
3.943214e-06 2.7404483e-06 1.6758897e-06 2.6538019e-06 4.143407e-06 2.7565259e-06 4.187598e-06 2.065302e-11
3.625007e-11 2.0733972e-11 3.6079775e-11 5.0032322e-11 3.549322e-11 2.0096425e-11 3.5998184e-11 1.9457396e-11
5.5157788e-08 1.3062319e-07 5.6061737e-08 1.3064523e-07 1.4424495e-07 1.3104923e-07 5.8562435e-08 1.3041299e-07
5.710433e-08 -1.0586509e-07 -1.5404504e-07 -1.116364e-07 -1.5363153e-07 -1.6598403e-07 -1.5534957e-07 -1.13567474e-07
-1.5409236e-07 -1.15041615e-07 -1.1904274e-08 -1.5796806e-08 -1.2118144e-08 -1.5656292e-08 -1.5804678e-08 -1.5753916e-08
-1.1872201e-08 -1.5561307e-08 -1.1820606e-08 -1.7442142e-10 -4.3607458e-11 -1.7651598e-10 -3.5226218e-11 8.47792e-11
-3.9549475e-11 -1.787749e-10 -3.6108085e-11 -1.8229492e-10 -1.0434792e-11 -4.3372028e-11 -1.0547609e-11 -4.4133325e-11
-2.3998905e-11 -4.6507995e-11 -1.137674e-11 -4.3315598e-11 -1.2040545e-11 1.1155209e-09 2.0681312e-09 1.2464885e-09
2.0380928e-09 2.2685402e-09 2.049506e-09 1.1862078e-09 2.0130182e-09 1.2565963e-09 -2.8412842e-05 -4.4051303e-05
-2.8178405e-05 -4.4443517e-05 -5.637449e-05 -4.409258e-05 -2.8548797e-05 -4.430179e-05 -2.76028e-05 8.589143e-08
2.1613167e-07 8.525121e-08 2.152246e-07 2.908729e-07 2.1318779e-07 8.211048e-08 2.1154338e-07 7.4939166e-08
5.3178064e-07 1.0651157e-06 5.8970426e-07 1.064823e-06 1.4319386e-06 1.0945772e-06 6.058675e-07 1.0960972e-06
6.1814654e-07 1.4098718e-07 2.938296e-07 1.634125e-07 2.8782196e-07 3.1403823e-07 2.9319136e-07 1.4116954e-07
2.8853782e-07 1.4127116e-07 8.8473094e-08 1.8894183e-07 8.8647255e-08 1.8822047e-07 2.3172727e-07 1.8826843e-07
8.877478e-08 1.8683879e-07 8.5342826e-08 -4.2941764e-08 -3.4861973e-08 -4.3629562e-08 -3.368037e-08 -1.2199906e-08
-3.4843136e-08 -4.256782e-08 -3.3572356e-08 -4.289652e-08 -3.507901e-08 -4.8907626e-08 -3.4249094e-08 -4.8535878e-08
-4.233909e-08 -4.8838945e-08 -3.568246e-08 -4.8229154e-08 -3.4879125e-08 1.0819124e-08 1.0155628e-07 2.306914e-08
9.830186e-08 1.9119118e-07 1.0479448e-07 1.6105881e-08 1.0103654e-07 1.5423026e-08 4.1554073e-11 5.219736e-11
4.2214867e-11 5.1875355e-11 6.124962e-11 5.205009e-11 4.141264e-11 5.2044678e-11 4.1476187e-11 -1.8542153e-08
-1.9825489e-08 -1.8743094e-08 -1.9189484e-08 -1.2983426e-08 -1.9276085e-08 -1.8793042e-08 -1.8413424e-08 -1.8791978e-08
-6.361183e-05 -0.000119912605 -6.489113e-05 -0.00011979058 -0.00013880945 -0.00011995579 -6.338339e-05 -0.000119142744
-6.247987e-05 2.9356274e-11 -1.12847266e-10 8.791162e-12 -1.0607897e-10 -2.0399155e-10 -1.1655173e-10 3.463766e-11
-1.1087059e-10 2.3094943e-11 2.2061396e-10 -1.649076e-10 2.3140219e-10 -1.546063e-10 -4.247389e-10 -1.562512e-10
2.4931382e-10 -1.4223e-10 2.7448563e-10 -7.3325956e-11 -9.446955e-11 -7.8990696e-11 -8.933268e-11 -1.3744057e-10
-9.396188e-11 -6.749925e-11 -9.04938e-11 -7.3784145e-11 9.039906e-11 1.4786261e-10 9.359791e-11 1.4310636e-10
00000000: 95c2 e936 2eac ad36 9517 e636 903d a936
00000010: d570 3336 fdb7 a736 05d5 de36 b605 a436
00000020: 11f5 e136 207c aaae 0e01 cbae f133 abae
00000030: 95d4 cdae 1e91 f7ae 96a7 ceae 21f7 afae
00000040: ece0 d2ae 99f3 abae 7ef0 dab8 17c4 f2b8
00000050: 9167 dcb8 cafa eeb8 da50 8eb8 7beb efb8
00000060: 5f21 dbb8 3a21 eeb8 a624 dab8 5464 b7ad
00000070: 4e34 d9ad 8b7c b7ad b925 d7ad aa7f cead
00000080: 87ce d8ad 7b28 b9ad 2d3b daad f15c b7ad
00000090: 600b 3537 1f2e 0e37 f154 3337 558a 0b37
000000a0: 130c a436 62e1 0a37 58cd 2e37 ea33 0837
000000b0: 23f3 3037 8770 f5b1 1cfc 0ab2 28da f9b1
000000c0: 2192 08b2 4ac4 f6b1 5bbf 09b2 cda8 f3b1
000000d0: d3ce 06b2 35ac f5b1 2c73 8b36 0826 2d36
000000e0: f34f 8436 8be8 3736 22ef e035 f817 3236
000000f0: 9807 8b36 c1fc 3836 3183 8c36 77aa b52d
00000100: f36d 1f2e c160 b62d 37ae 1e2e 630b 5c2e
00000110: d019 1c2e 20c5 b02d 5a52 1e2e 2926 ab2d
00000120: a1e6 6c33 6e41 0c34 88c8 7033 7d47 0c34
00000130: c0e1 1a34 8ab6 0c34 1486 7b33 a607 0c34
00000140: e042 7533 f357 e3b3 9467 25b4 c3bc efb3
00000150: eaf5 24b4 5839 32b4 2ace 26b4 61e2 f3b3
00000160: 9674 25b4 cc0c f7b3 8d83 4cb2 8bb1 87b2
00000170: 2930 50b2 8d7c 86b2 dbc2 87b2 3a53 87b2
00000180: 7ef6 4bb2 adab 85b2 9313 4bb2 44c7 3faf
00000190: a2c9 3fae d514 42af 32ed 1aae 726e ba2e
000001a0: c0f0 2dae a990 44af 17ce 1eae 756f 48af
000001b0: 2092 37ad 90c0 3eae 358e 39ad b519 42ae
000001c0: bb18 d3ad 598b 4cae 4824 48ad 0781 3eae
000001d0: cbd1 53ad e750 9930 f31e 0e31 ea50 ab30
000001e0: 820e 0c31 95e4 1b31 4ad7 0c31 fa07 a330
000001f0: 6455 0a31 8db4 ac30 1d58 eeb7 bac3 38b8
00000200: aa60 ecb7 dd68 3ab8 a673 6cb8 0cf0 38b8
00000210: 137c efb7 afd0 39b8 908c e7b7 5073 b833
00000220: d211 6834 5913 b733 7d18 6734 4429 9c34
00000230: 9de8 6434 b754 b033 9a24 6334 3eee a033
00000240: b0bf 0e35 19f5 8e35 2b4c 1e35 0aeb 8e35
00000250: 0931 c035 63e9 9235 e6a2 2235 9d1d 9335
00000260: b5ee 2535 4362 1734 a2bf 9d34 7c76 2f34
00000270: f385 9a34 1699 a834 ea67 9d34 6394 1734
00000280: 56e8 9a34 52b0 1734 99fe bd33 efdf 4a34
00000290: 585e be33 a619 4a34 b5d0 7834 d526 4a34
000002a0: 74a4 be33 db9d 4834 b745 b733 f86e 38b3
000002b0: 25bb 15b3 3663 3bb3 f5a7 10b3 c197 51b2
000002c0: 6fa6 15b3 d0d3 36b3 3231 10b3 393d 38b3
000002d0: c8a9 16b3 810e 52b3 4719 13b3 c375 50b3
000002e0: 52d8 35b3 fdc2 51b3 4841 19b3 8424 4fb3
000002f0: 01ce 15b3 03df 3932 2817 da33 9329 c632
00000300: 051a d333 3b4a 4d34 600b e133 3559 8a32
00000310: 6df9 d833 987b 8432 bac1 362e 0191 652e
00000320: b7a9 392e 7526 642e 79b0 862e 31eb 642e
00000330: 7d22 362e 19e5 642e 096a 362e a046 9fb2
00000340: b64c aab2 8000 a1b2 1fd6 a4b2 b60d 5fb2
00000350: 8f94 a5b2 566e a1b2 8c2b 9eb2 ff6b a1b2
00000360: 5767 85b8 9779 fbb8 2916 88b8 1438 fbb8
00000370: 618d 11b9 c690 fbb8 b3ec 84b8 46dc f9b8
00000380: a007 83b8 3a1c 012e 5d27 f8ae e0a7 1a2d
00000390: 2745 e9ae 844a 60af 6526 00af 8a56 182e
000003a0: 98ce f3ae 3025 cb2d 4f91 722f 5d51 35af
000003b0: ed6d 7e2f cefd 29af b080 e9af cecc 2baf
000003c0: cd0f 892f 3062 1caf 6be6 962f d83e a1ae
000003d0: a1bd cfae cfb3 adae d471 c4ae 151e 17af
000003e0: d69f ceae b36e 94ae 7bff c6ae c840 a2ae
000003f0: 26ca c62e a093 222f f0d2 cd2e dc58 1d2f

h0.bias f4 [64]
0.0119668245 -0.009522119 2.3463042e-05 -3.7544738e-05 1.943604e-05 -0.0001984968 -6.348929e-05 -6.7944944e-05
2.7945835e-05 -0.012002028 -0.012003828 -0.01202056 2.841955e-05 6.6601824e-06 1.56587e-05 0.012031215
-8.6715794e-05 -0.012034846 2.1724416e-07 2.6530479e-06 -5.3590466e-05 -0.012033808 0.012019223 -2.6733924e-05
-0.00010250904 9.584989e-06 1.6951055e-05 0.0005724464 -1.9860985e-05 -0.012011984 0.012017084 2.5674944e-06
-3.8973198e-05 3.237047e-05 2.486167e-05 -8.388529e-05 3.3332784e-05 -0.011934494 0.011975552 2.9913728e-05
0.00055799796 -0.01197692 -1.0792065e-05 -0.00012194665 -0.00028584962 -0.011981278 -1.0616349e-05 -3.8521557e-05
-3.4808577e-06 2.676595e-05 2.8266328e-05 1.3664496e-05 2.6990021e-05 1.5208829e-05 0.012047349 2.2604532e-05
1.408879e-05 6.222444e-05 -5.2200704e-07 0.012054942 2.5770061e-05 4.3293338e-05 1.3308393e-05 2.8520379e-05
00000000: 8010 443c a902 1cbc 80d2 c437 5b79 1db8
00000010: 940a a337 9423 50b9 8e25 85b8 aa7d 8eb8
00000020: 396d ea37 27a4 44bc b4ab 44bc e2f1 44bc
00000030: 8566 ee37 887a df36 cd5a 8337 931e 453c
00000040: 30db b5b8 cd2d 45bc 9f43 6934 040b 3236
00000050: 53c6 60b8 7329 45bc 46ec 443c aa42 e0b7
00000060: 1ffa d6b8 37cf 2037 1d32 8e37 3a10 163a
00000070: 249b a6b7 eacd 44bc 4ee3 443c 384d 2c36
00000080: 2777 23b8 87c5 0738 088e d037 92eb afb8
00000090: cece 0b38 e588 43bc 1b35 443c 3eef fa37
000000a0: 9c46 123a d83a 44bc 910f 35b7 9cbd ffb8
000000b0: 16de 95b9 1f4d 44bc df1c 32b7 3592 21b8
000000c0: ae98 69b6 7187 e037 7a1d ed37 9040 6537
000000d0: a168 e237 6c29 7f37 3e62 453c dd9e bd37
000000e0: e45e 6c37 7e7e 8238 0d20 0cb5 1782 453c
000000f0: c92c d837 de95 3538 1d47 5f37 0c3f ef37

c0.weight f4 [64, 64, 3, 3]
-4.556618e-06 -5.836159e-06 -4.6744103e-06 -5.734849e-06 -6.177665e-06 -5.8192045e-06 -4.5121997e-06 -5.703122e-06
-4.545611e-06 1.0876374e-12 -3.0990866e-11 2.564112e-12 -3.1541946e-11 -6.816973e-11 -3.0611735e-11 3.8452223e-12
-2.927419e-11 2.4757603e-12 4.346305e-05 8.130989e-05 3.8562477e-05 8.227239e-05 0.00010796196 8.044822e-05
4.3327353e-05 8.110258e-05 4.032874e-05 -9.02031e-12 -1.0919608e-11 -9.061166e-12 -1.070079e-11 -1.0146772e-11
-1.1050981e-11 -9.283073e-12 -1.0995415e-11 -9.419132e-12 -5.891074e-06 -8.423939e-06 -6.1101678e-06 -8.289262e-06
-9.010621e-06 -8.39764e-06 -5.9234644e-06 -8.233131e-06 -5.978444e-06 7.3533646e-09 1.204807e-08 6.9992536e-09
1.186272e-08 9.66713e-09 1.1917524e-08 8.675402e-09 1.1620604e-08 8.644092e-09 3.0836785e-07 1.5430069e-06
2.0407457e-07 1.3795034e-06 2.1050416e-06 1.398841e-06 2.598975e-07 1.3387895e-06 2.3043843e-07 3.2983567e-11
4.4134984e-11 3.2711705e-11 4.442408e-11 4.0838676e-11 4.4956816e-11 3.356333e-11 4.5339302e-11 3.3554e-11
-1.5968714e-08 -4.9848996e-08 -8.272143e-09 -5.237739e-08 -8.0940985e-08 -4.877981e-08 -1.4423165e-08 -5.0225324e-08
-1.0684567e-08 -1.0425812e-08 2.433874e-08 -8.879489e-09 2.6972385e-08 7.7740644e-08 2.8605482e-08 -5.0454467e-09
3.0056135e-08 -3.9552845e-09 7.866516e-11 4.0591313e-09 -3.4686326e-10 3.9032173e-09 9.943625e-09 3.7515098e-09
-6.0567235e-10 3.411146e-09 -7.056577e-10 3.7942913e-11 8.886553e-11 2.8579233e-11 9.882479e-11 1.4980366e-10
8.738302e-11 3.4952544e-11 9.4804255e-11 2.4525219e-11 -1.8133124e-10 -7.924133e-11 -1.7828267e-10 -7.0881516e-11
1.4324779e-10 -6.8066414e-11 -1.8069893e-10 -7.5916856e-11 -1.7933637e-10 1.255187e-09 1.2425275e-09 1.318904e-09
1.2786532e-09 -3.5851193e-09 1.1760561e-09 1.3434232e-09 1.3205564e-09 1.3583779e-09 -2.9587112e-05 -2.8203116e-05
-2.9891238e-05 -2.8085004e-05 -1.9811308e-05 -2.8679156e-05 -3.0248768e-05 -2.8759747e-05 -3.0649117e-05 -1.0750422e-08
1.23506645e-08 -8.888536e-09 9.659516e-09 -2.0776527e-08 1.21521975e-08 -1.4572991e-08 1.0238855e-08 -1.4348275e-08
-8.235502e-08 -2.1595973e-08 -4.5458474e-08 -3.7874266e-08 -3.3514007e-07 -3.887784e-08 -5.684338e-08 -5.196107e-08
-3.789597e-08 -6.257293e-10 1.7276786e-08 8.313546e-09 1.6039998e-08 -7.416562e-08 1.8196689e-08 -1.2982472e-09
1.6717317e-08 -1.903079e-09 -2.064961e-09 -8.2706045e-08 5.310832e-09 -8.5612506e-08 -1.2589865e-07 -8.14673e-08
-1.039302e-09 -8.272689e-08 2.8215579e-09 2.8873115e-08 3.9196454e-08 2.737973e-08 3.8896474e-08 3.881894e-08
3.9311008e-08 2.7899631e-08 3.8845233e-08 2.7680066e-08 7.954976e-09 3.063532e-08 4.205279e-09 3.1663436e-08
4.2202235e-08 3.0318418e-08 7.540954e-09 3.10013e-08 5.790009e-09 -1.36536045e-08 6.7474665e-11 -9.579678e-09
-2.2179596e-09 -2.0580343e-08 -8.8720187e-10 -1.318367e-08 -2.1896955e-09 -1.3305842e-08 1.7146192e-11 2.828107e-11
1.6889911e-11 2.849943e-11 3.649998e-11 2.9091205e-11 1.7859629e-11 2.9160372e-11 1.8353048e-11 1.0992155e-08
1.4452882e-08 1.0578968e-08 1.4475479e-08 1.6331866e-08 1.4554531e-08 1.1396009e-08 1.4475318e-08 1.1387633e-08
-5.681514e-06 -2.1523289e-05 -4.7781095e-06 -1.8726178e-05 6.8143845e-06 -2.0330113e-05 -5.183145e-06 -1.9317673e-05
-3.1621366e-06 -1.953516e-11 6.655548e-11 -3.040493e-12 6.1897286e-11 3.157151e-11 7.062903e-11 -3.0266362e-11
6.6296364e-11 -3.030127e-11 -1.0789279e-10 2.7989414e-10 -1.105143e-10 2.6417765e-10 8.157217e-10 2.5002783e-10
-1.4636775e-10 2.3355443e-10 -1.575195e-10 -9.372405e-12 1.2351413e-11 -8.046169e-12 1.0770247e-11 1.3007288e-11
1.2130075e-11 -8.3120255e-12 1.0905792e-11 -9.089762e-12 2.3908317e-10 -3.4493935e-10 1.9784903e-10 -3.402859e-10
00000000: 0de5 98b6 39d4 c3b6 e1d8 9cb6 fa6d c0b6
00000010: bd49 cfb6 9642 c3b6 8067 97b6 725d bfb6
00000020: 8086 98b6 4412 992b 9d4c 08ae ef6e 342c
00000030: 13b9 0aae 25e8 95ae c0a1 06ae af4a 872c
00000040: cfbf 00ae 5537 2e2c 184c 3638 ea84 aa38
00000050: 25be 2138 a789 ac38 a369 e238 4fb6 a838
00000060: 64ba 3538 9e15 aa38 a826 2938 ddaf 1ead
00000070: 8b19 40ad dd67 1fad 1340 3cad 0081 32ad
00000080: 3269 42ad 3e4f 23ad f26e 41ad 00b4 25ad
00000090: f1ab c5b6 8b54 0db7 f105 cdb6 1c12 0bb7
000000a0: 532c 17b7 97e3 0cb7 2cc2 c6b6 0721 0ab7
000000b0: 719a c8b6 e1a8 fc31 f9fb 4e32 167e f031
000000c0: cbcc 4b32 7d14 2632 d3bd 4c32 d20a 1532
000000d0: f5a3 4732 1e81 1432 c18d a534 5019 cf35
000000e0: 971f 5b34 6027 b935 5744 0d36 d0bf bb35
000000f0: 0a88 8b34 75b0 b335 6f6e 7734 3210 112e
00000100: 931b 422e 1bde 0f2e 1161 432e 439c 332e
00000110: e0b8 452e f39c 132e 8467 472e 7292 132e
00000120: 932b 89b2 8d19 56b3 451d 0eb2 8df5 60b3
00000130: c7d1 adb3 f881 51b3 c0c9 77b2 54b7 57b3
00000140: 398f 37b2 351d 33b2 7511 d132 688c 18b2
00000150: e7b0 e732 5ff2 a633 1fb8 f532 385c adb1
00000160: 1217 0133 0de7 87b1 8cfc ac2e 7f78 8b31
00000170: aab0 beaf 101d 8631 86d4 2a32 a1e6 8031
00000180: 677c 26b0 8469 6a31 3ff8 41b0 ecdf 262e
00000190: d96a c32e b662 fb2d 6951 d92e fbb5 242f
000001a0: 4428 c02e 11b9 192e 0d7a d02e e2b9 d72d
000001b0: 3560 47af e740 aeae 1c06 44af bfde 9bae
000001c0: ab80 1d2f fcad 95ae 3aae 46af 64f1 a6ae
000001d0: b32e 45af f782 ac30 8dc5 aa30 cf44 b530
000001e0: 9cbc af30 165e 76b1 cca2 a130 80a3 b830
000001f0: f37e b530 acb1 ba30 d731 f8b7 bb95 ecb7
00000200: f2be fab7 1698 ebb7 7630 a6b7 0594 f0b7
00000210: bcbe fdb7 1641 f1b7 3d8d 00b8 dbb0 38b2
00000220: cc2e 5432 32b4 18b2 00f3 2532 1178 b2b2
00000230: eec5 5032 b15c 7ab2 f6e6 2f32 6180 76b2
00000240: 27db b0b3 0c82 b9b2 1f3e 43b3 32ab 22b3
00000250: 4ded b3b4 a3fa 26b3 f523 74b3 cd2b 5fb3
00000260: 0fc3 22b3 c9ff 2bb0 0e68 9432 5dd3 0e32
00000270: 54c8 8932 fb44 9fb3 f14e 9c32 036e b2b0
00000280: c599 8f32 52c7 02b1 2ee7 0db1 219c b1b3
00000290: 937a b631 f9d9 b7b3 c22e 07b4 1ff3 aeb3
000002a0: 30d7 8eb0 97a7 b1b3 5fe5 4131 a704 f832
000002b0: f558 2833 aa30 eb32 200f 2733 e0b9 2633
000002c0: e9d6 2833 f0a7 ef32 c9d6 2633 1cc5 ed32
000002d0: 5baa 0832 e493 0333 067e 9031 51fe 0733
000002e0: d941 3533 7437 0233 778d 0132 4a26 0533
000002f0: 75f1 c631 3091 6ab2 dc60 942e df93 24b2
00000300: c26a 18b1 a7c8 b0b2 48df 73b0 657e 62b2
00000310: 8879 16b1 b697 64b2 cbd1 962d 4fc3 f82d
00000320: b390 942d 03af fa2d 5387 202e 92e3 ff2d
00000330: 4f18 9d2d a93f 002e 646f a12d 02d8 3c32
00000340: 724c 7832 cbbe 3532 d4af 7832 274a 8c32
00000350: 810b 7a32 2dc8 4332 1faf 7832 57a3 4332
00000360: d5a3 beb6 e98c b4b7 a653 a0b6 2916 9db7
00000370: 1ea7 e436 968a aab7 e0ea adb6 630c a2b7
00000380: 1835 54b6 45d5 abad 685b 922e a7f4 55ac
00000390: 131d 882e 5cda 0a2e 9c50 9b2e e51c 05ae
000003a0: 89c9 912e 3244 05ae 3e42 edae 99df 992f
000003b0: 0506 f3ae b33b 912f 5039 6030 4a74 892f
000003c0: dcee 20af dd65 802f cc31 2daf 8fe1 24ad
000003d0: d249 592d b98c 0dad e178 3d2d 9ed3 642d
000003e0: 0065 552d 093a 12ad 52db 3f2d a6e8 1fad
000003f0: f76f 832f e6a1 bdaf 8d89 592f fc12 bbaf

c0.bias f4 [64]
0.0054762946 -0.003842641 -1.3211309e-06 -0.00016361989 -5.1413284e-05 -0.00014965008 -0.00012650594 -0.000104434155
-1.5217153e-05 -0.0055546546 -0.0055550197 -0.005609685 4.056939e-06 -7.2831835e-06 -9.911409e-06 0.0056201164
-1.3966415e-05 -0.0056217564 -8.543641e-06 3.458439e-05 3.3495493e-05 -0.0056063887 0.0055690883 1.1797921e-05
-2.0491512e-05 -8.982594e-05 -5.42891e-05 -5.857654e-05 -8.234114e-05 -0.005542962 0.005567959 -3.6053265e-05
-1.2165191e-05 -5.109194e-05 -4.6780402e-05 -1.5784964e-05 -4.0020745e-06 -0.0053873374 0.0054853056 -4.7022135e-05
6.210646e-05 -0.0055008405 6.697269e-05 3.3822278e-05 0.00017691994 -0.0055240775 0.00012927862 9.945183e-05
-3.1610347e-05 -6.898728e-05 -6.092679e-05 -2.8525013e-05 -9.490669e-05 7.326021e-06 0.0056625353 -3.8759692e-05
1.9869052e-05 -9.19356e-06 -4.6936788e-05 0.0057179956 -2.9783812e-05 3.8758535e-05 7.4727564e-07 1.705945e-05
00000000: 7d72 b33b d1d4 7bbb b651 b1b5 6191 2bb9
00000010: 98a4 57b8 63eb 1cb9 aea6 04b9 a903 dbb8
00000020: 2d4d 7fb7 d203 b6bb e206 b6bb 73d1 b7bb
00000030: d720 8836 1262 f4b6 2d49 26b7 f428 b83b
00000040: 4c51 6ab7 b636 b8bb a956 0fb7 b50e 1138
00000050: 837d 0c38 ccb5 b7bb e67c b63b afef 4537
00000060: 30e5 abb7 ef60 bcb8 7ab4 63b8 15b0 75b8
00000070: 90ae acb8 bca1 b5bb 6d73 b63b e637 17b8
00000080: 1919 4cb7 8e4b 56b8 1336 44b8 f469 84b7
00000090: 8f49 86b6 4388 b0bb 14be b33b a239 45b8
000000a0: 273f 8238 6540 b4bb b073 8c38 65dc 0d38
000000b0: 9683 3939 5203 b5bb f78e 0739 cb90 d038
000000c0: 5a95 04b8 44ad 90b8 a58b 7fb8 0049 efb7
000000d0: a408 c7b8 0bd2 f536 ca8c b93b e791 22b8
000000e0: 77ac a637 0a3e 1ab7 fedd 44b8 065e bb3b
000000f0: 40d8 f9b7 a990 2238 6498 4835 e41a 8f37

conv.weight f4 [64, 64, 3, 3]
-0.0012413915 -0.0012868092 -0.0012413919 -0.0012868085 -0.0013155236 -0.001286808 -0.00124139 -0.001286807
-0.0012413893 0.0012240428 0.0012862901 0.001224043 0.0012862908 0.0013338329 0.0012862909 0.0012240412
0.00128629 0.0012240419 4.5750138e-08 -1.1329196e-06 4.57519e-08 -1.1329196e-06 -3.7903378e-06 -1.1329206e-06
4.5749697e-08 -1.1329213e-06 4.575114e-08 3.2784726e-05 6.1705425e-05 3.2784716e-05 6.170541e-05 5.246284e-05
6.170543e-05 3.2784723e-05 6.170542e-05 3.2784726e-05 3.0828072e-05 2.3367425e-05 3.0828072e-05 2.3367442e-05
3.4117318e-05 2.336743e-05 3.0828065e-05 2.3367424e-05 3.082807e-05 -8.211094e-06 8.442769e-05 -8.211067e-06
8.4427695e-05 9.793749e-05 8.442771e-05 -8.211067e-06 8.44277e-05 -8.211066e-06 2.9006354e-05 2.0726477e-05
2.9006354e-05 2.0726491e-05 5.681915e-05 2.0726484e-05 2.9006353e-05 2.0726486e-05 2.9006349e-05 8.983647e-06
3.5423647e-05 8.983633e-06 3.5423654e-05 1.978424e-05 3.542364e-05 8.983643e-06 3.542364e-05 8.983645e-06
3.1115096e-06 -1.5010098e-06 3.1115164e-06 -1.5010104e-06 6.5134573e-06 -1.5010107e-06 3.1115135e-06 -1.5010111e-06
3.1115137e-06 0.001242427 0.0012893336 0.0012424279 0.0012893334 0.0013216999 0.001289332 0.0012424261
0.0012893318 0.0012424266 0.0012424228 0.0012892749 0.0012424242 0.0012892747 0.0013213732 0.0012892755
0.0012424221 0.0012892734 0.001242422 0.0012418848 0.0012878552 0.0012418859 0.0012878556 0.001317693
0.0012878553 0.0012418838 0.0012878546 0.0012418838 -3.3396152e-06 -1.4885713e-05 -3.3396109e-06 -1.4885717e-05
-1.689197e-05 -1.4885713e-05 -3.3396143e-06 -1.4885716e-05 -3.3396132e-06 2.7333265e-06 -5.0721596e-06 2.733324e-06
-5.0721605e-06 -1.9627681e-05 -5.072157e-06 2.733325e-06 -5.0721615e-06 2.7333242e-06 1.031604e-07 1.37727e-06
1.0315972e-07 1.3772701e-06 8.834671e-06 1.3772703e-06 1.0315977e-07 1.3772697e-06 1.03161405e-07 -0.001241913
-0.0012883818 -0.0012419125 -0.0012883815 -0.0013192651 -0.001288382 -0.0012419113 -0.001288381 -0.0012419113
-1.9700856e-06 1.4130108e-06 -1.9700901e-06 1.4130105e-06 -1.380301e-05 1.4130147e-06 -1.9700863e-06 1.4130128e-06
-1.970089e-06 0.0012419687 0.0012882992 0.0012419685 0.0012882986 0.0013184393 0.0012883003 0.001241968
0.0012882976 0.0012419677 1.4443538e-06 -4.488068e-06 1.4443552e-06 -4.488066e-06 2.663906e-06 -4.488065e-06
1.4443533e-06 -4.4880653e-06 1.444355e-06 2.6635476e-09 -7.47822e-06 2.6637172e-09 -7.4782215e-06 -1.1373275e-05
-7.4782215e-06 2.6663018e-09 -7.4782256e-06 2.6645703e-09 6.515815e-06 -1.6699978e-05 6.5158274e-06 -1.6699978e-05
-5.4575878e-05 -1.6699978e-05 6.515821e-06 -1.6699974e-05 6.515833e-06 0.0012423123 0.0012895693 0.0012423117
0.0012895697 0.0013223285 0.0012895704 0.0012423109 0.0012895685 0.0012423105 -0.0012424545 -0.0012900889
-0.0012424542 -0.0012900876 -0.0013243741 -0.0012900874 -0.0012424529 -0.001290087 -0.0012424531 -9.857409e-07
-7.972019e-07 -9.857431e-07 -7.972045e-07 -1.1056805e-05 -7.972044e-07 -9.857403e-07 -7.972066e-07 -9.857412e-07
1.8397828e-06 -1.1802915e-05 1.8397828e-06 -1.18029175e-05 4.5598613e-06 -1.1802913e-05 1.8397816e-06 -1.1802917e-05
1.8397834e-06 1.1773733e-06 3.729102e-05 1.1773711e-06 3.7291025e-05 3.0291925e-05 3.7291018e-05 1.1773659e-06
3.729103e-05 1.1773813e-06 2.1083608e-07 3.082145e-05 2.1082806e-07 3.0821455e-05 2.407113e-05 3.0821448e-05
2.1082404e-07 3.082146e-05 2.1082889e-07 7.59409e-05 8.4897634e-05 7.594089e-05 8.4897714e-05 0.00016273886
8.489771e-05 7.594084e-05 8.48977e-05 7.594086e-05 -6.1529763e-06 4.0760522e-05 -6.1529677e-06 4.076051e-05
00000000: 30b6 a2ba 27aa a8ba 33b6 a2ba 21aa a8ba
00000010: a66d acba 1daa a8ba 23b6 a2ba 14aa a8ba
00000020: 1db6 a2ba 1070 a03a bc98 a83a 1170 a03a
00000030: c298 a83a 01d4 ae3a c398 a83a 0270 a03a
00000040: bb98 a83a 0870 a03a cf7e 4433 d20e 98b5
00000050: bf80 4433 d20e 98b5 825d 7eb6 db0e 98b5
00000060: 537e 4433 e10e 98b5 e97f 4433 5582 0938
00000070: d967 8138 5282 0938 d767 8138 8c0b 5c38
00000080: da67 8138 5482 0938 d867 8138 5582 0938
00000090: 644d 0138 2a05 c437 644d 0138 3305 c437
000000a0: 3119 0f38 2c05 c437 624d 0138 2905 c437
000000b0: 634d 0138 61c2 09b7 c50e b138 44c2 09b7
000000c0: c60e b138 ca63 cd38 c80e b138 44c2 09b7
000000d0: c70e b138 43c2 09b7 ac52 f337 c5dd ad37
000000e0: ac52 f337 cddd ad37 1951 6e38 c9dd ad37
000000f0: ab52 f337 cadd ad37 a952 f337 78b8 1637
00000100: da93 1438 69b8 1637 dc93 1438 55f6 a537
00000110: d893 1438 74b8 1637 d893 1438 76b8 1637
00000120: 54cf 5036 4e76 c9b5 72cf 5036 5376 c9b5
00000130: 2c8e da36 5676 c9b5 65cf 5036 5976 c9b5
00000140: 66cf 5036 efd8 a23a dbfe a83a f6d8 a23a
00000150: dafe a83a e43c ad3a cefe a83a e7d8 a23a
00000160: ccfe a83a ebd8 a23a cbd8 a23a e3fc a83a
00000170: d7d8 a23a e1fc a83a ed31 ad3a e8fc a83a
00000180: c5d8 a23a d6fc a83a c4d8 a23a bdc6 a23a
00000190: 40cd a83a c7c6 a23a 43cd a83a 71b6 ac3a
000001a0: 41cd a83a b5c6 a23a 3bcd a83a b5c6 a23a
000001b0: 271e 60b6 a7bd 79b7 141e 60b6 abbd 79b7
000001c0: 3bb3 8db7 a7bd 79b7 231e 60b6 aabd 79b7
000001d0: 1e1e 60b6 316e 3736 8531 aab6 266e 3736
000001e0: 8731 aab6 20a6 a4b7 7f31 aab6 2a6e 3736
000001f0: 8931 aab6 276e 3736 0889 dd33 a3da b835
00000200: a888 dd33 a4da b835 9f38 1437 a6da b835
00000210: af88 dd33 a0da b835 9589 dd33 afc7 a2ba
00000220: ebde a8ba abc7 a2ba e9de a8ba 31eb acba
00000230: edde a8ba a1c7 a2ba e5de a8ba a1c7 a2ba
00000240: d035 04b6 aea6 bd35 e435 04b6 aca6 bd35
00000250: 7a93 67b7 d1a6 bd35 d335 04b6 c0a6 bd35
00000260: df35 04b6 8ec9 a23a 26dc a83a 8cc9 a23a
00000270: 21dc a83a 7bcf ac3a 2fdc a83a 88c9 a23a
00000280: 18dc a83a 85c9 a23a 9edb c135 3698 96b6
00000290: abdb c135 3298 96b6 8ec5 3236 2f98 96b6
000002a0: 9adb c135 3098 96b6 a9db c135 a009 3731
000002b0: 6ced fab6 9c0c 3731 6fed fab6 d8cf 3eb7
000002c0: 6fed fab6 143a 3731 78ed fab6 9e1b 3731
000002d0: 6da2 da36 ee16 8cb7 88a2 da36 ee16 8cb7
000002e0: 67e8 64b8 ee16 8cb7 7aa2 da36 ec16 8cb7
000002f0: 94a2 da36 15d5 a23a c406 a93a 10d5 a23a
00000300: c706 a93a fb51 ad3a cd06 a93a 09d5 a23a
00000310: bd06 a93a 06d5 a23a dbd9 a2ba 3318 a9ba
00000320: d8d9 a2ba 2818 a9ba 9f96 adba 2618 a9ba
00000330: cdd9 a2ba 2318 a9ba cfd9 a2ba cd4d 84b5
00000340: 4cff 55b5 e04d 84b5 7aff 55b5 9e80 39b7
00000350: 78ff 55b5 c74d 84b5 9fff 55b5 cf4d 84b5
00000360: 75ee f635 2205 46b7 75ee f635 2505 46b7
00000370: e900 9936 2005 46b7 6aee f635 2405 46b7
00000380: 7aee f635 3d06 9e35 ee68 1c38 2a06 9e35
00000390: ef68 1c38 6a1b fe37 ed68 1c38 fc05 9e35
000003a0: f068 1c38 8306 9e35 2e62 6234 4846 0138
000003b0: fa5f 6234 4946 0138 5cec c937 4746 0138
000003c0: df5e 6234 4a46 0138 3460 6234 7642 9f38
000003d0: 120b b238 7442 9f38 1d0b b238 e1a4 2a39
000003e0: 1c0b b238 6e42 9f38 1b0b b238 7042 9f38
000003f0: aa75 ceb6 47f6 2a38 9775 ceb6 44f6 2a38

conv.bias f4 [64]
-0.0013011732 -0.0013075459 -0.0009986252 0.0012837781 -0.07108653 0.0013016794 0.0013014178 0.0013064798
-0.009259508 0.0012943078 0.0013054269 0.0013070316 -0.0013022394 0.025082352 -0.043233536 0.04784788
-0.0013000254 -0.0013081806 0.0013072597 -0.0013065138 -0.001187036 -0.0012945955 -0.0013020531 -0.0013044394
-0.0012919373 -0.0013073245 0.0011780667 -0.0013014565 0.0011773414 -0.0013017346 -0.0013091683 -0.0013014678
0.0013022684 0.07516675 0.0013501695 0.0013071535 0.04480586 -0.089819714 -0.0013016526 0.0013034814
0.0013037978 -0.11952322 -0.0013027085 0.0013014629 -0.0013017909 0.0013092301 0.001307112 -0.115841016
-0.09003058 -0.08439598 0.0012134718 -0.08664554 -0.0013255493 0.0012983548 0.0013333865 0.0013086621
0.0012998461 -0.0013007061 0.0011507199 -0.0013015062 -0.001299638 -0.0011347415 -0.0013047147 -0.0013034341
00000000: 218c aaba f661 abba 4de4 82ba 7244 a83a
00000010: d195 91bd 1d9d aa3a 5694 aa3a 303e ab3a
00000020: 31b5 17bc c3a5 a93a dc1a ab3a b450 ab3a
00000030: e7af aaba 8179 cd3c a615 31bd 23fc 433d
00000040: 9d65 aaba 4277 abba 5b58 ab3a 543f abba
00000050: 5296 9bba 6baf a9ba a7a9 aaba b9f9 aaba
00000060: 3956 a9ba 885a abba 5c69 9a3a a295 aaba
00000070: 0651 9a3a f79e aaba 6698 abba 0396 aaba
00000080: e0b0 aa3a 06f1 993d 2cf8 b03a cb54 ab3a
00000090: 5986 373d 66f3 b7bd 379c aaba 94d9 aa3a
000000a0: 32e4 aa3a 97c8 f4bd a5bf aaba d995 aa3a
000000b0: dba0 aaba 799a ab3a 6753 ab3a 0e3e edbd
000000c0: f461 b8bd cdd7 acbd 5b0d 9f3a 3873 b1bd
000000d0: 0ebe adba 8f2d aa3a 07c5 ae3a 6a87 ab3a
000000e0: 995f aa3a 747c aaba c1d3 963a 4d97 aaba
000000f0: 9d58 aaba 9bbb 94ba f602 abba fed7 aaba

lstm.weight_ih f4 [256, 64]
-0.0016382132 -0.001627747 -0.0017364082 0.0016625613 -0.015820324 0.0016374208 0.0016378337 0.001629571
-0.0017534065 0.0016484439 0.0016313418 0.0016286338 -0.0016365336 0.0056345807 -0.009656785 0.010703813
-0.0016399896 -0.0016266402 0.0016282306 -0.0016295147 -0.0017501605 -0.0016480343 -0.0016368299 -0.0016329809
-0.0016517682 -0.0016281253 0.0017596469 -0.0016377721 0.0017604529 -0.0016373377 -0.0016248976 -0.001637755
0.0016364858 0.01681752 0.0014215269 0.0016284183 0.010161294 -0.01980634 -0.0016374614 0.001634545
0.0016340334 -0.026175851 -0.0016357887 0.0016377551 -0.0016372433 0.0016247861 0.0016284895 -0.025348717
-0.020017704 -0.018716274 0.0017519314 -0.019214105 -0.0015902447 0.0016425335 0.0015675764 0.0016257863
0.0016402701 -0.0016389426 0.0017950792 -0.0016376954 -0.0016405915 -0.0006018912 -0.0016325208 -0.0016346179
0.004693807 0.0048179263 0.00021759464 -0.004369957 -0.05945494 -0.0047035106 -0.0046984595 -0.0047969064
-0.02088311 -0.0045638364 -0.0047762557 -0.004807729 0.0047142985 0.029042963 -0.043104947 0.04585382
0.004671858 0.0048305467 -0.0048123766 0.00479757 0.00263075 0.004569227 0.0047107083 0.0047569363
0.004519698 0.0048135845 -0.0024449856 0.0046992213 -0.0024299207 0.004704512 0.004850241 0.00469942
-0.004714852 0.062325913 -0.0061983513 -0.0048102085 0.040569354 -0.06957675 0.00470303 -0.004738286
-0.004744433 -0.102327295 0.0047233207 -0.0046994095 0.004705683 -0.0048515075 -0.004809402 -0.08761826
-0.072761536 -0.07363639 -0.0027467024 -0.07926907 0.005198968 -0.00464 -0.0053899973 -0.0048402236
-0.004668384 0.004684814 -0.0016401088 0.0047001624 0.004664389 0.006628071 0.0047623655 0.004737443
0.0009945132 0.0009860571 0.0014263552 -0.0010173172 0.037993964 -0.0009938501 -0.0009941923 -0.0009874884
0.005758709 -0.0010034605 -0.0009888938 -0.0009867529 0.0009931128 -0.014294351 0.023616051 -0.02600997
0.0009960103 0.0009851988 -0.0009864377 0.0009874434 0.0011965537 0.0010030861 0.0009933584 0.0009902099
0.0010065497 0.0009863545 -0.0012272737 0.0009941404 -0.001229898 0.0009937807 0.0009838563 0.0009941278
-0.0009930747 -0.040326215 -0.00085557776 -0.0009865843 -0.0246053 0.04748156 0.0009938842 -0.0009914769
-0.000991061 0.062912256 0.0009924979 -0.0009941292 0.0009937021 -0.0009837734 -0.0009866402 0.060918
0.04792741 0.04482733 -0.0011930955 0.046306793 0.00095939764 -0.0009981971 -0.0009447956 -0.0009845403
-0.0009962509 0.0009951262 -0.0013601214 0.0009940767 0.0009965248 0.00022773139 0.0009898383 0.0009915376
-0.0021147253 -0.002144503 -0.0008955343 0.0020350418 0.036895465 0.0021170669 0.0021158457 0.0021394906
0.008467176 0.002083116 0.0021345508 0.0021420727 -0.0021196667 -0.014869643 0.023310075 -0.025539514
-0.0021094184 -0.0021475127 0.002143181 -0.0021396473 -0.0015641226 -0.0020844345 -0.002118801 -0.0021299182
-0.002072271 -0.00214347 0.0015099073 -0.002116028 0.0015054953 -0.0021173109 -0.0021521947 -0.0021160818
0.002119801 -0.038906712 0.0024511532 0.002142662 -0.023750529 0.04645201 -0.0021169498 0.0021254432
0.0021269172 0.061870627 -0.0021218432 0.0021160797 -0.0021175877 0.0021524953 0.002142471 0.059816387
0.04647123 0.04348189 0.0016087405 0.045035746 -0.0022337446 0.002101692 0.0022773512 0.0021498136
0.0021085753 -0.002112555 0.0013017524 -0.0021162638 -0.002107608 -0.002317027 -0.0021312186 -0.0021252339
00000000: 50b9 d6ba 205a d5ba 3198 e3ba 4dea d93a
00000010: a099 81bc ba9e d63a 94ac d63a 5497 d53a
00000020: 8fd2 e5ba 9910 d83a bfd2 d53a e277 d53a
00000030: f580 d6ba 4aa2 b83b 7e37 1ebc 0c5f 2f3c
00000040: ebf4 d6ba fd34 d5ba 5a6a d53a 7195 d5ba
00000050: a465 e5ba db02 d8ba e68a d6ba bf09 d6ba
00000060: 2580 d8ba d266 d5ba f4a3 e63a 83aa d6ba
00000070: ffbe e63a f09b d6ba 84fa d4ba f0a9 d6ba
00000080: 5a7f d63a e5c4 893c 8752 ba3a a770 d53a
00000090: 8e7b 263c e840 a2bc 16a0 d6ba 3b3e d63a
000000a0: 102d d63a bd6e d6bc f667 d6ba f1a9 d63a
000000b0: c598 d6ba c6f6 d43a 0a73 d53a 1da8 cfbc
000000c0: 2bfc a3bc df52 99bc 10a1 e53a e666 9dbc
000000d0: c26f d0ba 474a d73a 2377 cd3a 5618 d53a
000000e0: 55fe d63a cad1 d6ba dd48 eb3a f0a7 d6ba
000000f0: 1e09 d7ba 3cc8 1dba 4ffa d5ba ad40 d6ba
00000100: 82ce 993b b2df 9d3b 1e2a 6439 db31 8fbb
00000110: 0687 73bd e81f 9abb 89f5 99bb 5e2f 9dbb
00000120: 0e13 abbc 3c8c 95bb 2382 9cbb 278a 9dbb
00000130: 677a 9a3b 82eb ed3c d08e 30bd 37d1 3b3d
00000140: 6316 993b 9049 9e3b 24b1 9dbb ef34 9d3b
00000150: a968 2c3b 74b9 953b 495c 9a3b 13e0 9b3b
00000160: fa19 943b 46bb 9d3b 0d3c 20bb edfb 993b
00000170: 4e3f 1fbb 4f28 9a3b c5ee 9e3b 98fd 993b
00000180: 0c7f 9abb 7549 7f3d 8a1b cbbb f49e 9dbb
00000190: 0d2c 263d 417e 8ebd e01b 9a3b a043 9bbb
000001a0: 3077 9bbb f990 d1bd 16c6 9a3b 81fd 99bb
000001b0: 2132 9a3b 65f9 9ebb 3098 9dbb 3471 b3bd
000001c0: 0004 95bd adce 96bd 0502 34bb d257 a2bd
000001d0: 1b5c aa3b 240b 98bb 939e b0bb bd9a 9ebb
000001e0: 3ef9 98bb 1183 993b ebf8 d6ba d203 9a3b
000001f0: bbd7 983b 4a30 d93b 9e0d 9c3b 8d3c 9b3b
00000200: 535a 823a 963e 813a 8af4 ba3a 8057 85ba
00000210: 8f9f 1b3d 1344 82ba 8f4f 82ba 9d6e 81ba
00000220: 8db3 bc3b 8c86 83ba c59d 81ba ef55 81ba
00000230: 562b 823a db32 6abc 7376 c13c dc12 d5bc
00000240: 8f8c 823a c921 813a 5b4b 81ba 1a6d 813a
00000250: aed5 9c3a fc79 833a 9433 823a eec9 813a
00000260: 34ee 833a 9148 813a 79dc a0ba d14d 823a
00000270: 8734 a1ba bf41 823a bdf4 803a 654d 823a
00000280: 0f2a 82ba 1a2d 25bd da48 60ba 4750 81ba
00000290: 0e91 c9bc 067c 423d 3845 823a 72f4 81ba
000002a0: 7de6 81ba 24d8 803d b416 823a 714d 82ba
000002b0: 1c3f 823a f5f1 80ba 2752 81ba 2785 793d
000002c0: 884f 443d dd9c 373d a461 9cba 31ac 3d3d
000002d0: 1680 7b3a f0d5 82ba 29ac 77ba b10b 81ba
000002e0: a294 82ba e56e 823a 1a46 b2ba ae4b 823a
000002f0: d39d 823a 2ecb 6e39 76bd 813a 7bf6 813a
00000300: 3497 0abb ca8a 0cbb 4ac2 6aba 565e 053b
00000310: b31f 173d 7dbe 0a3b 00aa 0a3b b236 0c3b
00000320: e9b9 0a3c e384 083b d2e3 0b3b 0462 0c3b
00000330: 1bea 0abb ce9f 73bc c5f4 be3c 3e38 d1bc
00000340: 2b3e 0abb 49bd 0cbb 9c74 0c3b 5339 0cbb
00000350: 3f03 cdba 029b 08bb 95db 0abb 1996 0bbb
00000360: f0ce 07bb 7679 0cbb 15e8 c53a 0fad 0abb
00000370: 0a54 c53a 95c2 0abb d60b 0dbb f6ad 0abb
00000380: 5cec 0a3b a55c 1fbd 87a3 203b e76b 0c3b
00000390: 7890 c2bc 7644 3e3d 86bc 0abb 054b 0b3b
000003a0: c063 0b3b 0e6c 7d3d 9f0e 0bbb edad 0a3b
000003b0: 3ac7 0abb e110 0d3b b368 0c3b 0702 753d
000003c0: 9e58 3e3d 111a 323d 60dc d23a 6777 383d
000003d0: 0464 12bb 8abc 093b 9d3f 153b e3e3 0c3b
000003e0: 0630 0a3b cb72 0abb 909f aa3a 04b1 0abb
000003f0: cb1f 0abb 43d9 17bb eaab 0bbb 8247 0bbb

lstm.weight_hh f4 [256, 64]
0.0041069537 -0.0035014523 1.917443e-05 -0.0004330172 -0.000120250406 -0.00040255729 -0.00039240465 -0.0002507173
-7.737966e-06 -0.0042864652 -0.004287578 -0.0043178173 6.949059e-05 5.6015295e-05 -1.82906e-05 0.0042154444
2.9129713e-05 -0.0043106643 -1.2519925e-05 -2.5729316e-06 6.210559e-05 -0.004284232 0.0041865194 2.1671438e-05
-1.3919842e-05 -0.00022677337 -0.00017392913 5.5895005e-05 -0.00017662311 -0.0041940454 0.0042063063 -0.00010367706
-2.4888666e-05 -0.0001221633 -0.00010291178 -1.3162676e-05 -6.1900964e-06 -0.004061837 0.004120932 -0.000111401125
0.00029853775 -0.0043099453 0.00022609545 9.848338e-05 0.0005840538 -0.004270203 0.00030078826 0.0003083699
-6.520893e-05 -0.00017528488 -0.00012984462 -2.203776e-05 -0.00020246218 7.1764174e-05 0.004285821 -8.128301e-05
3.9980925e-05 -3.3286877e-05 -0.00010300977 0.0043337177 -0.00013483202 7.6968056e-05 -1.0712316e-05 2.0118289e-06
0.011997591 -0.008808506 -1.2751894e-05 0.00018350656 0.00018296103 0.0004353676 9.21756e-05 0.00017339496
2.3986071e-05 -0.0118438555 -0.011849953 -0.011889181 -0.00016834502 -0.00010130934 3.0031117e-05 0.011993643
-7.8437166e-05 -0.011945899 1.6444434e-05 -8.098579e-06 -0.00026060516 -0.011976003 0.012003459 -6.071219e-05
3.4399283e-05 0.00036933686 0.000265628 -0.0004925999 0.00033665093 -0.012010475 0.01197513 0.0001736002
4.344877e-05 0.00024692537 0.0002188831 1.5348784e-05 -6.152073e-05 -0.012038857 0.0119697135 0.00020765844
-0.00019865109 -0.011714917 -3.6309495e-05 -0.00019939512 0.0006013015 -0.011800713 -0.00045013955 -0.0004512267
9.587846e-05 0.0002773648 0.00020998307 6.0977698e-05 0.00033924 -8.413051e-05 0.011961023 0.00011502936
-5.096128e-05 6.1768194e-05 0.00020093052 0.011954116 0.00023981971 -0.00016048124 1.5638174e-05 -1.0729749e-05
-0.008031239 0.00631357 2.940915e-06 2.4776144e-05 2.8680329e-06 1.4950735e-05 6.8129316e-06 7.5215075e-06
8.964731e-07 0.008066575 0.008064906 0.008076553 1.7991244e-06 -2.854283e-06 -2.9041212e-07 -0.008074058
-4.9328523e-06 0.008076069 7.7030656e-08 3.015863e-06 5.1033867e-06 0.008076763 -0.0080715455 -2.7126787e-06
2.3669202e-06 1.1293587e-05 6.642144e-06 4.337006e-05 9.538402e-06 0.008066114 -0.008067679 1.971382e-06
1.2536234e-06 1.3858838e-06 4.4158605e-07 -1.4726463e-06 -7.053043e-06 0.00800965 -0.008041129 4.4448248e-06
-7.823841e-05 0.008045214 -1.51451795e-05 -8.06033e-06 8.274289e-06 0.008051207 -1.9271509e-05 -8.147314e-06
-8.992982e-07 -2.6688376e-06 2.7256272e-06 -1.4941865e-07 8.189292e-06 -1.0634993e-06 -0.008081706 -1.7118856e-06
-1.4354076e-06 -4.804791e-06 5.27881e-06 -0.008087863 6.8347977e-06 -6.0611006e-07 7.281716e-08 1.407007e-07
-0.0075942264 0.00591914 1.2426737e-05 -0.0002180823 -0.00012812475 -0.00019778931 -0.00012980356 -9.6744945e-05
-1.3628468e-05 0.0075893835 0.007586687 0.0075994367 4.5154757e-05 8.672611e-06 -1.4862834e-05 -0.0076150172
1.5721882e-05 0.0076046633 -1.6756105e-05 -2.4296971e-06 6.0991486e-05 0.007610882 -0.007622618 1.0983667e-05
-3.0081463e-05 -7.611974e-05 -6.30126e-05 -0.00027232507 -5.464055e-05 0.007612934 -0.0076126135 -2.8623535e-05
-5.9838153e-06 -1.7603386e-05 -8.714604e-06 -1.2921495e-05 4.248587e-05 0.0075829285 -0.0076035648 -7.990437e-05
5.8645306e-05 0.007540826 0.0001134264 6.8217945e-05 0.00050246814 0.0075664255 0.00011185101 0.00013576314
-3.8904123e-05 -3.6592406e-05 -1.94904e-05 -5.4417764e-05 -7.996446e-05 3.5250534e-05 -0.0076140934 -2.9987234e-05
2.0112264e-05 -1.1089696e-05 -3.2063614e-05 -0.0076148026 -5.485903e-05 3.4600398e-05 -7.6859e-06 5.7599404e-06
00000000: a093 863b 9f78 65bb c6d8 a037 9606 e3b9
00000010: f22e fcb8 530e d3b9 a9bb cdb9 b572 83b9
00000020: 50d2 01b7 7a75 8cbb d07e 8cbb 7a7c 8dbb
00000030: 7abb 9138 f7f1 6a38 c46e 99b7 b621 8a3b
00000040: 955b f437 7940 8dbb ab0c 52b7 a1aa 2cb6
00000050: af3e 8238 be62 8cbb 122f 893b 0fcb b537
00000060: 4489 69b7 03ca 6db9 bf60 36b9 ce70 6a38
00000070: e833 39b9 346e 89bb 0ed5 893b 336d d9b8
00000080: 01c8 d0b7 f618 00b9 57d2 d7b8 43d5 5cb7
00000090: 86b4 cfb6 2919 85bb e208 873b 06a0 e9b8
000000a0: 0f85 9c39 713a 8dbb 0914 6d39 dd88 ce38
000000b0: 301b 193a 0fed 8bbb 1eb3 9d39 b5ac a139
000000c0: c7c0 88b8 adcc 37b9 e626 08b9 bbdd b8b7
000000d0: 074c 54b9 1980 9638 1370 8c3b 7c76 aab8
000000e0: 31b1 2738 839d 0bb8 f306 d8b8 dc01 8e3b
000000f0: b261 0db9 e969 a138 0cb9 33b7 f502 0736
00000100: 8b91 443c 8d51 10bc f8f0 55b7 ab6b 4039
00000110: 3ad9 3f39 0d42 e439 664e c138 5bd1 3539
00000120: b235 c937 bb0c 42bc 4e26 42bc d7ca 42bc
00000130: c685 30b9 0a76 d4b8 55eb fb37 fc80 443c
00000140: a27e a4b8 bbb8 43bc 27f2 8937 22df 07b7
00000150: d5a1 88b9 ff36 44bc 28aa 443c 38a5 7eb8
00000160: f347 1038 8ea3 c139 fd43 8b39 d221 01ba
00000170: 8680 b039 95c7 44bc 5633 443c 7308 3639
00000180: c33c 3638 c375 8139 fc83 6539 43c1 8037
00000190: b104 81b8 a03e 45bc 9e1c 443c e3be 5939
000001a0: ff4c 50b9 ecef 3fbc 064b 18b8 b814 51b9
000001b0: a9a0 1d3a c757 41bc b500 ecb9 9f92 ecb9
000001c0: 5b12 c938 466b 9139 e72e 5c39 4ec2 7f38
000001d0: 06dc b139 396f b0b8 2bf8 433c eb3b f138
000001e0: 42bf 55b8 8c89 8138 e0b0 5239 32db 433c
000001f0: 1d78 7b39 db46 28b9 b92e 8337 ec03 34b7
00000200: 7595 03bc 10e2 ce3b 895c 4536 5dd6 cf37
00000210: 6e78 4036 ebd4 7a37 a39a e436 4261 fc36
00000220: 2aa5 7035 ab29 043c ab22 043c 8553 043c
00000230: 7279 f135 358c 3fb6 f0e9 9bb4 0e49 04bc
00000240: e184 a5b6 7d51 043c 0d6c a533 2264 4a36
00000250: c23d ab36 6654 043c 843e 04bc 770b 36b6
00000260: 61d7 1e36 9679 3d37 95df de36 3fe8 3538
00000270: 2007 2037 bc27 043c 4c2e 04bc 164c 0436
00000280: 2c42 a835 9b02 ba35 2013 ed34 bea7 c5b5
00000290: 2ea9 ecb6 e83a 033c f1be 03bc c124 9536
000002a0: ed13 a4b8 13d0 033c 0d18 7eb7 db3a 07b7
000002b0: cdd1 0a37 36e9 033c 40a9 a1b7 72b0 08b7
000002c0: 4d67 71b5 481a 33b6 ebe9 3636 e36f 20b4
000002d0: be64 0937 8fbd 8eb5 2269 04bc f1c3 e5b5
000002e0: 3ba8 c0b5 d738 a1b6 a220 b136 f582 04bc
000002f0: 7756 e536 91b3 22b5 a85f 9c33 8413 1734
00000300: fdd8 f8bb 58f5 c13b 6e7c 5037 06ad 64b9
00000310: 3a59 06b9 aa65 4fb9 e11b 08b9 8ce3 cab8
00000320: d3a5 64b7 5db0 f83b be99 f83b b204 f93b
00000330: 8d64 3d38 9580 1137 635b 79b7 6587 f9bb
00000340: 7ce2 8337 8a30 f93b 768f 8cb7 e10d 23b6
00000350: 1cd1 7f38 b564 f93b 28c7 f9bb 7e46 3837
00000360: 7357 fcb7 79a2 9fb8 a225 84b8 dac6 8eb9
00000370: d82d 65b8 eb75 f93b 3b73 f9bb 931c f0b7
00000380: 95c8 c8b6 fcaa 93b7 f034 12b7 66c9 58b7
00000390: db32 3238 377a f83b 5327 f9bb 5592 a7b8
000003a0: ebf9 7538 0919 f73b 56df ed38 3b10 8f38
000003b0: 11b8 033a c7ef f73b 8e91 ea38 a45b 0e39
000003c0: fc2c 23b8 cc7a 19b8 517f a3b7 a13e 64b8
000003d0: 98b2 a7b8 f9d9 1338 a57f f9bb 188d fbb7
000003e0: c2b6 a837 e20d 3ab7 0b7c 06b8 9885 f9bb
000003f0: 6f18 66b8 e51f 1138 b0f2 00b7 8345 c136
