trained_models/MSIL_2d_problem500.pt (torch, 670325 bytes, 48 tensors)

hidden.weight f4 [64, 9, 3, 3]
000000 b6 88 23 b3 bb 69 38 b3 92 ce 01 b3 23 23 5c b3
       -3.8075733e-08 -4.2937e-08 -3.0223028e-08 -5.12547e-08
000010 a2 d5 ea b1 b7 f5 37 b3 52 d8 33 b3 dc cb 54 b3
       -6.8345836e-09 -4.2831484e-08 -4.1873427e-08 -4.9545505e-08
000020 84 16 1f b3 24 35 58 b0 24 ec ef b0 81 11 5e b0
       -3.704055e-08 -7.865586e-10 -1.7456654e-09 -8.0788004e-10
000030 c3 00 ed b0 b4 4a c7 b0 c3 5d f0 b0 cf 67 69 b0
       -1.7244236e-09 -1.4500388e-09 -1.7488947e-09 -8.4912427e-10
000040 19 b4 ed b0 35 a0 58 b0 30 13 a2 31 49 e5 af b0
       -1.7295206e-09 -7.880801e-10 4.717002e-09 -1.2798093e-09
000050 2d ea a8 31 d7 c4 b6 b0 5f df 8f 31 cc 0b ae b0
       4.916066e-09 -1.3298188e-09 4.187242e-09 -1.2663519e-09
000060 34 a6 98 31 c2 77 b5 b0 21 f7 a0 31 fb 2e 2d 2e
       4.4426773e-09 -1.320352e-09 4.684708e-09 3.9377373e-11
000070 9d 8a 53 b1 68 bd a1 af 4c 06 6a b1 16 7b 8f 2e
       -3.0783334e-09 -2.942031e-10 -3.405506e-09 6.5247516e-11
000080 33 4c 55 b1 41 d2 2a 30 ba ab 6a b1 7a 8d 53 2e
       -3.1038894e-09 6.214443e-10 -3.4149097e-09 4.8101502e-11
000090 d2 21 16 31 70 4e d5 b1 c6 6a 4b 30 5d 3a ce b1
       2.1847097e-09 -6.208033e-09 7.4002704e-10 -6.002024e-09
0000a0 b2 00 39 b1 34 23 d4 b1 b9 b9 87 31 91 04 cd b1
       -2.6921438e-09 -6.174014e-09 3.9501313e-09 -5.9668044e-09
0000b0 33 3c 3c 31 29 a3 1a 30 91 88 02 b1 4c 68 b4 30
       2.739182e-09 5.625674e-10 -1.8995119e-09 1.3126367e-09
0000c0 bd a5 b9 30 0e f6 ad 2f af 85 e8 b0 21 ff 1c 30
       1.3507627e-09 3.164335e-10 -1.6918217e-09 5.711503e-10
0000d0 2f 3c 21 b1 27 45 0a b1 59 cd 5d 31 b0 b6 a6 31
       -2.3462794e-09 -2.0120952e-09 3.227646e-09 4.852005e-09
0000e0 ec 67 85 31 5d e9 a4 31 84 9c 6b 30 43 05 a6 31
       3.882624e-09 4.7995585e-09 8.5714924e-10 4.831834e-09
0000f0 1a b5 6c 31 2b b2 a6 31 8b 32 7d 31 c4 63 ea b0
       3.4445464e-09 4.851491e-09 3.6845076e-09 -1.7054096e-09
000100 ed ea 5d 31 9b 3b cb b0 fc c2 8b 31 87 03 6f 31
       3.2293273e-09 -1.4787135e-09 4.0675996e-09 3.4781082e-09
000110 e4 e3 6a 31 e4 49 05 b1 28 4b 8e 31 b7 55 f1 b0
       3.4181022e-09 -1.939605e-09 4.141288e-09 -1.755942e-09
000120 2c 87 e5 30 07 7c e9 30 b8 2c b2 30 39 1d be 30
       1.6700361e-09 1.6988232e-09 1.2963914e-09 1.3832625e-09
000130 89 13 d5 b0 ad 5e e4 30 21 24 0c 31 03 ff b8 30
       -1.5503342e-09 1.6616092e-09 2.0393218e-09 1.3460241e-09
000140 70 c3 ef 30 fe 82 9c af 42 39 aa af e7 36 aa af
       1.7445085e-09 -2.846931e-10 -3.0963504e-10 -3.096183e-10
000150 d8 f3 41 af a4 7e 19 b0 ca bd 91 af 7a 63 16 af
       -1.7639878e-10 -5.5841043e-10 -2.65102e-10 -1.3677762e-10
000160 7e ff 37 af a3 d1 61 af cd 8b fb ad 6d df 0c ae
       -1.6734522e-10 -2.0538109e-10 -2.859748e-11 -3.2030757e-11
000170 b7 36 f9 ad 05 bf 0c ae fd e8 18 ae dc 58 0c ae
       -2.833232e-11 -3.2001974e-11 -3.4767734e-11 -3.1911238e-11
000180 62 26 f6 ad be 0a 0c ae e4 53 f4 ad 9c 83 31 2e
       -2.7984007e-11 -3.1841856e-11 -2.7776843e-11 4.0362033e-11
000190 63 de 4f 2d ff 69 37 2e 4f 66 31 2d dc a3 30 ac
       1.18159675e-11 4.1703526e-11 1.0084002e-11 -2.5102065e-12
0001a0 79 a6 79 2d 63 e4 2f 2e a3 40 59 2d c8 3f 38 2e
       1.4190976e-11 3.999324e-11 1.2349374e-11 4.1893405e-11
0001b0 fa a9 6e 2d 2c 59 45 2d 8d 58 76 2d 9d 6d 5f 2d
       1.3566476e-11 1.1217954e-11 1.4003143e-11 1.27004214e-11
0001c0 32 44 24 2d 64 78 5d 2d d3 d5 8f 2d 5f be 75 2d
       9.337463e-12 1.2589128e-11 1.6352175e-11 1.39689085e-11
0001d0 b3 4b 8d 2d c3 57 08 2e db 0e 80 ac f8 14 1f 2e
       1.6063461e-11 3.1000768e-11 -3.639628e-12 3.617104e-11
0001e0 73 2c 05 ad 41 56 31 ae bf aa bb aa 3e 4c bf 2d
       -7.570044e-12 -4.032175e-11 -3.3336352e-13 2.1748044e-11
0001f0 11 54 bd ac 2f 72 f5 2d 71 7c a9 2d ce 09 a9 2d
       -5.3810363e-12 2.7903983e-11 1.9268339e-11 1.921743e-11
000200 31 62 92 2d aa 5c bb 2d 6d 4f ab 2d be d7 a8 2d
       1.6641884e-11 2.130059e-11 1.9475721e-11 1.9195198e-11
000210 e5 0b ad 2d ed 99 b5 2d 39 02 a2 2d 23 a8 ec ad
       1.9673105e-11 2.0645674e-11 1.8418255e-11 -2.6904761e-11
000220 b9 7f eb ae bc cb cf ad 3c 9b f7 ae d0 3e 48 ae
       -1.0709251e-10 -2.3623652e-11 -1.1259835e-10 -4.5530524e-11
000230 73 91 ec ae b4 b9 0c ae 1c d4 fc ae 4b 1c 07 ae
       -1.07578745e-10 -3.1997252e-11 -1.14973114e-10 -3.0720575e-11
000240 98 01 0e ae 1d 51 d0 ad 1e 0a 0c ae 1e 3b d5 ad
       -3.2288477e-11 -2.3682884e-11 -3.18413e-11 -2.424155e-11
000250 b1 d2 a0 ad 7f 17 c2 ad 04 ce 0e ae 3a 0d c4 ad
       -1.828346e-11 -2.2065681e-11 -3.247004e-11 -2.2288494e-11
000260 f3 2b 0f ae cf df 45 2d 86 d9 75 2d 7f e4 58 2d
       -3.255347e-11 1.1247849e-11 1.39749375e-11 1.2328915e-11
000270 79 c8 65 2d 0d 1e 06 2d 4b 4b 80 2d a7 f8 4c 2d
       1.3061657e-11 7.623691e-12 1.4585352e-11 1.1651269e-11
000280 64 0a 78 2d 45 44 5b 2d 34 29 dc af 20 b4 79 ae
       1.4099475e-11 1.2463868e-11 -4.0047043e-10 -5.677603e-11
000290 42 b7 c9 af 53 d2 c7 ae 7b 4b a2 af f0 82 fa ae
       -3.66919e-10 -9.0868334e-11 -2.952126e-10 -1.1391943e-10
0002a0 ea e1 fa af 75 0c 14 af 57 dc 01 b0 03 c8 9b ad
       -4.5635257e-10 -1.3464947e-10 -4.724305e-10 -1.7710283e-11
0002b0 f8 0c 35 ac 63 de 39 ac 7e bc 2a ac 67 55 8e ad
       -2.5728846e-12 -2.641353e-12 -2.4263087e-12 -1.6181457e-11
0002c0 42 61 18 ac 03 76 ef ad 6d 0a 45 ac f8 da be ad
       -2.1654488e-12 -2.7223562e-11 -2.8001171e-12 -2.169774e-11
0002d0 53 14 76 2d 7d 83 10 2d 00 99 96 2d ad db 32 2d
       1.3987994e-11 8.214649e-12 1.7120971e-11 1.0166906e-11
0002e0 c7 09 f4 ab f8 3c 25 2d 04 37 8d 2d 3d 6a 41 2d
       -1.7339957e-12 9.392702e-12 1.6054276e-11 1.09943695e-11
0002f0 a9 7a 88 2d 53 98 c2 2d f2 52 dc 2c 76 d1 8c ac
       1.5515882e-11 2.2122892e-11 6.261985e-12 -4.002294e-12
000300 56 e2 cb 2d 07 97 07 ad 0a 7a 98 2d b3 ae f7 2c
       2.3178941e-11 -7.707396e-12 1.7334596e-11 7.0395577e-12
000310 29 95 97 2d 41 31 8c 2d 25 5c 14 ae bc c8 17 ae
       1.7232953e-11 1.593803e-11 -3.3733145e-11 -3.4511713e-11
000320 b9 f3 0b ae 5c d3 16 ae bd aa 04 ae 74 54 18 ae
       -3.182141e-11 -3.4293776e-11 -3.016497e-11 -3.4635808e-11
000330 23 54 17 ae f5 a7 18 ae 31 2b 13 ae fa 89 c4 2c
       -3.4408153e-11 -3.4709974e-11 -3.3462292e-11 5.5859735e-12
000340 bc dc 5b 2d 5b fe 09 2d 43 90 57 2d 11 51 26 2d
       1.2497722e-11 7.844027e-12 1.2253368e-11 9.454008e-12
000350 4d 06 fc 2c 11 88 63 2d 30 7b 18 2d 4f 45 74 2d
       7.1629703e-12 1.2933669e-11 8.667553e-12 1.3885184e-11
000360 51 43 06 2d ae e3 81 ac 7d ba 26 2d cf d1 ba ab
       7.631965e-12 -3.691678e-12 9.477416e-12 -1.3274328e-12
000370 77 e4 e9 ad a2 4d 1b ac 04 b3 02 2d e7 ce a4 ab
       -2.6590492e-11 -2.206992e-12 7.429394e-12 -1.1710328e-12
000380 ae cb 12 2d 0f db 52 ad d8 6a cd ad 0a 90 62 ad
       8.344365e-12 -1.1985759e-11 -2.335325e-11 -1.2878596e-11
000390 07 b8 d4 ad 6e 95 71 ad 5e e1 c8 ad 44 54 2c ad
       -2.4183334e-11 -1.3732444e-11 -2.283745e-11 -9.795779e-12
0003a0 11 e6 d2 ad 95 07 3f ad 71 0e f5 aa 5a 1a 02 ad
       -2.3976406e-11 -1.08587766e-11 -4.3530763e-13 -7.395496e-12
0003b0 43 94 41 2c c1 e0 b2 ad f5 25 c7 ac e4 9e 5f ad
       2.7509251e-12 -2.0336068e-11 -5.6601343e-12 -1.2711363e-11
0003c0 93 91 b9 ac 27 a5 d5 ad 8e f9 dc ab 8a f6 67 b3
       -5.2741782e-12 -2.4288639e-11 -1.5701206e-12 -5.4008105e-08
0003d0 5a 6e 96 b2 66 89 54 b3 ba a5 d8 b2 9f 92 94 33
       -1.751248e-08 -4.948506e-08 -2.5221073e-08 6.918457e-08
0003e0 7b 16 18 b2 a6 14 5e b3 2e c4 5c b2 36 e6 49 b3
       -8.852676e-09 -5.1707183e-08 -1.28502915e-08 -4.7008335e-08
0003f0 4c 7e b0 b0 32 d8 85 30 56 a7 bb b0 8b 79 d6 2e
       -1.2841581e-09 9.73847e-10 -1.36536e-09 9.753184e-11

hidden.bias f4 [64]
000000 37 95 f0 b3 56 7b 32 b1 5a b2 c6 b0 f0 87 74 b4
       -1.1203013e-07 -2.5972517e-09 -1.4457087e-09 -2.2773725e-07
000010 26 18 4a b7 8c 0d 30 b4 8e 4d 1e b1 3d 85 1a 37
       -1.2045761e-05 -1.6396206e-07 -2.303611e-09 9.210137e-06
000020 9a 59 da 30 76 0a 0e b1 6e 13 38 36 cb 28 21 37
       1.5887054e-09 -2.0669666e-09 2.7429446e-06 9.605846e-06
000030 e6 13 fd 30 12 02 57 b4 6e 0c f1 35 b1 0e 2d 37
       1.8413828e-09 -2.0024189e-07 1.7959517e-06 1.0315024e-05
000040 c7 7c 17 b5 a0 10 86 35 a3 ad 02 b0 2a 5d 9f 36
       -5.643346e-07 9.988617e-07 -4.7540477e-10 4.749415e-06
000050 43 83 80 b0 e6 9e ff 30 e4 4e 46 33 cf d0 40 36
       -9.350533e-10 1.8598854e-09 4.6172218e-08 2.8731772e-06
000060 ad 61 f2 35 ee 4d b9 af 26 ad 30 b2 26 b1 b0 33
       1.8058832e-06 -3.3706676e-10 -1.0283918e-08 8.227862e-08
000070 d6 66 ff 31 35 d3 4f 35 d4 44 c2 b0 d9 3f 96 ae
       7.433168e-09 7.7420856e-07 -1.413492e-09 -6.832552e-11
000080 b0 e2 2e 2e 41 2d 1a b1 a7 5a f9 2f 30 d2 62 af
       3.976436e-11 -2.2435673e-09 4.5357249e-10 -2.0629254e-10
000090 da 79 81 33 0d 5a 3f 30 3b 51 5d 32 2d 25 2a 30
       6.029195e-08 6.9613365e-10 1.2882363e-08 6.189847e-10
0000a0 9e a9 97 34 3b 52 46 33 ba 50 75 b7 d9 58 73 32
       2.8249355e-07 4.6175256e-08 -1.4621934e-05 1.4164663e-08
0000b0 a2 a6 13 2f cd 66 9c 30 10 57 ad 2f 6f 60 09 34
       1.3428772e-10 1.1379712e-09 3.1530378e-10 1.2794202e-07
0000c0 57 17 77 31 47 19 b7 b4 53 fe 22 ae e8 2e f0 36
       3.5956498e-09 -3.4104798e-07 -3.706042e-11 7.158018e-06
0000d0 00 ab 7f 33 fd 7e 62 32 ce d3 5d ae 46 f7 11 b0
       5.9527338e-08 1.3183805e-08 -5.0437703e-11 -5.310209e-10
0000e0 87 74 0a b0 10 24 35 ae a9 a2 21 af 43 f9 9a b0
       -5.0369703e-10 -4.1186665e-11 -1.4700653e-10 -1.1275819e-09
0000f0 73 48 58 b7 8c 10 d5 af ac 62 61 31 8e b6 17 b5
       -1.2891472e-05 -3.8756232e-10 3.2797898e-09 -5.6517536e-07

h0.weight f4 [64, 64, 3, 3]
000000 42 5d 88 33 3e fd e7 32 c2 d6 87 33 87 2d e6 32
       6.349957e-08 2.70071e-08 6.3254916e-08 2.6796227e-08
000010 d8 66 7e 31 c7 2f ef 32 ae 86 82 33 5a af e6 32
       3.7020325e-09 2.7844989e-08 6.078095e-08 2.6855265e-08
000020 85 ac 83 33 ad c9 38 30 95 1c 20 30 9a 0b 3a 30
       6.131544e-08 6.722541e-10 5.824828e-10 6.768289e-10
000030 2f 01 1c 30 2b 92 98 2f 47 8a 1a 30 c0 bc 38 30
       5.675415e-10 2.7752498e-10 5.622138e-10 6.720704e-10
000040 31 2e 17 30 ad a8 35 30 ae d5 1f 2f db 7a 99 2e
       5.499912e-10 6.608712e-10 1.453688e-10 6.979458e-11
000050 8c ae 1d 2f 29 9c 9c 2e 28 0f 94 2e 52 7f a0 2e
       1.4341078e-10 7.121798e-11 6.732953e-11 7.298574e-11
000060 31 46 0a 2f 15 ec be 2e 5d 17 15 2f ff 1d a3 32
       1.2575964e-10 8.682136e-11 1.3559771e-10 1.8989338e-08
000070 38 88 6d 33 9e 88 a9 32 07 0d 70 33 31 fd e2 32
       5.5304753e-08 1.9736316e-08 5.5891203e-08 2.6425e-08
000080 26 c1 73 33 42 e9 c1 32 91 dd 77 33 9b ee bf 32
       5.6753514e-08 2.257423e-08 5.7710682e-08 2.2343832e-08
000090 de e1 18 b6 34 d4 58 b6 fc b9 17 b6 c5 e3 58 b6
       -2.2781237e-06 -3.2310027e-06 -2.260901e-06 -3.2319087e-06
0000a0 6b 45 e0 b5 a5 91 58 b6 11 9d 2f b6 3c 8a 52 b6
       -1.6709504e-06 -3.2271284e-06 -2.6168457e-06 -3.1372902e-06
0000b0 41 ae 27 b6 15 45 bd b4 c4 62 b6 b4 73 14 c0 b4
       -2.4986368e-06 -3.5254257e-07 -3.3972003e-07 -3.5777666e-07
0000c0 04 81 b6 b4 92 5b 2b b4 f8 26 b5 b4 5e bf bc b4
       -3.3994013e-07 -1.5958929e-07 -3.374223e-07 -3.5156967e-07
0000d0 85 b2 b2 b4 56 d5 bc b4 96 27 1c 30 1f bf 74 b1
       -3.3284974e-07 -3.517295e-07 5.6808724e-10 -3.5615313e-09
0000e0 88 21 09 30 6d da 76 b1 c3 9a 6a b1 7d 78 74 b1
       4.988796e-10 -3.5921872e-09 -3.4139453e-09 -3.5575163e-09
0000f0 d9 24 8f 2f 52 ee 79 b1 1b 24 ab 2f 33 27 7e 35
       2.603773e-10 -3.6369738e-09 3.1130373e-10 9.4679416e-07
000100 d5 58 1c 36 c8 b8 89 35 ae 14 1d 36 8e aa e3 35
       2.3297519e-06 1.0261074e-06 2.340686e-06 1.6962456e-06
000110 f0 cf 1b 36 1c 99 99 35 a5 9b 1b 36 c9 56 8f 35
       2.3217835e-06 1.1443949e-06 2.3187397e-06 1.0679588e-06
000120 2e a7 4c b0 42 d9 42 b0 ea 55 56 b0 71 59 3c b0
       -7.4452344e-10 -7.088553e-10 -7.797484e-10 -6.8521105e-10
000130 a7 c0 bb af 05 5f 3a b0 3d 9c 5d b0 be b6 31 b0
       -3.415199e-10 -6.7801437e-10 -8.062136e-10 -6.4651917e-10
000140 f1 43 5b b0 76 9c 53 30 5d e3 84 30 74 e1 60 30
       -7.9768286e-10 7.6983697e-10 9.668885e-10 8.1811113e-10
000150 0f 62 82 30 e4 0e 4b 30 f3 c2 84 30 2e f3 63 30
       9.486615e-10 7.387213e-10 9.659672e-10 8.29277e-10
000160 bb 87 81 30 3d e2 65 30 c4 ae 79 34 ed 7e f9 35
       9.424562e-10 8.363122e-10 2.3253511e-07 1.8588886e-06
000170 b3 81 8c 34 04 59 fa 35 7e fc 8b 35 75 5b f8 35
       2.61714e-07 1.8652358e-06 1.0429792e-06 1.8504057e-06
000180 52 0c cf 34 30 e9 f7 35 01 bc b7 34 97 6f d1 35
       3.856572e-07 1.8470801e-06 3.4223197e-07 1.560419e-06
000190 55 ae 76 36 45 8f c9 35 cb 4b 79 36 f0 4d 68 36
       3.675833e-06 1.5017364e-06 3.7148009e-06 3.461606e-06
0001a0 8d 93 77 36 3b 4c fd 35 ef 37 79 36 65 1f ef 35
       3.6891754e-06 1.8872155e-06 3.713645e-06 1.7816025e-06
0001b0 87 73 36 b0 4f eb 24 b0 a4 aa 39 b0 b9 81 23 b0
       -6.637539e-10 -5.9997246e-10 -6.7545103e-10 -5.94834e-10
0001c0 87 d5 12 b0 88 77 24 b0 75 c9 35 b0 34 fe 24 b0
       -5.341793e-10 -5.9832717e-10 -6.6133704e-10 -6.0024097e-10
0001d0 0e 11 3a b0 c3 0e 19 33 89 6c 5d 33 40 77 28 33
       -6.769064e-10 3.5636514e-08 5.1554284e-08 3.9224005e-08
0001e0 6b c4 60 33 da cb 69 33 0f 71 65 33 92 09 2f 33
       5.2332705e-08 5.4434942e-08 5.3421044e-08 4.0754067e-08
0001f0 bf 63 62 33 8f 8f 28 33 33 10 28 34 9e 0f 9d 33
       5.2710444e-08 3.9246114e-08 1.5652112e-07 7.313723e-08
000200 ad 65 23 34 96 7b 72 33 f6 b8 3d b4 87 d4 88 33
       1.5217547e-07 5.6457417e-08 -1.7669285e-07 6.371652e-08
000210 cf 3d 1b 34 98 28 06 33 cf 37 0e 34 7d df 07 36
       1.4457986e-07 3.1236226e-08 1.3245084e-07 2.0246655e-06
000220 9c 4e 32 36 06 7d 02 36 15 94 32 36 47 30 e0 35
       2.6569824e-06 1.9444283e-06 2.6610262e-06 1.6703351e-06
000230 e8 52 32 36 85 2e 17 36 11 6a 2e 36 c6 e2 10 36
       2.6572325e-06 2.2527831e-06 2.598976e-06 2.1589672e-06
000240 83 4b d2 33 0d 96 59 34 b3 20 e9 33 9d a6 5b 34
       9.7926225e-08 2.0264288e-07 1.0855856e-07 2.0456578e-07
000250 7b 66 c0 33 18 af 59 34 2b 57 fd 33 e6 6a 59 34
       8.959338e-08 2.0273399e-07 1.1797086e-07 2.024859e-07
000260 a9 76 02 34 49 56 c0 34 18 d8 88 b3 28 d5 b9 34
       1.2150362e-07 3.5825568e-07 -6.372301e-08 3.4614027e-07
000270 50 6e 98 b3 d5 31 80 b3 9f b8 a1 b3 7b ad a6 34
       -7.098117e-08 -5.969529e-08 -7.530729e-08 3.1046133e-07
000280 d8 8a 9f b3 78 fe b1 34 4b c0 f5 2e f3 b5 a9 2e
       -7.42927e-08 3.315397e-07 1.1175468e-10 7.717551e-11
000290 91 a7 fa 2e 4a 38 a7 2e 1f 49 c3 2e 28 03 a6 2e
       1.13984495e-10 7.60428e-11 8.880562e-11 7.549367e-11
0002a0 4e 0d ee 2e 52 ea a9 2e 09 5f f7 2e 81 6b 45 32
       1.082535e-10 7.726854e-11 1.1249141e-10 1.1491353e-08
0002b0 34 22 bc 35 fd 3e 96 33 0d 1c bd 35 a7 29 f0 35
       1.4017046e-06 6.996377e-08 1.4089761e-06 1.7893516e-06
0002c0 52 3b be 35 a8 73 01 34 ed 8a c2 35 8c 69 00 34
       1.4173368e-06 1.2056137e-07 1.4494559e-06 1.1959327e-07
0002d0 a6 d7 94 ae f1 ec a1 2e 28 4a 6a ae c0 76 0c 2f
       -6.7685677e-11 7.3635216e-11 -5.3271304e-11 1.2775114e-10
0002e0 b5 2a 0c 30 b5 5b e7 2e 08 9f fe ae 0f ea 44 2f
       5.0992394e-10 1.0520954e-10 -1.1578832e-10 1.790925e-10
0002f0 20 b6 a6 ae 9e e8 84 b0 4a 42 72 b0 b4 83 85 b0
       -7.581158e-11 -9.670378e-10 -8.813329e-10 -9.714456e-10
000300 9e fe 71 b0 d7 3c 5a b0 63 36 71 b0 b4 52 83 b0
       -8.803712e-10 -7.9394397e-10 -8.775258e-10 -9.55501e-10
000310 45 97 72 b0 f2 d0 83 b0 76 0d ba b2 e0 ef 5a b2
       -8.8254054e-10 -9.59089e-10 -2.1659371e-08 -1.2743811e-08
000320 8b 44 bb b2 5f 49 59 b2 6d 18 8b b1 e3 53 61 b2
       -2.1800835e-08 -1.2647745e-08 -4.0482093e-09 -1.3115797e-08
000330 03 54 b4 b2 6c 37 5b b2 58 73 b5 b2 b2 c6 b9 35
       -2.0992962e-08 -1.2760079e-08 -2.1123626e-08 1.3841402e-06
000340 25 3e 05 b5 c7 19 b0 35 92 ac 11 b5 c0 76 b3 b4
       -4.9636793e-07 1.3120524e-06 -5.426783e-07 -3.342775e-07
000350 36 b9 1e b5 d0 03 a5 35 83 de 20 b5 e3 35 a4 35
       -5.9129104e-07 1.2294568e-06 -5.992844e-07 1.2234635e-06
000360 8c c4 43 b5 fe 6c ec b4 1f 8b 43 b5 da d4 ed b4
       -7.2929174e-07 -4.4037728e-07 -7.284561e-07 -4.429956e-07
000370 0c d2 97 b4 8e 35 f4 b4 f3 c8 39 b5 18 0a f4 b4
       -2.827877e-07 -4.5487508e-07 -6.921029e-07 -4.5455886e-07
000380 07 98 3d b5 e8 10 3d af 77 83 53 af d3 78 3e af
       -7.0629216e-07 -1.7195456e-10 -1.9237044e-10 -1.7323325e-10
000390 b5 d2 46 af dd 14 af af 30 dd 54 af 1d 6e 2e af
       -1.8082853e-10 -3.184714e-10 -1.9359869e-10 -1.5864328e-10
0003a0 24 7d 4b af 37 1c 2f af 0c 16 f6 30 a2 89 9d 30
       -1.8507201e-10 -1.5926181e-10 1.7905122e-09 1.1462371e-09
0003b0 79 c8 ff 30 fe cc 9e 30 c5 48 0f 31 df 62 a6 30
       1.861067e-09 1.1554275e-09 2.0850603e-09 1.210619e-09
0003c0 6c cb f5 30 66 b7 a1 30 51 8d fe 30 d9 25 8b b1
       1.7883912e-09 1.1766417e-09 1.8521097e-09 -4.049735e-09
0003d0 7c 0c 32 b2 37 b4 82 b1 40 09 35 b2 88 83 1c b2
       -1.0363802e-08 -3.803986e-09 -1.053769e-08 -9.110302e-09
0003e0 20 f7 3c b2 83 94 da b1 28 fd 30 b2 cb 56 ae b1
       -1.099923e-08 -6.361519e-09 -1.0302109e-08 -5.0739337e-09
0003f0 01 6a 64 b1 69 61 6c b1 19 2f 6a b1 d9 11 69 b1
       -3.3238623e-09 -3.4397891e-09 -3.4078254e-09 -3.3916108e-09

h0.bias f4 [64]
000000 69 f7 5e 3c 3c 7c 3f bc b5 71 85 37 82 70 e9 b7
       0.013608792 -0.011687335 1.5907784e-05 -2.7828155e-05
000010 87 a2 61 b8 bf 69 5e b8 52 5c 40 b8 7d 11 65 b8
       -5.3795546e-05 -5.302741e-05 -4.5862347e-05 -5.4614142e-05
000020 5d 2d 38 b7 59 f8 31 bc fd de 46 bc 76 d8 56 bc
       -1.0977817e-05 -0.010862433 -0.0121381255 -0.013113132
000030 44 72 14 b7 9c 9e 8d b7 f6 bd 88 37 2a a1 63 3c
       -8.848092e-06 -1.6882368e-05 1.630092e-05 0.013893405
000040 db 7a 78 37 17 fd 57 bc fa 74 98 b8 a5 89 01 3c
       1.4810556e-05 -0.0131829 -7.2697134e-05 0.007906352
000050 d7 19 4f 38 37 4c 22 bc ef d1 48 3c 9f 37 1a b7
       4.937671e-05 -0.009905866 0.012257083 -9.192066e-06
000060 af 99 15 b5 31 e3 6a 38 b5 62 d3 b5 82 34 cc 3b
       -5.5730465e-07 5.6001536e-05 -1.5749453e-06 0.0062318454
000070 17 bd c8 37 f9 a7 4d bc ba 96 1e 3c 6b 7e 2b b6
       2.392991e-05 -0.012552255 0.009679491 -2.555457e-06
000080 74 83 a2 b7 6e f9 8d b7 d8 40 84 38 a7 75 8d b8
       -1.9373118e-05 -1.692466e-05 6.3063286e-05 -6.7453184e-05
000090 5b 4f 32 b7 8e d0 47 bc 51 2e 2f 3c 14 b0 02 b8
       -1.0628103e-05 -0.012195719 0.010692195 -3.11584e-05
0000a0 ad 5a 91 36 9f 2c 3f bc bc 68 5d 37 7e a1 8a 33
       4.331893e-06 -0.011668353 1.3197012e-05 6.455501e-08
0000b0 24 1d b7 37 da b9 43 bc 76 f2 15 3c 4c 79 bc 37
       2.182887e-05 -0.011946166 0.0091520455 2.246783e-05
0000c0 a4 f5 2d 38 e8 06 0b ba c7 ec b8 37 80 dc a4 b7
       4.1475185e-05 -0.00053034583 2.2044767e-05 -1.9653002e-05
0000d0 43 56 14 b8 07 47 31 37 34 f0 59 3c 60 57 06 38
       -3.5366287e-05 1.05665595e-05 0.013301898 3.2029464e-05
0000e0 78 da 1f bb e5 46 01 b8 db 95 cc b7 a5 2f 2e 3c
       -0.0024391692 -3.0822022e-05 -2.4388477e-05 0.0106314765
0000f0 af 8b ce b7 83 da 47 38 fd 76 3c 38 f0 dc f0 b5
       -2.4622159e-05 4.7648802e-05 4.493351e-05 -1.7945695e-06

c0.weight f4 [64, 64, 3, 3]
000000 fa 2e 07 b2 59 da b5 b2 99 d4 30 b2 86 54 ce b2
       -7.8687155e-09 -2.1170466e-08 -1.0292887e-08 -2.4019993e-08
000010 84 f2 b6 af 0f ab d3 b2 31 62 d2 b1 df 7b c7 b2
       -3.3277925e-10 -2.4641421e-08 -6.1229675e-09 -2.3222979e-08
000020 39 09 f9 b1 e7 d9 33 30 bc a2 9e 2f 2d c1 32 30
       -7.2479023e-09 6.542948e-10 2.8855662e-10 6.503054e-10
000030 f5 c2 9a 2f f1 4e 4e 30 93 c9 9e 2f 84 be 2f 30
       2.8150962e-10 7.5054546e-10 2.888326e-10 6.393537e-10
000040 1c 16 a1 2f 89 47 33 30 ce d2 37 2f 08 9e d9 2f
       2.930144e-10 6.522148e-10 1.6718646e-10 3.9584358e-10
000050 41 af 34 2f 7b a8 e6 2f 0f de 4c 2f 71 c1 dd 2f
       1.6433167e-10 4.195647e-10 1.8632583e-10 4.0337114e-10
000060 8c 97 03 2f d9 25 ea 2f aa 01 21 2f a0 e8 12 32
       1.1968221e-10 4.2591244e-10 1.4643456e-10 8.551211e-09
000070 83 7f fd 31 19 06 13 32 7a 25 01 32 ed c7 84 b1
       7.3777655e-09 8.557913e-09 7.517309e-09 -3.8644346e-09
000080 4b 59 e8 31 11 1e 14 32 08 d5 ea 31 9b f2 12 32
       6.76224e-09 8.62157e-09 6.834515e-09 8.553481e-09
000090 96 2c d3 35 17 e5 ee 35 e8 52 d7 35 44 7a ec 35
       1.5733701e-06 1.7799056e-06 1.6042877e-06 1.7618954e-06
0000a0 7d 92 68 35 0f bd f0 35 78 3f e3 35 bc 8e ec 35
       8.6639903e-07 1.7936417e-06 1.693129e-06 1.7624911e-06
0000b0 56 8f de 35 b3 5e 90 b1 de d2 ba b3 2a 89 1a b1
       1.6582005e-06 -4.2017176e-09 -8.6996565e-08 -2.2487918e-09
0000c0 92 0d bf b3 f1 0a 3e b4 48 d5 bd b3 0c 5d 36 b2
       -8.896599e-08 -1.769911e-07 -8.839794e-08 -1.0614951e-08
0000d0 6e 9e c8 b3 6e eb 41 b2 4e 37 41 30 dd 25 00 31
       -9.342044e-08 -1.1287609e-08 7.0291584e-10 1.8647974e-09
0000e0 fe 35 4b 30 91 e7 fd 30 d6 d5 00 31 a8 c1 00 31
       7.39277e-10 1.8473988e-09 1.8748003e-09 1.8736532e-09
0000f0 c2 71 51 30 6b da 01 31 db 27 52 30 98 68 be b5
       7.6195417e-10 1.8896127e-09 7.6454193e-10 -1.4186544e-06
000100 4a 39 8e b5 c2 ad c3 b5 11 ef 8b b5 05 76 37 b5
       -1.0596498e-06 -1.4579202e-06 -1.0425885e-06 -6.8344553e-07
000110 83 f1 8c b5 b0 b2 c5 b5 76 2f 8a b5 ec 93 c5 b5
       -1.0501102e-06 -1.4729649e-06 -1.0295614e-06 -1.4720695e-06
000120 c3 61 09 b0 da 58 6e af b4 40 01 b0 c1 6f 5a af
       -4.997924e-10 -2.167754e-10 -4.7021875e-10 -1.9866687e-10
000130 ba 18 ab af 00 49 5e af 70 56 f0 af 20 54 57 af
       -3.1122288e-10 -2.0216717e-10 -4.3717163e-10 -1.9584023e-10
000140 33 72 f6 af 90 3e 01 2f 33 21 74 af 80 ea ce 2e
       -4.4828283e-10 1.1754708e-10 -2.2203465e-10 9.409451e-11
000150 35 d0 83 af d5 1c 99 af a7 52 8a af 78 e1 8d 2e
       -2.39767e-10 -2.7851024e-10 -2.5160782e-10 6.451989e-11
000160 d3 30 8d af 19 ae 9c 2e 38 8d 61 b5 53 4e 8c b5
       -2.5682442e-10 7.1249846e-11 -8.402453e-07 -1.0453608e-06
000170 78 09 7d b5 95 18 94 b5 94 cb 9c b5 8a ac 91 b5
       -9.4263623e-07 -1.1034014e-06 -1.1682155e-06 -1.0853557e-06
000180 5c ec 7c b5 90 d6 98 b5 5a 94 82 b5 d0 f8 d8 b5
       -9.4221264e-07 -1.1387328e-06 -9.728931e-07 -1.6165668e-06
000190 15 77 0f b6 8f 26 df b5 c3 60 0f b6 3d 8f be b5
       -2.1377975e-06 -1.6626017e-06 -2.1364983e-06 -1.4197791e-06
0001a0 d2 ad 0f b6 f4 78 de b5 ae 61 0e b6 16 6e df b5
       -2.1409837e-06 -1.6575491e-06 -2.1216506e-06 -1.6646834e-06
0001b0 4a 0d 00 2f 57 3f 88 2e d4 4f f6 2e a6 8f 5f 2e
       1.1646253e-10 6.1958154e-11 1.1200965e-10 5.0831915e-11
0001c0 9d 2d eb ae a6 2e 41 2e bd 93 e5 2e a9 26 e5 2d
       -1.0694665e-10 4.392455e-11 1.0439958e-10 2.6051454e-11
0001d0 ba d4 db 2e cf dd ea 32 07 7d f5 32 17 c7 04 33
       9.996755e-11 2.7342052e-08 2.857861e-08 3.0914716e-08
0001e0 ad 1f ca 32 50 f6 c7 b1 94 a1 c8 32 6f 1b 15 33
       2.35303e-08 -5.8196648e-09 2.3356542e-08 3.4716717e-08
0001f0 35 c0 99 32 b7 be 12 33 6d 0d 01 b4 9b cc bd 32
       1.789895e-08 3.4166728e-08 -1.2018945e-07 2.209554e-08
000200 76 5c 0c b4 b9 ad 0f 33 24 64 e3 b2 0e 7b 03 33
       -1.3072153e-07 3.3452782e-08 -2.6471817e-08 3.0612732e-08
000210 37 d7 04 b4 f6 12 36 33 00 c3 08 b4 fd c0 cd b5
       -1.2371753e-07 4.2392422e-08 -1.2736928e-07 -1.5329857e-06
000220 db bb df b5 23 65 ce b5 4b ed dc b5 fd 3a 8f b5
       -1.6669468e-06 -1.5377631e-06 -1.6460339e-06 -1.0671498e-06
000230 a1 a4 df b5 01 37 d4 b5 a6 98 d9 b5 e0 b4 d1 b5
       -1.6662708e-06 -1.5811239e-06 -1.6212186e-06 -1.5624355e-06
000240 7c e2 c2 33 03 b1 19 b3 8c dc d1 33 76 78 02 b3
       9.075026e-08 -3.578408e-08 9.772438e-08 -3.0377542e-08
000250 8a 21 0d b3 14 4d 0a b3 63 57 00 34 55 d5 d4 b2
       -3.2859624e-08 -3.220073e-08 1.195272e-07 -2.477706e-08
000260 ce 24 f9 33 0c 35 90 b2 5e 80 14 b3 7a 63 d3 b2
       1.1601661e-07 -1.678793e-08 -3.4575685e-08 -2.460887e-08
000270 e1 51 19 b3 2d 14 70 31 4b 6a 2e b3 4c 41 1d b2
       -3.5697557e-08 3.4936065e-09 -4.0609205e-08 -9.1534496e-09
000280 25 90 04 b3 57 c0 20 b2 8f 32 72 2e ab 9c a3 2e
       -3.0864744e-08 -9.356959e-09 5.5069335e-11 7.4402116e-11
000290 8d 8f 7c 2e fa 15 a5 2e 37 4c c3 2e b6 36 a9 2e
       5.7425665e-11 7.507235e-11 8.881112e-11 7.694949e-11
0002a0 57 34 80 2e bf 72 ac 2e 44 71 84 2e ad 69 2a b5
       5.8300635e-11 7.8420374e-11 6.022785e-11 -6.3483714e-07
0002b0 67 56 46 b5 b4 41 34 b5 f6 21 43 b5 23 dc 14 b5
       -7.388648e-07 -6.7150836e-07 -7.269258e-07 -5.545464e-07
0002c0 b6 b4 44 b5 06 a6 4e b5 aa 2c 41 b5 02 d5 47 b5
       -7.327866e-07 -7.6982576e-07 -7.19631e-07 -7.4443244e-07
0002d0 b4 35 10 2f f9 0c 8b 2f cf 7f 00 2f d2 6f 50 2f
       1.3115803e-10 2.529317e-10 1.1686939e-10 1.8957216e-10
0002e0 3d d8 08 b0 a6 37 83 2f b5 07 52 2f fd d4 1a 2f
       -4.9783805e-10 2.3868302e-10 1.9102127e-10 1.4081887e-10
0002f0 c5 bc 03 2f ae b4 6c 2f 2a f4 90 2f 38 44 80 2f
       1.1981445e-10 2.1528265e-10 2.6366936e-10 2.3331537e-10
000300 e6 be 80 2f f8 4a 6e af 68 f3 84 2f 94 5b 8f 2f
       2.3418706e-10 -2.1672608e-10 2.418361e-10 2.607662e-10
000310 54 31 60 2f af 29 8d 2f d1 df aa 31 cb 94 33 32
       2.0390206e-10 2.5677369e-10 4.973096e-09 1.0453003e-08
000320 b9 31 97 31 e0 40 11 32 5c e5 9b 31 0d 03 0c 32
       4.400331e-09 8.454862e-09 4.537169e-09 8.149766e-09
000330 a5 3c 6b af da 51 ae 31 97 54 49 2f a8 90 5e 34
       -2.1394671e-10 5.073372e-09 1.8310896e-10 2.0727987e-07
000340 e2 ec 1d b4 99 1a 51 34 0e 3d 44 b4 7b 45 5a 32
       -1.4707942e-07 1.9474318e-07 -1.8276134e-07 1.2705068e-08
000350 ad 96 5a b4 88 eb 92 34 f6 dc 58 b4 8b 43 9d 34
       -2.0357648e-07 2.736599e-07 -2.0196953e-07 2.9292673e-07
000360 cd 87 8f 33 bf 1b 81 b4 a0 59 ad 33 78 15 82 b4
       6.6836584e-08 -2.404831e-07 8.072243e-08 -2.4230008e-07
000370 22 4b 90 b4 de cb 86 b4 df 53 be 33 d6 32 8b b4
       -2.6876756e-07 -2.5107778e-07 8.8628205e-08 -2.5927756e-07
000380 01 8b c0 33 6d fc 41 af ac 66 99 ae 24 c5 4b af
       8.9659814e-08 -1.7642927e-10 -6.975873e-11 -1.8532781e-10
000390 d0 22 87 ae 3a 34 88 ae 97 29 8b ae eb 34 48 af
       -6.145273e-11 -6.193841e-11 -6.328376e-11 -1.8208694e-10
0003a0 fc 38 77 ae ab eb 49 af 55 ef 92 2f 90 e3 95 b0
       -5.621191e-11 -1.836457e-10 2.67273e-10 -1.0905854e-09
0003b0 cc c2 00 2f 1b 6c 9b b0 89 7e 91 b0 c7 a8 99 b0
       1.1710738e-10 -1.130846e-09 -1.0586102e-09 -1.1180185e-09
0003c0 05 3a 2c 2e 58 05 9c b0 bb 85 f6 2d e6 2a a7 b1
       3.9159804e-11 -1.1352013e-09 2.802635e-11 -4.8652167e-09
0003d0 a5 46 d1 b1 8f 2a ac b1 e6 e8 c6 b1 b5 e6 8c 32
       -6.090732e-09 -5.010697e-09 -5.789036e-09 1.6403058e-08
0003e0 71 19 c6 b1 2a 17 ac b1 53 7d ae b1 8b 08 bc b1
       -5.765451e-09 -5.0084923e-09 -5.078314e-09 -5.4724913e-09
0003f0 d4 1d 8d b0 20 f0 82 af bd 2a 88 b0 37 6c 85 af
       -1.0267578e-09 -2.381748e-10 -9.907449e-10 -2.426945e-10

c0.bias f4 [64]
000000 85 14 a9 3b 69 4b 73 bb 75 37 13 b7 41 1d d4 38
       0.005159917 -0.0037123805 -8.774795e-06 0.00010114397
000010 82 5d 94 37 3a b3 0f 38 2c 27 86 37 d9 2b 67 b8
       1.7686518e-05 3.4260775e-05 1.5992286e-05 -5.5115528e-05
000020 66 23 09 b7 f3 62 8a bb 23 0b 9d bb b4 58 a0 bb
       -8.174078e-06 -0.0042232214 -0.0047925874 -0.0048933867
000030 fd da 0f 36 94 aa bd 36 f8 5c 8a b3 e9 ef b1 3b
       2.1436128e-06 5.652497e-06 -6.443037e-08 0.005430211
000040 56 bd 03 36 45 56 a2 bb d2 67 a7 b7 be a7 14 3b
       1.963073e-06 -0.004954132 -1.9956296e-05 0.002268299
000050 a4 d1 fd 36 38 b7 4f bb 75 2d 93 3b 8a b5 4f b6
       7.564393e-06 -0.00316949 0.004491503 -3.0951073e-06
000060 89 f8 38 35 bb a3 42 38 10 88 3c 35 d9 46 02 3b
       6.890701e-07 4.640569e-05 7.0233455e-07 0.0019878654
000070 98 fe 57 35 b3 1b 9d bb 57 6e 51 3b 37 05 3c 37
       8.0464224e-07 -0.004794562 0.0031956637 1.1206887e-05
000080 08 ef 52 36 9d 45 fa 33 e1 61 8c 38 2e 43 a7 b7
       3.1431573e-06 1.1654195e-07 6.6939516e-05 -1.9939234e-05
000090 d6 3c 09 36 6a cf 9a bb ae a4 87 3b 30 81 76 37
       2.0450002e-06 -0.0047244327 0.0041395044 1.4692821e-05
0000a0 33 75 23 b7 55 ee 94 bb 38 ed 03 b7 a2 5d 01 b7
       -9.742845e-06 -0.004545013 -7.86344e-06 -7.7108e-06
0000b0 a2 36 c2 b5 4c ef 9b bb 33 19 14 3b 6e af d3 b6
       -1.4470027e-06 -0.004758751 0.0022598028 -6.3087127e-06
0000c0 86 ef c3 b8 4d 73 24 37 5a 23 c7 b6 01 64 b4 37
       -9.342939e-05 9.802007e-06 -5.9347776e-06 2.150424e-05
0000d0 73 79 79 36 13 e8 db b6 0f dc ae 3b ed 91 02 37
       3.7174584e-06 -6.5537256e-06 0.0053362916 7.78258e-06
0000e0 f5 9f da b9 11 05 5b 35 f9 f2 3d 37 fe 19 89 3b
       -0.00041699377 8.159123e-07 1.1321849e-05 0.0041840067
0000f0 b6 a7 88 36 18 42 51 38 d4 c0 1c 38 fc f9 89 b5
       4.07264e-06 4.9891038e-05 3.7372884e-05 -1.028005e-06

conv.weight f4 [64, 64, 3, 3]
000000 35 bf 19 ba 7e 1b 8a 3b ba 64 8f 3b c3 14 b2 3b
       -0.0005864979 0.004214703 0.004376021 0.005434604
000010 d1 10 84 3b 0c 4a dd 3a 8f 69 23 3b ba f1 99 3b
       0.004030325 0.001688303 0.0024934744 0.0046980055
000020 e1 3b e6 3a ad e0 6b ba 84 7e 88 ba 7a 2c 2f bb
       0.0017565453 -0.0008998018 -0.0010413681 -0.002672939
000030 85 7e c4 3a cc be 00 3a ac 29 3c bb 3c 1f 55 3a
       0.0014991319 0.00049112434 -0.0028711362 0.00081299595
000040 63 3a 0b 3a 74 a9 19 b9 95 7c f0 b7 03 72 0c b8
       0.00053111295 -0.00014654343 -2.8668243e-05 -3.3484783e-05
000050 ed e9 e2 b7 09 59 ca 37 56 60 c4 b7 f3 24 db 37
       -2.705023e-05 2.4121737e-05 -2.340988e-05 2.612404e-05
000060 44 35 f9 b7 04 aa b4 b7 5c d7 dd b7 67 62 9d b6
       -2.9707917e-05 -2.1536842e-05 -2.6445538e-05 -4.69042e-06
000070 0f ca 87 39 61 47 79 b5 ee a2 87 39 a6 7d 6e 39
       0.00025899752 -9.28636e-07 0.000258706 0.00022744256
000080 1a a8 88 39 5d e2 9f b6 bb 97 89 39 f9 4e 5e b5
       0.00026065187 -4.7649214e-06 0.00026243724 -8.2816365e-07
000090 c8 ca b2 b7 ee 14 df b6 eb 14 91 b7 52 d7 49 b6
       -2.1313681e-05 -6.6483544e-06 -1.7295088e-05 -3.0076667e-06
0000a0 cd 75 1e 38 fc 5a a4 b6 f4 83 1f b7 2d b5 53 b7
       3.7779846e-05 -4.898173e-06 -9.507861e-06 -1.2618763e-05
0000b0 fc 13 c9 b6 76 45 b1 b7 0d 59 9c b7 f7 89 1d b8
       -5.9925933e-06 -2.113239e-05 -1.8638117e-05 -3.7560207e-05
0000c0 a0 ff d8 b7 27 41 a6 b7 5a 6b 87 b7 25 20 f9 b7
       -2.5868241e-05 -1.9819081e-05 -1.6143244e-05 -2.9698082e-05
0000d0 0b bf 86 b7 d9 38 38 b8 be f1 0d 38 66 e4 1b 38
       -1.6063006e-05 -4.3921962e-05 3.384216e-05 3.7167592e-05
0000e0 9c 73 05 38 38 9e 79 38 1d 83 0c b8 5a 17 80 38
       3.181734e-05 5.951358e-05 -3.350071e-05 6.107865e-05
0000f0 89 fa f7 37 2a ed 3f 38 63 93 f6 37 8f 71 91 39
       2.9561359e-05 4.5758825e-05 2.9394118e-05 0.00027741163
000100 f9 39 69 39 d8 50 90 39 72 00 66 39 19 7e ef 37
       0.00022242208 0.00027526054 0.00021934675 2.8549739e-05
000110 d3 93 67 39 99 29 90 39 b0 d0 67 39 7b 56 8f 39
       0.00022084946 0.00027496813 0.00022107619 0.00027339518
000120 3e ca 98 37 c7 2f 0e 38 0b 45 8c 37 f0 e6 06 38
       1.8213988e-05 3.3899934e-05 1.6721451e-05 3.2163167e-05
000130 4b 83 83 38 02 83 ed 37 71 48 99 37 1b 86 11 38
       6.271022e-05 2.8313607e-05 1.8272754e-05 3.469559e-05
000140 0f 52 8c 37 9c 23 49 ba 7b f7 b4 3a a8 f0 33 bb
       1.6727512e-05 -0.0007672848 0.0013806665 -0.0027456675
000150 48 63 19 3a 79 6d 8c ba 0a d6 11 ba 27 e2 85 39
       0.0005851281 -0.0010713778 -0.00055632053 0.00025536233
000160 13 f6 32 3b f7 1e 8a 3a b3 e3 5e bb 41 d6 40 ba
       0.0027307316 0.0010537793 -0.003401023 -0.0007356145
000170 a9 79 c0 ba f1 8c 71 bb 20 d6 95 bb 40 c2 49 bb
       -0.0014684695 -0.003685769 -0.004572645 -0.0030785948
000180 80 1a 3e bb 3c c5 ea 3a 08 34 02 bb 94 43 44 bb
       -0.0029007494 0.0017911564 -0.0019867439 -0.0029947506
000190 48 4d 29 bb 91 bb 01 3a ae e7 c1 3a a7 0d c7 bb
       -0.0025833417 0.0004948909 0.0014793777 -0.0060746255
0001a0 27 a4 90 3a e2 2b b0 b9 99 48 69 bb 94 75 8a ba
       0.0011035249 -0.0003360203 -0.003559625 -0.0010563605
0001b0 66 26 af 36 62 dd 65 36 db 8c 98 36 c3 48 f8 37
       5.2198766e-06 3.425252e-06 4.5463507e-06 2.9597786e-05
0001c0 d0 d4 6d 37 14 b6 e9 37 9e 58 d9 37 be 98 7e 37
       1.417585e-05 2.7860551e-05 2.5909681e-05 1.5175143e-05
0001d0 c2 6d b6 37 f7 84 16 38 e0 d3 17 38 93 72 20 38
       2.17472e-05 3.588662e-05 3.619853e-05 3.825368e-05
0001e0 20 37 03 38 63 10 ca 35 2a 1e 0c 38 20 7d 11 38
       3.1284173e-05 1.5054942e-06 3.3406694e-05 3.4687226e-05
0001f0 99 1a 23 38 87 c3 25 38 65 f1 98 37 d7 ec e4 37
       3.8887e-05 3.9521165e-05 1.823222e-05 2.7290005e-05
000200 a9 4c 95 37 f7 af fb 37 03 b9 5f 38 ea ad ff 37
       1.7797882e-05 3.0003472e-05 5.333965e-05 3.0479354e-05
000210 49 60 bc 37 dd da 14 38 7b 9e b2 37 34 62 31 3a
       2.2456183e-05 3.5489782e-05 2.1293052e-05 0.00067666476
000220 f6 b9 8f 3b 41 6b 1a ba 51 2d ce 37 25 4d b1 3a
       0.004386182 -0.0005890616 2.4578216e-05 0.0013527019
000230 30 1c 88 3b 38 7d ae 3a 29 90 80 3a 97 cb ac 3a
       0.004153751 0.0013312465 0.0009808588 0.0013183233
000240 7e b9 44 b8 02 23 e3 b8 aa 27 03 b9 99 4f dc b8
       -4.6902795e-05 -0.00010830724 -0.0001250791 -0.00010505244
000250 89 5a 9e b8 c8 cc d8 b8 3a 66 26 b8 b0 ab f7 b8
       -7.5508906e-05 -0.00010337826 -3.967269e-05 -0.00011809857
000260 0b cb de b8 fb d5 81 bb c0 cc 1e bb cd d3 63 3a
       -0.000106236046 -0.003962276 -0.0024230927 0.00086909236
000270 16 13 82 3a eb b6 9d 3a 2b 4c 72 bb 5e d7 89 bb
       0.0009923901 0.0012032663 -0.003697167 -0.004206582
000280 d0 df 0b 3b 91 af 14 bb 81 73 52 b8 16 92 d1 b8
       0.002134312 -0.0022687654 -5.0175473e-05 -9.993107e-05
000290 73 65 19 b8 d0 d8 fe b8 e4 eb 32 b8 e0 5a e8 b8
       -3.6572525e-05 -0.00012152048 -4.2658197e-05 -0.00011079549
0002a0 8c 1c 12 b8 90 b7 c2 b8 53 c4 d1 b7 ee 10 d1 39
       -3.48357e-05 -9.284832e-05 -2.5006162e-05 0.000398762
0002b0 e0 4b d6 39 4e fa d0 39 41 ac d6 39 95 a1 c1 39
       0.00040873792 0.00039859343 0.000409456 0.00036932217
0002c0 15 67 d7 39 65 a5 d0 39 80 fd d5 39 0b 67 d0 39
       0.00041084798 0.0003979608 0.00040815398 0.00039749625
0002d0 81 3d 0c b9 7d 89 c1 b8 30 20 02 b9 c5 ba b7 b8
       -0.00013374352 -9.228566e-05 -0.00012409757 -8.7609085e-05
0002e0 b3 89 c4 37 ad 50 b6 b8 7d d7 f4 b8 2c 9c b5 b8
       2.3429142e-05 -8.693463e-05 -0.000116749645 -8.659842e-05
0002f0 5b f2 e7 b8 94 c5 92 b9 49 89 3d b8 05 62 0e bb
       -0.000110600806 -0.00027994497 -4.518897e-05 -0.0021725905
000300 6d 89 21 bb 1c 16 bf ba 22 1c 40 b9 c1 97 b8 ba
       -0.0024648563 -0.0014578733 -0.00018321027 -0.0014083312
000310 5e 9b ce ba cb 44 da ba 23 3d 3a bb 51 23 86 bb
       -0.0015762856 -0.0016652582 -0.0028417788 -0.0040935655
000320 66 ee 04 3b f2 5d e0 3a 9b 40 b3 ba f9 cd 88 ba
       0.0020283698 0.0017117842 -0.001367587 -0.0010437361
000330 53 80 41 bb b5 35 4d bb e7 40 f2 3a 61 42 1c b8
       -0.002952595 -0.003131253 0.0018482477 -3.725512e-05
000340 0c d2 a4 b8 cd e5 12 b8 ee fe a4 b8 64 7b 31 b8
       -7.859254e-05 -3.502313e-05 -7.867614e-05 -4.2315005e-05
000350 ab 7d a7 b8 32 17 27 b8 bc aa a3 b8 f3 b2 1b b8
       -7.986588e-05 -3.9837505e-05 -7.8042474e-05 -3.712154e-05
000360 2e 6f 8d b5 54 00 c8 b7 8a b4 09 b6 f2 7f b1 b7
       -1.0537676e-06 -2.384201e-05 -2.0519678e-06 -2.1159623e-05
000370 d1 f7 2c b7 ba 88 bb b7 ca 69 94 b6 59 77 ee b7
       -1.0309698e-05 -2.2355805e-05 -4.423059e-06 -2.8427386e-05
000380 57 4c c2 b6 bf 6b 52 b9 57 eb 6c b9 17 a4 55 b9
       -5.7905377e-06 -0.00020067299 -0.00022594385 -0.00020374391
000390 e8 d8 6b b9 f3 c3 70 b8 e2 4e 6c b9 7c 92 50 b9
       -0.0002249215 -5.740295e-05 -0.000225361 -0.00019890995
0003a0 fe 91 6b b9 41 9f 53 b9 6c 54 02 b8 c5 4a cc b6
       -0.00022465733 -0.00020181855 -3.107304e-05 -6.088378e-06
0003b0 2e 3c f4 b7 d5 e0 0c 37 3b 12 fa 36 a9 d2 00 37
       -2.911509e-05 8.396998e-06 7.452703e-06 7.678443e-06
0003c0 3f e5 13 b8 11 db f4 b6 8d 06 0d b8 78 ea ac 39
       -3.5261033e-05 -7.2972693e-06 -3.362312e-05 0.0003298109
0003d0 ea d3 e5 39 1f ff ab 39 e2 cf e6 39 6b 48 f4 39
       0.00043836172 0.00032805742 0.00044023903 0.00046593262
0003e0 f6 1b e6 39 bc 7f a9 39 a4 43 e3 39 9e a7 a8 39
       0.0004388985 0.0003232936 0.0004334721 0.00032168342
0003f0 c0 d6 04 38 0d 20 44 38 e5 a1 e1 37 c8 46 44 38
       3.1671254e-05 4.675989e-05 2.6897478e-05 4.679596e-05

conv.bias f4 [64]
000000 a1 28 3e bb 3d 97 99 3a ef cf c1 b9 aa 8c a2 3c
       -0.0029015916 0.0011718046 -0.0003696675 0.019842464
000010 f6 d0 1b bc 01 7e 80 3a 3a e6 ac 3a cd 98 f8 ba
       -0.009510269 0.0009803177 0.0013191171 -0.0018966437
000020 2c 94 06 bd 6b 7c c4 3a a0 09 cd ba c5 9f 8e 3a
       -0.03285615 0.0014990693 -0.0015643127 0.0010881355
000030 94 fa 4b 3a 67 9e de 3b d0 55 8f bc 84 9f 4e 3d
       0.00077811745 0.0067937854 -0.017496973 0.050445095
000040 47 0c 22 3c 5c 1c 21 3d db 11 80 39 ac 2c c8 3a
       0.009890622 0.039333686 0.00024427366 0.0015272102
000050 61 01 75 bd 8b 07 06 3b a2 9d f7 3a bf d7 90 bc
       -0.05981577 0.0020451273 0.0018891583 -0.017681
000060 14 cf a7 3c 0c b1 29 bb 43 7f 63 bd fc c1 30 3a
       0.020484485 -0.0025892882 -0.055541288 0.0006742773
000070 a5 23 93 3a 2e 2e 0a 3d 2c 9d 9f 39 36 93 dd 3a
       0.0011225833 0.033735447 0.00030443945 0.0016904834
000080 e2 dd 9c 39 02 43 01 3d e8 40 02 bb 1b b8 5f ba
       0.00029919954 0.031558044 -0.0019875113 -0.0008534209
000090 54 1e 2b 3d 3b 2a d5 bc 6a 95 26 3a e6 19 9e 39
       0.04177697 -0.026021114 0.0006354662 0.00030155404
0000a0 5a 88 c7 ba a0 91 d6 bd 8e 40 be 3a 9d 00 8f 3a
       -0.0015223131 -0.104769945 0.0014515088 0.0010910217
0000b0 97 f1 8c ba b9 b5 81 ba 21 b9 1d b9 6c f5 91 bd
       -0.0010753152 -0.0009896077 -0.00015041653 -0.07126889
0000c0 64 69 94 bd 0c 4b 1c bd 29 5e 6c 3c 54 75 90 bd
       -0.07246664 -0.038157508 0.014426746 -0.070536286
0000d0 0a 17 fd 3a f6 0e d3 bc de e4 a8 3a ce b8 0b 39
       0.0019309234 -0.02576397 0.001288559 0.00013324918
0000e0 a0 c7 d6 39 03 b4 82 3a 79 fb c4 3c 0d b2 ef ba
       0.00040965993 0.000997186 0.024045693 -0.0018287316
0000f0 ab 6a 9a ba cc 79 81 3b df 2d d6 3a 93 c0 c4 3a
       -0.0011781057 0.003951287 0.0016340575 0.0015011005

lstm.weight_ih f4 [256, 64]
000000 40 9a c0 b9 77 e1 1c b9 01 9e 16 39 7a 00 bc 3b
       -0.0003673602 -0.00014961312 0.00014363976 0.0057373615
000010 27 91 3c bc 17 db 97 bb 34 6f a7 b7 b5 4a da 38
       -0.011509216 -0.004634272 -1.9959734e-05 0.00010408965
000020 f2 9d 32 bc fa 98 91 38 cd a0 02 39 48 9e 7c b8
       -0.010901915 6.942633e-05 0.00012457669 -6.0228893e-05
000030 c9 da 17 39 b4 dc ad 3b 84 be 88 bc b6 e3 29 3c
       0.00014481986 0.005305851 -0.016692407 0.010369232
000040 a4 f7 c7 39 13 e5 ab 3b aa 97 33 36 31 ec 1a b9
       0.00038140744 0.0052458136 2.6761359e-06 -0.00014774573
000050 e2 99 5c bc 92 53 0f b9 5e 27 92 38 d6 7c 28 bc
       -0.013464423 -0.00013668675 6.969155e-05 -0.010283669
000060 9c cc e4 3b 5e 69 bb bb c7 1e 1c bc 59 30 c2 38
       0.006982399 -0.005719348 -0.009528822 9.259646e-05
000070 4b c9 9d 38 6f f5 35 39 89 e6 0a 38 6a 7f b0 37
       7.523837e-05 0.00017352936 3.3116467e-05 2.1040167e-05
000080 75 5a 81 37 5f d5 44 3c ab 96 25 b9 ae 91 05 b9
       1.542012e-05 0.012013762 -0.00015791754 -0.00012738138
000090 1b 06 ad 3b 83 6f 86 bc 60 00 ae b7 90 11 b0 38
       0.005280269 -0.016410595 -2.0742591e-05 8.395605e-05
0000a0 bd a4 cd 37 90 e4 f6 bc d6 43 8c b7 7f ee 17 38
       2.4514617e-05 -0.030138284 -1.672089e-05 3.6223322e-05
0000b0 74 76 a1 b8 e9 e8 64 38 2c 2e 6f b9 35 28 da bc
       -7.699142e-05 5.457635e-05 -0.00022810017 -0.0266305
0000c0 8f 29 a3 bc b6 33 95 bc eb 1c 40 3c fd 54 a4 bc
       -0.019917278 -0.018213134 0.011725645 -0.020060057
0000d0 bd 86 e5 38 b9 9a d1 ba ac 49 d5 b8 87 a5 3e 38
       0.00010944668 -0.0015991546 -0.00010170354 4.545369e-05
0000e0 34 cb 72 38 41 4a 0d b8 f7 29 26 3c 6d dc 57 38
       5.7886544e-05 -3.3686174e-05 0.010141841 5.1465282e-05
0000f0 7b 69 b6 37 7d 8a 5e 39 a8 18 16 b8 74 cf 7e b8
       2.1745209e-05 0.00021223161 -3.578575e-05 -6.0751525e-05
000100 a1 f2 20 ba d9 97 63 ba 97 df fa 3a 30 41 a6 ba
       -0.000613967 -0.000868199 0.0019140121 -0.0012684222
000110 15 fd ae bc 8a 55 27 bd 03 9d 44 ba f5 ce a6 3a
       -0.021360913 -0.04085306 -0.0007500203 0.0012726473
000120 69 b7 83 bd b5 da 08 bb 36 bb a9 3a 6f 26 a8 3a
       -0.06431467 -0.0020882313 0.001294947 0.0012828837
000130 16 0b 35 b9 42 06 57 3d c7 05 08 be 73 0e 29 3d
       -0.00017265635 0.052496202 -0.13283454 0.041273545
000140 59 df b9 ba fd c4 c4 3d 9d 53 bb 3a 7e d0 92 ba
       -0.0014180943 0.09607885 0.0014291886 -0.0011201052
000150 e2 46 65 bd aa 7a c2 3a c8 b5 a5 3a 03 91 82 bd
       -0.055975802 0.0014837582 0.0012642676 -0.06375315
000160 21 c0 9a 3d 9c 40 d6 bc b6 e6 2b ba 76 0a 73 3a
       0.07556177 -0.026153855 -0.0006557511 0.0009271273
000170 82 0e c8 ba 32 d0 66 3a 99 f7 a1 ba f6 78 1b 3a
       -0.0015263113 0.0008804827 -0.0012357115 0.00059308053
000180 f5 4f 0b ba 3d ed 1f 3d c9 d3 d0 3a 13 56 29 3b
       -0.0005314344 0.039044607 0.0015932258 0.0025838658
000190 e8 57 12 bc 89 de 9b 3c 58 bc a5 3a 3b 84 b7 3a
       -0.008932091 0.019027011 0.0012644632 0.00140012
0001a0 1a 9c af b9 e5 74 c1 bd 18 e2 87 3a 30 9f d1 ba
       -0.00033494906 -0.09446124 0.0010367064 -0.0015992876
0001b0 81 2a 66 3a 3b c2 b9 3a fa 76 99 3a 36 13 cf bc
       0.0008780137 0.0014172265 0.0011708431 -0.025277715
0001c0 b9 03 50 bd 52 36 0a be c7 5b cd 3b 5a 81 01 be
       -0.0507848 -0.13497284 0.006267044 -0.12647
0001d0 4a 75 ac ba be 83 4f bd e3 b2 ba 3a a1 15 c9 3a
       -0.0013157513 -0.05066275 0.0014243986 0.0015341529
0001e0 88 eb bb ba 55 d3 d9 3a 57 53 ff bc 5c 5d 6d 3a
       -0.0014337162 0.0016618768 -0.03116767 0.0009054744
0001f0 0c 10 a0 3a 75 47 2d bb 7d 4d 03 bb 3b d3 35 3a
       0.0012211814 -0.0026440297 -0.00200352 0.0006936078
000200 55 f9 b6 ba 25 85 61 ba 30 ae 67 3a ea e7 5c bc
       -0.0013959805 -0.0008602909 0.00088379066 -0.013483027
000210 ad 9a e4 3c c7 8d 47 3c ba 6a 39 3a 70 27 53 3a
       0.027905786 0.012179798 0.00070730934 0.0008054888
000220 9c 8b da 3c 32 ad 80 38 12 02 85 3a 51 fb 32 3a
       0.026677899 6.135776e-05 0.0010147712 0.000682761
000230 7d c8 7b ba c7 b5 48 bc 67 1b 26 3d c7 53 cb bc
       -0.0009604765 -0.01225037 0.040553477 -0.024820222
000240 4e 1f 73 b9 72 e2 58 bc 6b cf 26 39 f4 4a 7f ba
       -0.00023185948 -0.0132375825 0.00015908263 -0.0009738647
000250 bd 7b fa 3c 6f c8 85 b9 3d c6 2f ba 9a cb ca 3c
       0.030576581 -0.00025517071 -0.000670526 0.024755288
000260 aa ef 80 bc 58 e1 6e 3c 16 eb ae 3c 20 60 44 ba
       -0.01573928 0.014580093 0.021352332 -0.00074911304
000270 10 cf 99 39 dc 31 d9 38 1a a9 14 ba cd 0f 25 ba
       0.00029336708 0.000103566534 -0.000567095 -0.0006296605
000280 f1 46 4e 3a 68 b4 e6 bc 36 fe ba b8 b1 05 a1 39
       0.00078688475 -0.028162196 -8.9165216e-05 0.00030712553
000290 3c a0 49 bc 3b 82 25 3d 56 11 2e ba 0e 49 c0 3a
       -0.012306269 0.0404074 -0.00066401565 0.001467021
0002a0 5c 37 67 3a 42 b8 95 3d 30 f6 5f ba de e1 19 3a
       0.00088202 0.07310535 -0.00085434597 0.00058701437
0002b0 ec 92 72 ba 6c 33 68 3a 30 20 e3 39 9e 56 85 3d
       -0.00092534604 0.000885776 0.00043320796 0.065106615
0002c0 23 45 41 3d 6d 6e 32 3d 7c 3a e5 bc fc 56 40 3d
       0.047185075 0.04356234 -0.02798199 0.046957955
0002d0 06 d9 0c ba e6 a7 63 3b 49 2f 78 b9 64 53 38 b7
       -0.0005372915 0.0034737526 -0.00023668738 -1.09866705e-05
0002e0 fc 7e f6 39 b7 3b 10 ba cd 27 c6 bc 83 50 54 ba
       0.00047015387 -0.0005502062 -0.0241889 -0.00080991554
0002f0 1d c7 2f ba c1 a8 2b 39 03 3e a3 b9 a2 6e 4f ba
       -0.00067053904 0.00016370697 -0.00031135985 -0.0007912909
000300 8b eb 01 bb 46 1a 29 b9 bc 25 17 3b 95 77 3d bc
       -0.0019824232 -0.00016126884 0.0023063263 -0.011564155
000310 19 93 78 3d 8e df 30 3d ff 73 30 3a f4 c4 7e 3a
       0.06068716 0.04318195 0.0006731152 0.00097186794
000320 4a 57 45 bc 51 b1 5b bb d5 b4 2c 3b 4b b4 54 3a
       -0.012044737 -0.0033522437 0.0026352901 0.0008114024
000330 b1 6e a0 ba a1 65 7b bc 06 3f 36 bb a3 80 27 bc
       -0.001224002 -0.015344054 -0.002780856 -0.0102235405
000340 ec d7 24 bb cf de 13 3d 50 28 49 3a 7f d0 8e ba
       -0.0025153114 0.03610116 0.00076735485 -0.0010895877
000350 12 da 66 3d 1d 79 29 3b d2 ca 55 3b fb 37 ae 3c
       0.05636031 0.0025859543 0.003262211 0.021266928
000360 0c a6 30 bc bb fd cb 39 1f b5 fc 3c 98 1c 9d 3a
       -0.010781776 0.0003890822 0.030848084 0.0011986671
000370 87 9b d1 ba f4 8e 52 bb 9c 6e 6f 3a b8 ea 47 ba
       -0.0015991785 -0.0032128664 0.00091336085 -0.00076262234
000380 20 5b 01 3a ff 78 5e bd 05 79 31 3b b8 72 05 3c
       0.0004934538 -0.05431461 0.002708019 0.008145027
000390 40 2e b9 bd 89 b2 08 3d e0 d1 af 3a 44 45 9d 3b
       -0.090420246 0.03337339 0.0013413988 0.004799517
0003a0 81 43 01 bb 56 1a 47 3b 54 69 8b 3b bc 60 5c bb
       -0.0019724073 0.0030380688 0.0042544995 -0.0033626994
0003b0 79 b8 4c 3a 42 d7 20 3b 56 d3 da 39 3c 14 89 3d
       0.0007809471 0.0024542366 0.00041737658 0.066933125
0003c0 ab 4c 9e 3d ac 66 b8 38 9c 90 6d bd 75 eb e1 3c
       0.07729467 8.792928e-05 -0.05799924 0.027578095
0003d0 83 88 4e ba 3b 1f 87 3c d6 c7 bd 3a 2d 4b 63 3a
       -0.0007878618 0.016494384 0.0014479111 0.0008670565
0003e0 e6 8c 1e bb 6e 43 3b 3b 87 1b 49 3c 86 5d 21 3a
       -0.0024192869 0.0028574127 0.012274629 0.00061555987
0003f0 b1 1a 1b 38 e9 a3 d8 bb c5 a4 60 bb 73 11 26 3b
       3.6979738e-05 -0.0066113365 -0.0034277898 0.002533999
