trained_models/MSIL_2d_problem1500.pt (torch, 670365 bytes, 48 tensors)

hidden.weight f4 [64, 9, 3, 3]
000000 63 ac 1b 30 1b 4e 21 30 de c8 19 30 81 e2 2a 30
       5.663365e-10 5.8682453e-10 5.5946525e-10 6.216752e-10
000010 29 f2 31 30 67 2c 29 30 f2 49 17 30 44 32 1e 30
       6.4736355e-10 6.154494e-10 5.503856e-10 5.7551497e-10
000020 ac 7e 15 30 b1 ff 1a 2d 31 e8 39 2c 5e 1c 15 2d
       5.4385896e-10 8.810661e-12 2.6418973e-12 8.475968e-12
000030 34 b0 4c 2c 43 35 02 ad 3b c0 42 2c d1 66 16 2d
       2.9087956e-12 -7.401471e-12 2.7675767e-12 8.549343e-12
000040 16 a3 23 2c 52 03 15 2d f1 aa 84 ac 89 42 c2 ac
       2.3254224e-12 8.470407e-12 -3.770644e-12 -5.5211985e-12
000050 b2 08 8a ac bf ef b3 ac 68 63 a0 ac e3 80 a2 ac
       -3.9231613e-12 -5.114103e-12 -4.55851e-12 -4.6186262e-12
000060 cd c2 96 ac f1 00 cc ac 00 37 8f ac 4a 88 f8 2b
       -4.2848836e-12 -5.7981332e-12 -4.0704107e-12 1.7659288e-12
000070 26 2d 61 2c 62 68 19 2c 2d c0 75 2c 62 55 20 2d
       3.1999486e-12 2.1800552e-12 3.4923273e-12 9.113906e-12
000080 c0 da 52 2c fc c7 fa 2b 1d f7 50 2c 6f 46 22 2c
       2.9964226e-12 1.7819075e-12 2.9695753e-12 2.3060683e-12
000090 30 37 1e ad 98 8a ee ac a4 eb 28 ad 0d ec f3 ac
       -8.993514e-12 -6.779754e-12 -9.602017e-12 -6.9326823e-12
0000a0 84 49 f3 ac 95 9a fe ac ba 6e 2d ad 50 2a 04 ad
       -6.9146373e-12 -7.2362762e-12 -9.858498e-12 -7.5127266e-12
0000b0 ed 98 30 ad 99 28 e2 2d 34 c4 06 2e 76 e3 db 2d
       -1.0038398e-11 2.5711254e-11 3.0642336e-11 2.499843e-11
0000c0 54 52 0b 2e 48 8c f5 2d fa 61 06 2e dc f4 dc 2d
       3.1678063e-11 2.7915573e-11 3.0555093e-11 2.5119844e-11
0000d0 f3 d5 04 2e 5b de d9 2d c5 cb 04 ad 77 15 a6 ac
       3.020335e-11 2.476879e-11 -7.548577e-12 -4.720387e-12
0000e0 0a c8 14 ad 30 c0 a8 ac 56 96 9c ab 5d 0f c4 ac
       -8.457244e-12 -4.7961843e-12 -1.1126193e-12 -5.5723607e-12
0000f0 4e 72 0d ad 0d 34 ac ac 38 5b 18 ad f4 72 65 2d
       -8.040303e-12 -4.894313e-12 -8.660454e-12 1.3042668e-11
000100 3f 0b 7e 2d c0 03 64 2d 4f c7 88 2d 06 4c 91 2d
       1.44407255e-11 1.2961132e-11 1.554992e-11 1.6518353e-11
000110 6e 96 88 2d 87 6d 58 2d 3b 2b 72 2d fe ee 60 2d
       1.5528214e-11 1.2302498e-11 1.37657065e-11 1.2785993e-11
000120 7f b0 ae ac 2f d9 a4 ac f9 a5 b4 ac e7 dd a2 ac
       -4.9649724e-12 -4.6852726e-12 -5.1343344e-12 -4.628953e-12
000130 c5 60 46 ac 11 5d a2 ac 58 15 b3 ac ff ba a5 ac
       -2.819121e-12 -4.6146494e-12 -5.0898556e-12 -4.710343e-12
000140 83 d1 b2 ac 4d 47 f5 2e e7 a3 af 2e 9c b0 fc 2e
       -5.0823248e-12 1.1153976e-10 7.9871935e-11 1.14910054e-10
000150 81 f2 be 2e 75 1b 74 2e 9a 45 c9 2e 7f fc 05 2f
       8.683277e-11 5.5503564e-11 9.1527855e-11 1.2185984e-10
000160 b1 db c8 2e 42 dc 09 2f 2b b7 24 2d 22 84 38 2d
       9.133972e-11 1.2538329e-10 9.362992e-12 1.04885284e-11
000170 76 3f 19 2d 41 4e 40 2d 4c 12 53 2d bf 2e 33 2d
       8.711134e-12 1.0931312e-11 1.1998024e-11 1.0185352e-11
000180 73 f1 27 2d dd ac 3c 2d 18 3d 1d 2d 01 c9 2c 2d
       9.5464634e-12 1.0724946e-11 8.937982e-12 9.8217e-12
000190 01 08 a3 2d 50 97 26 2d 3d 9b a1 2d e8 6f d6 2d
       1.8534509e-11 9.469606e-12 1.837252e-11 2.437868e-11
0001a0 3e 20 9f 2d 3c eb 28 2d 47 6a a2 2d 24 92 21 2d
       1.8090526e-11 9.601927e-12 1.8464464e-11 9.18424e-12
0001b0 2a 0a 0c 2c 33 da 78 2a a4 c1 da 2b 72 8d 1e 2b
       1.9900839e-12 2.2102528e-13 1.5543578e-12 5.632917e-13
0001c0 63 46 02 2b 79 da 4d 2a 89 ee 13 2c 78 3b b5 2a
       4.628296e-13 1.8283456e-13 2.102237e-12 3.2193324e-13
0001d0 f0 c9 f3 2b 70 07 24 ad 06 87 38 ad 4a d3 1e ad
       1.7322237e-12 -9.323972e-12 -1.048917e-11 -9.028176e-12
0001e0 a3 03 41 ad 23 e1 45 ad f9 9e 3c ad 53 c1 29 ad
       -1.0971587e-11 -1.1248144e-11 -1.0721862e-11 -9.649464e-12
0001f0 4a e2 44 ad 86 b7 24 ad 2b 8e b4 ad 86 99 ce ad
       -1.1191556e-11 -9.363071e-12 -2.0526766e-11 -2.3487667e-11
000200 bf d0 b6 ad c8 d9 cb ad 37 2a d2 ad a6 3c c8 ad
       -2.0783706e-11 -2.3175142e-11 -2.3892983e-11 -2.27643e-11
000210 91 af b7 ad 81 92 ca ad 9d c5 b1 ad 31 68 17 2d
       -2.0882658e-11 -2.3029802e-11 -2.0210328e-11 8.606491e-12
000220 3f df 3b 2d 83 6f 18 2d ec ac 3b 2d ed 5c 60 2d
       1.067929e-11 8.66496e-12 1.0668116e-11 1.27535595e-11
000230 cd 45 39 2d 6c 4e 18 2d 8a 8c 38 2d 58 57 19 2d
       1.0531531e-11 8.657613e-12 1.0490395e-11 8.716437e-12
000240 08 92 cc 2d 5b 27 92 2d d8 25 c8 2d ad cf 93 2d
       2.3256966e-11 1.6615756e-11 2.2754174e-11 1.6804192e-11
000250 12 db f3 2c 39 31 8f 2d 37 2d cd 2d 46 f3 92 2d
       6.930797e-12 1.6279077e-11 2.3325881e-11 1.6706313e-11
000260 26 44 c9 2d 77 20 ce 2b 5a 68 4d ab 3e 0c 94 2b
       2.2881318e-11 1.4646191e-12 -7.297545e-13 1.051943e-12
000270 0b bf 2d ab 7e ae 94 ac 0e 72 84 ab 30 7e be 2b
       -6.172707e-13 -4.2257855e-12 -9.410821e-13 1.3535336e-12
000280 da ca 35 ab 9d ee 86 2b 7f 96 f5 35 e9 0c f8 35
       -6.458563e-13 9.587501e-13 1.8297723e-06 1.8481197e-06
000290 cb ba d7 35 03 ce 04 36 69 75 04 36 e0 f2 f2 35
       1.6073112e-06 1.9789447e-06 1.9737874e-06 1.8101091e-06
0002a0 21 3e ef 35 4e de f8 35 e3 af e0 35 6b 16 df 34
       1.782497e-06 1.8542139e-06 1.674049e-06 4.1553298e-07
0002b0 7c 0f ff 34 7d 14 df 34 89 0d ff 34 0f b0 12 35
       4.7508718e-07 4.1551894e-07 4.75073e-07 5.464544e-07
0002c0 bf 0b ff 34 65 11 df 34 cf 09 ff 34 a6 0f df 34
       4.7505998e-07 4.1549643e-07 4.7504588e-07 4.1548373e-07
0002d0 53 0a 9e b4 37 56 95 b4 92 05 9e b4 01 5f 95 b4
       -2.9437305e-07 -2.7816142e-07 -2.9433846e-07 -2.7822537e-07
0002e0 b3 5a 91 b4 0d 5a 95 b4 80 18 9e b4 81 61 95 b4
       -2.7074347e-07 -2.7818933e-07 -2.944762e-07 -2.7824356e-07
0002f0 69 12 9e b4 3d 62 a9 32 21 4a 9a 33 81 c4 a9 32
       -2.9443189e-07 1.9718863e-08 7.184668e-08 1.9763549e-08
000300 b3 29 9a 33 8b 94 02 34 d0 3d 9a 33 88 a5 a8 32
       7.178769e-08 1.2161233e-07 7.1824275e-08 1.9633049e-08
000310 3e 22 9a 33 cf 11 a9 32 6f dc 38 33 3f 27 83 33
       7.1774124e-08 1.9682288e-08 4.304132e-08 6.107302e-08
000320 02 da 38 33 1c 13 83 33 2f 92 c3 33 17 19 83 33
       4.3039115e-08 6.103639e-08 9.106986e-08 6.104727e-08
000330 00 ac 38 33 a7 04 83 33 a1 ab 38 33 99 66 aa b2
       4.299727e-08 6.101009e-08 4.2996934e-08 -1.983726e-08
000340 cc c5 b6 b3 98 ee a8 b2 03 3d b7 b3 62 cb 25 b4
       -8.5110145e-08 -1.9666274e-08 -8.5326995e-08 -1.5440813e-07
000350 9a 15 b7 b3 44 5c a7 b2 d1 aa b6 b3 a2 48 a7 b2
       -8.525531e-08 -1.9483316e-08 -8.506107e-08 -1.9474388e-08
000360 ab 9c 10 b3 0d fa ff b2 0b 9a 10 b3 ed 02 00 b3
       -3.36701e-08 -2.9799617e-08 -3.3667714e-08 -2.9804983e-08
000370 59 b5 05 b3 3e 05 00 b3 06 b8 10 b3 e9 09 00 b3
       -3.113141e-08 -2.980709e-08 -3.369498e-08 -2.9811336e-08
000380 ef b2 10 b3 57 17 43 b1 5a 46 b2 33 07 ec 3b b1
       -3.3690352e-08 -2.8389502e-09 8.301568e-08 -2.7346247e-09
000390 e7 00 b2 33 27 0d 35 34 0f 2b b2 33 83 b3 50 b1
       8.288935e-08 1.6861723e-07 8.296603e-08 -3.0370024e-09
0003a0 e7 e2 b1 33 49 98 48 b1 58 7c fa 34 b3 8f 06 35
       8.283478e-08 -2.9190395e-09 4.66566e-07 5.0128e-07
0003b0 37 78 fa 34 ae 91 06 35 10 0b 10 35 26 8f 06 35
       4.6653597e-07 5.013088e-07 5.366028e-07 5.01272e-07
0003c0 a4 7d fa 34 0c 91 06 35 c0 79 fa 34 b4 17 88 2f
       4.6657544e-07 5.012996e-07 4.6654714e-07 2.4755098e-10
0003d0 49 42 82 2f ff 11 6d 2f 01 d5 95 2f f0 83 8c 2f
       2.369396e-10 2.1561418e-10 2.725429e-10 2.55596e-10
0003e0 de 49 81 2f ca 71 93 2f ba 58 8f 2f f2 70 7d 2f
       2.351745e-10 2.6819996e-10 2.6074592e-10 2.3050342e-10
0003f0 3e 6a 8f ab 7b 7f 73 2c cc fa 37 2a 07 6e a4 2c
       -1.0190249e-12 3.4603143e-12 1.6340678e-13 4.673376e-12

hidden.bias f4 [64]
000000 50 ac 37 30 4d 58 5b ae 16 fb 59 b9 76 57 f6 2e
       6.6819883e-10 -4.9873262e-11 -0.0002078827 1.1202321e-10
000010 03 97 c7 31 7b c4 1c af 57 ae 67 ae 07 39 2f 2e
       5.8088303e-09 -1.4257921e-10 -5.2678164e-11 3.9841044e-11
000020 fc 48 6d 2f b7 c3 a3 36 ec dc 26 37 b8 ea 32 b6
       2.1580954e-10 4.8805628e-06 9.945808e-06 -2.6660691e-06
000030 14 f9 75 2e d8 bf 47 30 90 08 ef af ed d6 a0 33
       5.5927776e-11 7.2668405e-10 -4.347993e-10 7.4896754e-08
000040 8a 1a 81 2f 0d 8c 1a 30 2a 9a ac b5 d2 56 0e 2e
       2.348382e-10 5.62239e-10 -1.2859866e-06 3.2364174e-11
000050 05 8f e4 b7 bb 99 3f b2 6d d0 9f 2e bd c8 4c b5
       -2.7246317e-05 -1.11526175e-08 7.267507e-11 -7.6288035e-07
000060 d9 c0 2a b8 f3 29 76 af 6e ba 44 af 2f 9a 09 b5
       -4.0710762e-05 -2.2388473e-10 -1.7892329e-10 -5.1260844e-07
000070 9e 76 73 2e 45 77 84 30 d6 75 2b b4 91 5a a9 2e
       5.5357156e-11 9.638162e-10 -1.5968484e-07 7.701318e-11
000080 1f 4f 18 b4 97 5a ac af fb 39 76 af e3 60 22 2f
       -1.4184887e-07 -3.1350986e-10 -2.2394168e-10 1.4768235e-10
000090 81 6f 81 36 33 7c e2 ae 0a 82 ca b5 b3 ee 72 af
       3.8574804e-06 -1.0299352e-10 -1.5088019e-06 -2.2094575e-10
0000a0 f4 cc 27 38 39 44 31 ad 31 d1 65 ad ff 66 82 32
       4.000678e-05 -1.0076434e-11 -1.3063593e-11 1.5180829e-08
0000b0 6f 29 46 b6 a2 b0 fd b1 80 b4 3d 2e e9 77 d8 ae
       -2.9528417e-06 -7.38335e-09 4.313394e-11 -9.843843e-11
0000c0 73 fe 86 36 66 a1 fe 36 46 a1 85 b7 a4 c3 19 af
       4.023133e-06 7.588579e-06 -1.5929934e-05 -1.3984774e-10
0000d0 5c 06 6c 2e f4 f9 32 2d d3 02 78 31 6a 5c 39 b3
       5.3665836e-11 1.0173629e-11 3.6090355e-09 -4.315772e-08
0000e0 af 93 99 33 40 f0 38 31 fe b2 55 ae db 66 82 2e
       7.151481e-08 2.691209e-09 -4.858957e-11 5.9299864e-11
0000f0 be a8 a3 36 c1 16 b6 b3 63 bc 79 33 62 57 09 36
       4.8774227e-06 -8.479174e-08 5.8146167e-08 2.0465454e-06

h0.weight f4 [64, 64, 3, 3]
000000 c7 f0 73 af 67 e3 84 af f7 b7 73 af f2 87 85 af
       -2.2186263e-10 -2.417224e-10 -2.2166079e-10 -2.4289154e-10
000010 eb 82 8d af eb 01 85 af fb 6e 75 af a3 fb 84 af
       -2.5740773e-10 -2.4193922e-10 -2.2322048e-10 -2.418946e-10
000020 fa 7e 73 af af a9 08 2e ed c6 b6 2d e3 9d 10 2e
       -2.2145832e-10 3.107353e-11 2.0779345e-11 3.288204e-11
000030 6e 61 b1 2d e2 34 17 2d 40 73 bf 2d 26 16 0a 2e
       2.0165838e-11 8.595099e-12 2.1765367e-11 3.139724e-11
000040 3e 1e b9 2d 2b 86 12 2e 8b 1e 0e b7 2d d6 16 b7
       2.1045495e-11 3.331572e-11 -8.470971e-06 -8.990563e-06
000050 38 21 0e b7 80 d9 16 b7 96 34 20 b7 03 ea 16 b7
       -8.471594e-06 -8.991337e-06 -9.548987e-06 -8.995182e-06
000060 e3 21 0e b7 83 e6 16 b7 9c 47 0e b7 66 03 6c ae
       -8.471749e-06 -8.994367e-06 -8.480532e-06 -5.3663206e-11
000070 6c 75 8d ae e7 98 6a ae d6 82 8e ae ea 63 9d ae
       -6.432796e-11 -5.3341245e-11 -6.4806535e-11 -7.157282e-11
000080 d2 80 8d ae 1d 2a 6d ae d3 09 8e ae 2d 86 69 ae
       -6.434821e-11 -5.3924965e-11 -6.4591575e-11 -5.309724e-11
000090 36 1b 12 2f a3 75 1d 2f 6f c3 11 2f c6 45 23 2f
       1.328829e-10 1.432086e-10 1.3257105e-10 1.4849552e-10
0000a0 f5 93 36 2f 40 08 21 2f 62 69 1b 2f 03 90 26 2f
       1.6605368e-10 1.4645796e-10 1.4134607e-10 1.5148775e-10
0000b0 a8 04 1b 2f e1 50 b7 2d 34 25 da 2d 59 de b6 2d
       1.4098822e-10 2.0840609e-11 2.4800252e-11 2.0789747e-11
0000c0 e7 99 d8 2d 63 97 fe 2d eb bd d7 2d 22 17 b4 2d
       2.4624703e-11 2.8943686e-11 2.452701e-11 2.0473904e-11
0000d0 22 53 d6 2d f8 84 b2 2d 77 50 f1 2c 47 cb d3 2c
       2.4365902e-11 2.0295307e-11 6.8585654e-12 6.019549e-12
0000e0 0e fc f1 2c 71 60 da 2c af f7 b0 2c 08 b0 d8 2c
       6.8776157e-12 6.20664e-12 5.0297193e-12 6.1586326e-12
0000f0 89 ea f9 2c 32 f0 d9 2c c8 27 f9 2c f8 f6 5c 2c
       7.1030443e-12 6.194178e-12 7.0814223e-12 3.1400976e-12
000100 6f c4 c0 2b 6c 0b 6c 2c 92 18 da 2b 2d c1 67 ab
       1.3696942e-12 3.3543958e-12 1.5496651e-12 -8.233577e-13
000110 2d bf f5 2b 9b 7c 75 2c a2 27 e8 2b 91 55 81 2c
       1.7461359e-12 3.4885764e-12 1.6495592e-12 3.6759003e-12
000120 5f 22 1a ae f6 33 0f ae 3c ac 1b ae 1d e4 10 ae
       -3.5046074e-11 -3.2560586e-11 -3.5395895e-11 -3.2944415e-11
000130 e6 f5 03 ae b4 96 11 ae 68 ff 1d ae fa 55 12 ae
       -3.0004353e-11 -3.3103034e-11 -3.5924513e-11 -3.327292e-11
000140 68 d4 1e ae 79 bc 64 34 e4 74 75 34 95 eb 63 34
       -3.6113695e-11 2.130272e-07 2.2859928e-07 2.1226727e-07
000150 0c 74 76 34 72 f8 82 34 5a c6 75 34 e2 0c 66 34
       2.2952753e-07 2.4395155e-07 2.2889563e-07 2.1425106e-07
000160 57 c2 76 34 d2 bf 65 34 be dd e9 34 38 69 fc 34
       2.2981236e-07 2.1397071e-07 4.356097e-07 4.7015214e-07
000170 b8 16 e9 34 76 63 fd 34 84 42 07 35 9b ca fc 34
       4.3416162e-07 4.719729e-07 5.038821e-07 4.7086073e-07
000180 4a 3a eb 34 89 c0 fd 34 32 ee ea 34 ed d8 94 b3
       4.3814572e-07 4.726501e-07 4.3759206e-07 -6.9312456e-08
000190 c8 f5 aa b3 86 09 93 b3 6f 56 af b3 9b bc c9 b3
       -7.960949e-08 -6.846953e-08 -8.164795e-08 -9.394099e-08
0001a0 38 b0 ac b3 6c dd 9a b3 ce c7 b0 b3 42 38 99 b3
       -8.041428e-08 -7.21146e-08 -8.231983e-08 -7.134851e-08
0001b0 3d f6 89 ad 2e 2f a4 ad 8e 08 83 ad b0 54 9f ad
       -1.5684449e-11 -1.8665593e-11 -1.4896775e-11 -1.8113816e-11
0001c0 7a 1a c5 ad a2 5c 9a ad 67 2c 80 ad d7 9d 9a ad
       -2.2408065e-11 -1.754891e-11 -1.4571634e-11 -1.7577868e-11
0001d0 d5 5b 72 ad a3 1d ab 2d bd 1c b0 2d 2d aa af 2d
       -1.3776498e-11 1.945361e-11 2.0021646e-11 1.997077e-11
0001e0 31 36 b5 2d f7 ab b5 2d 46 0a b6 2d 69 77 b4 2d
       2.0601383e-11 2.0653685e-11 2.0695567e-11 2.051666e-11
0001f0 ab 2c b9 2d 94 c0 b8 2d 64 57 16 2e 7f 5f 19 2e
       2.1051902e-11 2.10039e-11 3.418367e-11 3.487299e-11
000200 ff b1 16 2e 33 66 19 2e ee 3b 19 2e 61 ce 19 2e
       3.4264144e-11 3.4878943e-11 3.48414e-11 3.4971474e-11
000210 73 0a 17 2e 0b 7e 19 2e ed 69 16 2e c2 9d 5f 31
       3.4342706e-11 3.490012e-11 3.4200132e-11 3.2540446e-09
000220 97 1a 6b 31 1c ca 5e 31 de c3 6b 31 f1 9f 76 31
       3.4212115e-09 3.2420138e-09 3.4308338e-09 3.5888628e-09
000230 8b 15 6b 31 72 7e 60 31 d3 fb 6b 31 83 49 60 31
       3.4209247e-09 3.2668166e-09 3.4340146e-09 3.2638077e-09
000240 27 ca 27 2d 4f f7 5a 2d c3 60 28 2d 43 b0 55 2d
       9.537738e-12 1.2446779e-11 9.57118e-12 1.2146786e-11
000250 d6 50 83 2d 90 0d 57 2d 9a af 1d 2d 7a f6 51 2d
       1.4928874e-11 1.22243465e-11 8.963408e-12 1.1935003e-11
000260 07 93 1d 2d 50 eb ab 2c be e7 34 2d 43 23 bd 2c
       8.957063e-12 4.8862372e-12 1.02832725e-11 5.375618e-12
000270 bb 15 31 2d f2 87 6c 2d 4e c2 36 2d e0 20 b4 2c
       1.006611e-11 1.3445233e-11 1.03886465e-11 5.1195576e-12
000280 7c 28 3a 2d d0 ad ca 2c 5f 2b 21 b3 23 bf 39 b3
       1.0581865e-11 5.7604824e-12 -3.752518e-08 -4.3247507e-08
000290 61 9e 1f b3 cb 39 3d b3 58 dc 58 b3 d2 72 3b b3
       -3.7164117e-08 -4.4057554e-08 -5.049182e-08 -4.364376e-08
0002a0 5c 53 26 b3 c1 bf 3e b3 f7 05 25 b3 94 95 cc 2c
       -3.87257e-08 -4.441222e-08 -3.842248e-08 5.8146352e-12
0002b0 59 e8 3d 2d eb 18 c5 2c 6e 15 37 2d 24 53 8a 2d
       1.0794998e-11 5.601843e-12 1.0407104e-11 1.5725705e-11
0002c0 92 d2 34 2d 45 24 ae 2c 55 16 2f 2d c4 bd a3 2c
       1.0278571e-11 4.949404e-12 9.952557e-12 4.653807e-12
0002d0 17 5e 93 b5 df 7e a6 b5 5b 8e 92 b5 ed 9b a7 b5
       -1.0979737e-06 -1.2404888e-06 -1.0919279e-06 -1.248785e-06
0002e0 6e dc ba b5 80 ee a6 b5 5e e6 94 b5 60 f5 a7 b5
       -1.3922233e-06 -1.2437376e-06 -1.1093905e-06 -1.2513883e-06
0002f0 b7 4a 94 b5 6b 4b 05 b0 8e 44 0e b0 91 a1 04 b0
       -1.1048604e-06 -4.8492294e-10 -5.175672e-10 -4.825092e-10
000300 05 f5 0e b0 9a 8a 16 b0 67 71 0e b0 2b 4b 06 b0
       -5.200749e-10 -5.4766647e-10 -5.1820453e-10 -4.8855736e-10
000310 f5 36 0f b0 a0 14 06 b0 e8 bf 14 2d 7d 23 57 2d
       -5.2101196e-10 -4.8778226e-10 8.455438e-12 1.2229215e-11
000320 c4 80 0f 2d 32 0b 58 2d d3 0d 86 2d ac 96 54 2d
       8.157201e-12 1.2280664e-11 1.5240175e-11 1.2084261e-11
000330 80 3a 13 2d b8 e3 54 2d 5c c7 0c 2d 77 71 b4 b2
       8.368972e-12 1.21013685e-11 8.002345e-12 -2.1006356e-08
000340 7a 1f ce b2 9b cb b2 b2 3d aa d2 b2 bf e0 f0 b2
       -2.399587e-08 -2.0814516e-08 -2.4524633e-08 -2.804188e-08
000350 00 4e d0 b2 86 bd ba b2 99 2a d4 b2 c4 3c b9 b2
       -2.4249857e-08 -2.1739435e-08 -2.469942e-08 -2.1564468e-08
000360 9b 6b ed b5 7a b7 fb b5 c5 10 ed b5 f5 16 fc b5
       -1.7689193e-06 -1.8754356e-06 -1.7662757e-06 -1.8782144e-06
000370 cd 68 05 b6 1d d6 fb b5 1b df ed b5 af 3a fc b5
       -1.9879546e-06 -1.8763272e-06 -1.7722808e-06 -1.8792542e-06
000380 81 df ed b5 a3 de 9b ad 4a 0c de ad d8 c8 9c ad
       -1.7722924e-06 -1.772033e-11 -2.5243935e-11 -1.782434e-11
000390 31 1b d5 ad 8e fa 0d ae ca ff d7 ad c3 e7 8c ad
       -2.4227372e-11 -3.2282226e-11 -2.4556263e-11 -1.601908e-11
0003a0 09 0a d0 ad 82 57 8d ad 7c ff 2b 2c 0b 6e 80 2b
       -2.3651319e-11 -1.6068705e-11 2.4442384e-12 9.12549e-13
0003b0 3c c9 2e 2c 0c 78 95 2b 1e 36 50 ab 1e a9 97 2b
       2.4838595e-12 1.0620406e-12 -7.3971547e-13 1.0776135e-12
0003c0 f3 43 40 2c eb 02 a2 2b 0d 49 41 2c 70 65 88 b2
       2.732256e-12 1.1511602e-12 2.74675e-12 -1.5878612e-08
0003d0 6c 87 9e b2 11 11 87 b2 1c 2b a1 b2 72 90 b8 b2
       -1.8455204e-08 -1.572383e-08 -1.876247e-08 -2.1486105e-08
0003e0 8e df 9f b2 9d 6b 8c b2 dd 4b a2 b2 eb 53 8b b2
       -1.8611697e-08 -1.6347082e-08 -1.889378e-08 -1.6219891e-08
0003f0 fe de 3d 2c c4 e9 e4 2c c2 c1 39 2c 3f b7 dc 2c
       2.69823e-12 6.506103e-12 2.6397638e-12 6.2731205e-12

h0.bias f4 [64]
000000 df e6 2e 3c 39 57 07 bc a8 ad c2 b6 e9 23 91 b6
       0.010675161 -0.008260542 -5.801867e-06 -4.3255172e-06
000010 bc 74 67 38 47 8a 25 37 46 1c bb 38 91 f2 04 b7
       5.518341e-05 9.866962e-06 8.922121e-05 -7.92429e-06
000020 8b 26 0f 37 d4 e2 2e bc 49 f9 2e bc 4f 6e 2f bc
       8.532438e-06 -0.010674197 -0.010679551 -0.010707452
000030 9d 48 96 b7 cb ac 8a b8 af a8 b5 36 fb 02 2e 3c
       -1.7915207e-05 -6.612538e-05 5.4138577e-06 0.010620828
000040 22 ed 0f 37 6d 54 2f bc 91 76 5f b6 db 92 cc b7
       8.578676e-06 -0.010701281 -3.3298604e-06 -2.438708e-05
000050 e9 39 94 b8 3b 59 2f bc ad 7b 2c 3c 85 2b cc 36
       -7.0679765e-05 -0.010702427 0.0105275335 6.08474e-06
000060 2a ef 8c b7 08 60 10 b8 40 31 1f b8 c7 41 e2 38
       -1.680067e-05 -3.442171e-05 -3.795442e-05 0.00010788772
000070 c2 50 e6 b8 3c d1 2e bc 9a 60 2d 3c 09 14 4e b6
       -0.00010982297 -0.010670003 0.010582114 -3.0708054e-06
000080 5d 05 bf b7 cb a5 08 b8 8e f8 92 b7 73 a9 48 b8
       -2.2771472e-05 -3.2579333e-05 -1.7520299e-05 -4.7841528e-05
000090 00 00 67 b8 d8 d1 2e bc 2b df 2d 3c 8e 59 08 36
       -5.507469e-05 -0.010670148 0.010612289 2.0317707e-06
0000a0 da ee a3 35 d7 e2 2e bc 11 ca f5 36 c6 20 4b 37
       1.2213961e-06 -0.0106742 7.3250926e-06 1.2107374e-05
0000b0 76 5b 87 b9 25 55 2f bc 03 75 a7 b8 5a 7b 3b b8
       -0.0002581735 -0.010701452 -7.984976e-05 -4.4699154e-05
0000c0 94 be d7 b7 11 a8 8a b7 8e 82 06 b7 b9 71 09 b7
       -2.5718742e-05 -1.6529144e-05 -8.0174195e-06 -8.192314e-06
0000d0 d1 ec 52 b7 dd 9f 27 b9 76 66 2e 3c 49 22 73 b6
       -1.25721135e-05 -0.00015985915 0.010644546 -3.6229778e-06
0000e0 53 d8 44 b8 68 2d 87 b7 ea c7 11 b6 e3 ab 2f 3c
       -4.693151e-05 -1.6114398e-05 -2.172305e-06 0.010722133
0000f0 e1 b0 1d b8 bf ad 46 b8 d8 32 c7 b7 aa 49 47 37
       -3.759645e-05 -4.7368692e-05 -2.3746325e-05 1.1878476e-05

c0.weight f4 [64, 64, 3, 3]
000000 c2 7e f5 ae d1 23 11 af 10 5e f6 ae 6e 79 12 af
       -1.1163827e-10 -1.3200398e-10 -1.1203494e-10 -1.3321763e-10
000010 1d 83 29 af 41 1f 12 af f3 35 fb ae ad 05 13 af
       -1.5417041e-10 -1.3289726e-10 -1.1423742e-10 -1.3371589e-10
000020 24 83 f8 ae 20 fc b0 2e 43 01 ab 2e 4e 75 b4 2e
       -1.13010296e-10 8.04834e-11 7.776404e-11 8.20629e-11
000030 2a 08 a7 2e 31 bb 9b 2e 5a 58 aa 2e 8f 76 ad 2e
       7.595731e-11 7.081836e-11 7.7463994e-11 7.8881894e-11
000040 50 ab a7 2e 67 67 b0 2e 7d f0 71 b6 d3 58 8f b6
       7.624712e-11 8.021921e-11 -3.605178e-06 -4.2720726e-06
000050 c2 a8 71 b6 a7 86 8f b6 f6 74 a5 b6 57 62 8f b6
       -3.6010028e-06 -4.2774077e-06 -4.9309992e-06 -4.2731804e-06
000060 20 ae 72 b6 1e 9d 8f b6 18 3c 72 b6 91 9b 11 ad
       -3.6162164e-06 -4.280023e-06 -3.609579e-06 -8.276838e-12
000070 63 18 09 ae a5 3f 19 ad c6 67 0a ae 5e 75 3c ae
       -3.1171853e-11 -8.711175e-12 -3.1469737e-11 -4.2850494e-11
000080 56 c3 09 ae 24 81 11 ad 3b 89 09 ae 6f 09 0d ad
       -3.1323687e-11 -8.270971e-12 -3.127208e-11 -8.017017e-12
000090 2c 9a 2b af 0f ac e2 ae 4b 9a 29 af 8a f2 de ae
       -1.5607132e-10 -1.0307854e-10 -1.5425276e-10 -1.0138475e-10
0000a0 e3 9a 58 ae b0 75 dc ae d3 97 23 af f0 88 d5 ae
       -4.925028e-11 -1.0025347e-10 -1.4878702e-10 -9.7104436e-11
0000b0 56 08 24 af ff b1 eb ab 12 50 31 2c 3d 48 ea ab
       -1.4918675e-10 -1.6747158e-12 2.519766e-12 -1.664675e-12
0000c0 7b 96 32 2c 4a de fa 2c c4 79 2c 2c 59 51 ce ab
       2.5378855e-12 7.1301064e-12 2.4510264e-12 -1.4659759e-12
0000d0 33 74 36 2c 14 1b e5 ab 1b 5c 33 2d 34 1d 27 2d
       2.592826e-12 -1.6278944e-12 1.01954235e-11 9.499335e-12
0000e0 4b bd 33 2d 4e 5b 29 2d b1 38 1f 2d 62 bb 28 2d
       1.02170035e-11 9.6268115e-12 9.050692e-12 9.591302e-12
0000f0 23 5d 35 2d 8e db 27 2d 59 70 33 2d 2c 3f c8 2d
       1.0309339e-11 9.541602e-12 1.0199918e-11 2.2765421e-11
000100 c0 ff c7 2d fb a7 c8 2d 9a a3 c6 2d 67 eb b8 2d
       2.2737257e-11 2.2811966e-11 2.2582648e-11 2.1022918e-11
000110 f4 5e c7 2d 07 a4 c5 2d 55 10 c5 2d a9 db c4 2d
       2.2665848e-11 2.246915e-11 2.240356e-11 2.2380169e-11
000120 74 c7 43 ae 66 b1 40 ae aa b1 45 ae f1 c5 41 ae
       -4.4515017e-11 -4.3813307e-11 -4.495041e-11 -4.4058927e-11
000130 7f aa 3c ae ef 82 42 ae 37 ce 46 ae 73 bc 42 ae
       -4.2897682e-11 -4.4226785e-11 -4.5203143e-11 -4.427787e-11
000140 2d 9a 46 ae 9a 9f 51 33 ff ad 7b 33 8c 67 52 33
       -4.5156923e-11 4.880676e-08 5.859874e-08 4.898861e-08
000150 61 1a 7f 33 4c e5 9c 33 e3 2d 7e 33 1c e1 58 33
       5.9395806e-08 7.306025e-08 5.9180717e-08 5.0496155e-08
000160 fe ec 80 33 3c 94 58 33 bc ea d5 33 29 f2 fd 33
       6.003573e-08 5.0426237e-08 9.961283e-08 1.1825279e-07
000170 d6 e0 d6 33 18 b1 00 34 04 60 1d 34 ab 36 00 34
       1.0006049e-07 1.1985355e-07 1.4656695e-07 1.1940817e-07
000180 23 00 dd 33 fb ff 01 34 dd da dc 33 2c 18 22 33
       1.0291139e-07 1.2107186e-07 1.0284359e-07 3.774055e-08
000190 15 5d 8e 32 2a 17 27 33 5d a8 80 32 9a ce 89 b1
       1.6573305e-08 3.8903785e-08 1.4977724e-08 -4.0107127e-09
0001a0 1e a7 8a 32 71 08 17 33 d9 3c 79 32 18 03 1f 33
       1.614131e-08 3.5165105e-08 1.4507543e-08 3.7022886e-08
0001b0 af 57 65 2e 70 4b 65 2e 30 36 66 2e 7e 3f 65 2e
       5.214645e-11 5.2135574e-11 5.2344074e-11 5.2124964e-11
0001c0 2b bb 4c 2e 39 8f 65 2e 94 99 62 2e 4f 0b 63 2e
       4.655047e-11 5.219578e-11 5.1522855e-11 5.162387e-11
0001d0 c0 a6 62 2e 69 31 0a ae 17 74 02 ae 34 cd 08 ae
       5.1534554e-11 -3.1421452e-11 -2.9661686e-11 -3.1105077e-11
0001e0 e3 17 02 ae 6f f8 d9 ad 99 d1 00 ae d6 08 07 ae
       -2.9579793e-11 -2.478037e-11 -2.928999e-11 -3.0703294e-11
0001f0 21 68 fd ad d7 10 07 ae 83 71 e0 2d 8d 1b d6 2d
       -2.8809012e-11 -3.0710403e-11 2.5516261e-11 2.4341218e-11
000200 28 01 e3 2d f1 62 d5 2d 10 1e d6 2d 59 ed d6 2d
       2.5807426e-11 2.4259235e-11 2.4342334e-11 2.4434387e-11
000210 7a 17 e2 2d 76 21 d6 2d d6 7b e2 2d ba ae 4f 30
       2.5703651e-11 2.4343843e-11 2.574822e-11 7.555446e-10
000220 e0 e4 83 30 c3 b3 4e 30 13 0a 86 30 6c 09 a9 30
       9.596555e-10 7.519782e-10 9.752646e-10 1.2299046e-09
000230 a2 e9 84 30 7c 5a 57 30 b2 32 87 30 c3 ab 55 30
       9.670666e-10 7.834513e-10 9.836951e-10 7.7733037e-10
000240 a5 78 db ac 04 f8 87 ac 0b 7e e2 ac fb 5a 91 ac
       -6.2377486e-12 -3.864466e-12 -6.4373e-12 -4.1312487e-12
000250 43 ab ee ab ea c5 92 ac 4d 1f f3 ac 89 89 9a ac
       -1.6958452e-12 -4.1715425e-12 -6.9099505e-12 -4.3922127e-12
000260 4e 4d f4 ac d0 e4 37 ae 98 12 37 ae 1f 85 36 ae
       -6.9434796e-12 -4.181261e-11 -4.1625897e-11 -4.1500244e-11
000270 83 42 37 ae 70 40 34 ae d1 c4 36 ae 9b 7a 36 ae
       -4.1668457e-11 -4.0984494e-11 -4.1556817e-11 -4.1490904e-11
000280 72 85 35 ae 48 46 35 ae d0 36 a3 31 ab 2e 48 b1
       -4.127316e-11 -4.1217058e-11 4.750156e-09 -2.9130358e-09
000290 7e 30 a1 31 5e c2 67 b1 cc 5f 26 b2 b8 cf 63 b1
       4.6912296e-09 -3.372541e-09 -9.684253e-09 -3.3150922e-09
0002a0 27 06 7d 31 51 32 81 b1 15 73 87 31 f1 ca b3 ad
       3.6819843e-09 -3.7601144e-09 3.9421004e-09 -2.0440068e-11
0002b0 ed ad 92 ad c2 0b b6 ad 39 de 93 ad f6 c8 65 ad
       -1.6675517e-11 -2.0696226e-11 -1.6810652e-11 -1.3061765e-11
0002c0 2f 42 95 ad 30 58 b6 ad 4c 4c 95 ad d4 98 b7 ad
       -1.696873e-11 -2.0730168e-11 -1.6973221e-11 -2.087256e-11
0002d0 d9 c1 81 b4 ef dc 9d b4 a4 11 83 b4 43 14 a0 b4
       -2.4169165e-07 -2.940428e-07 -2.4413487e-07 -2.9817065e-07
0002e0 13 aa b6 b4 18 55 a0 b4 97 6c 87 b4 8d 4b a2 b4
       -3.4023887e-07 -2.9864236e-07 -2.522472e-07 -3.0229822e-07
0002f0 e6 59 87 b4 29 cd d2 ae db b3 f4 ae 03 67 d4 ae
       -2.521112e-07 -9.586138e-11 -1.1127784e-10 -9.6589424e-11
000300 2e 9e fa ae 7a 77 1c af 86 6a f8 ae 4e 20 de ae
       -1.1396782e-10 -1.4230564e-10 -1.1296657e-10 -1.010113e-10
000310 87 7b fe ae 7c 3b de ae 01 da 46 ad 85 54 3a ad
       -1.15725256e-10 -1.0105958e-10 -1.13034035e-11 -1.0591643e-11
000320 11 2f 49 ad 62 a9 3b ad 6b 71 3b ad f0 d1 3b ad
       -1.1435978e-11 -1.066733e-11 -1.0654903e-11 -1.0676335e-11
000330 20 15 46 ad 8f 72 3b ad a3 0f 48 ad e6 bd e1 31
       -1.1259688e-11 -1.06551564e-11 -1.1372156e-11 6.569951e-09
000340 51 5f ee 30 af a3 e6 31 48 89 b1 30 a0 4f 54 b1
       1.734387e-09 6.7124897e-09 1.2917463e-09 -3.0895322e-09
000350 e2 b0 ce 30 8a 16 cb 31 72 7b a7 30 93 37 d8 31
       1.5038746e-09 5.91064e-09 1.2185934e-09 6.2927454e-09
000360 cc be 11 b5 73 3b 35 b5 0c 7e 11 b5 da 35 36 b5
       -5.4294355e-07 -6.7514264e-07 -5.420013e-07 -6.787865e-07
000370 aa 88 5d b5 fd b9 35 b5 ea b1 13 b5 a8 d7 36 b5
       -8.252779e-07 -6.7698403e-07 -5.5020666e-07 -6.8114105e-07
000380 97 21 13 b5 e3 8f 30 2e 11 bf 0d 2e aa 7c 33 2e
       -5.4810647e-07 4.0145564e-11 3.222939e-11 4.0810612e-11
000390 9c e1 0f 2e c2 c2 c9 2d 8f 87 11 2e 23 ab 36 2e
       3.2714817e-11 2.2937544e-11 3.3089583e-11 4.153401e-11
0003a0 5a 92 12 2e f4 ab 37 2e 38 1b cd 2d cf 4d be 2d
       3.3326543e-11 4.1762108e-11 2.331789e-11 2.1635053e-11
0003b0 94 68 ce 2d 43 c4 be 2d b7 36 a5 2d 8b a9 bf 2d
       2.346593e-11 2.1687657e-11 1.8782626e-11 2.1789478e-11
0003c0 b1 c4 ce 2d 95 b6 bf 2d 8f 3e cf 2d de 43 4d 30
       2.3506837e-11 2.1795269e-11 2.3560957e-11 7.467501e-10
0003d0 d0 b2 37 b1 8d 17 1d 30 91 80 3c b1 8e ff ac b1
       -2.6731648e-09 5.7149735e-10 -2.7430682e-09 -5.034912e-09
0003e0 9e 8b 42 b1 33 35 f1 2f d1 ab 47 b1 20 b6 e4 2f
       -2.8310079e-09 4.3875445e-10 -2.9055978e-09 4.1602366e-10
0003f0 c1 87 ad ad 10 0c ab ad c9 2b ae ad 92 91 ab ad
       -1.972811e-11 -1.9445806e-11 -1.9800954e-11 -1.9505095e-11

c0.bias f4 [64]
000000 f0 60 9d 3b f3 82 50 bb 47 85 5e b6 9d 7b 86 36
       0.0048028156 -0.0031816333 -3.3158155e-06 4.0079017e-06
000010 f1 3f 33 38 66 98 4f 36 63 f9 a1 38 4b 7a e3 b6
       4.2736476e-05 3.0934111e-06 7.72353e-05 -6.779364e-06
000020 56 c2 0a 37 d6 b7 9c bb 48 59 9d bb d7 ea 9f bb
       8.270688e-06 -0.004782657 -0.004801903 -0.00488029
000030 3b 36 4d b7 dd 07 56 b8 9b 74 8a 36 fa 14 9a 3b
       -1.2231579e-05 -5.10289e-05 4.126295e-06 0.0047022076
000040 d9 ed 97 b6 0f c3 9f bb 29 07 49 b7 34 d6 9a b7
       -4.52784e-06 -0.0048755477 -1.1982201e-05 -1.8457977e-05
000050 02 78 3f b8 32 06 a0 bb 2e 2d 95 3b 84 5c ad b6
       -4.5649715e-05 -0.004883551 0.004552505 -5.166572e-06
000060 9a 09 a8 b7 db f8 d7 b7 ec 9d 00 b8 09 f4 41 38
       -2.0031632e-05 -2.574588e-05 -3.0664654e-05 4.624206e-05
000070 16 a7 84 b8 0a 33 9d bb 72 77 97 3b b7 0c 35 36
       -6.325373e-05 -0.004797344 0.0046223933 2.6978503e-06
000080 57 c4 55 b8 50 e5 e1 b7 ab d5 a1 b7 e1 07 07 b8
       -5.0966013e-05 -2.6928872e-05 -1.9292193e-05 -3.2193846e-05
000090 30 be cc b7 15 9b 9d bb 4a 90 99 3b eb 8b 51 b6
       -2.4407258e-05 -0.004809747 0.00468639 -3.122487e-06
0000a0 f7 e0 04 36 da 01 9d bb 47 ce 8f 36 73 09 23 34
       1.980048e-06 -0.0047914805 4.285746e-06 1.5183996e-07
0000b0 a1 06 13 b9 a3 73 9f bb 28 6a 19 b8 94 48 e7 b7
       -0.00014021482 -0.00486608 -3.657691e-05 -2.7571143e-05
0000c0 0d 56 5c b8 8b 9d b5 b7 e5 37 5c b7 f8 03 79 b7
       -5.253223e-05 -2.1650243e-05 -1.3126036e-05 -1.4842481e-05
0000d0 1c 85 81 b7 c9 a9 08 b7 6a b1 9b 3b 34 02 56 b7
       -1.5439982e-05 -8.145763e-06 0.004751374 -1.2755907e-05
0000e0 66 84 2d b8 b1 00 5f b6 9e 03 0c 36 ad 1c a1 3b
       -4.136972e-05 -3.3229992e-06 2.0863731e-06 0.0049167485
0000f0 c8 57 93 b7 46 be bf b8 c7 11 77 37 9a e5 48 35
       -1.7564642e-05 -9.143031e-05 1.4726486e-05 7.483992e-07

conv.weight f4 [64, 64, 3, 3]
000000 d8 d5 f7 39 89 35 09 3a 3e d6 f7 39 98 35 09 3a
       0.00047270837 0.00052341126 0.00047271134 0.00052341213
000010 b1 fc 0c 3a be 34 09 3a 1c d5 f7 39 91 33 09 3a
       0.000537823 0.00052339945 0.0004727029 0.0005233819
000020 3e d2 f7 39 ed ec e3 b9 90 c2 fe b9 57 ed e3 b9
       0.00047268154 -0.00043473337 -0.00048591616 -0.00043473646
000030 a2 c2 fe b9 b0 9b 06 ba 32 c1 fe b9 32 ec e3 b9
       -0.00048591668 -0.00051348936 -0.00048590597 -0.00043472793
000040 3a bf fe b9 88 ea e3 b9 f4 21 c8 b3 62 8d c2 b5
       -0.0004858913 -0.00043471553 -9.319402e-08 -1.4495274e-06
000050 ca 1c c8 b3 b3 8d c2 b5 c1 4c 28 b7 04 91 c2 b5
       -9.3184624e-08 -1.4495366e-06 -1.0031451e-05 -1.4496331e-06
000060 51 23 c8 b3 56 90 c2 b5 91 24 c8 b3 d9 4c 7f 35
       -9.31965e-08 -1.4496134e-06 -9.319877e-08 9.510673e-07
000070 3e 1e d5 b7 70 4d 7f 35 f3 1d d5 b7 68 d0 d0 b8
       -2.5405661e-05 9.510759e-07 -2.5405525e-05 -9.9570316e-05
000080 bd 1d d5 b7 7e 4c 7f 35 79 1d d5 b7 9b 4c 7f 35
       -2.5405427e-05 9.5106213e-07 -2.5405303e-05 9.510638e-07
000090 1f 20 38 37 71 60 47 37 e0 1f 38 37 89 60 47 37
       1.0974733e-05 1.1883779e-05 1.0974676e-05 1.1883801e-05
0000a0 56 68 ac b6 22 60 47 37 e7 1f 38 37 35 60 47 37
       -5.1381458e-06 1.1883707e-05 1.09746825e-05 1.1883724e-05
0000b0 a7 1f 38 37 19 1d 5b 37 ea 4c 30 b7 58 1d 5b 37
       1.0974624e-05 1.3060192e-05 -1.0508325e-05 1.3060249e-05
0000c0 bf 4c 30 b7 5e 23 f5 b8 d2 4b 30 b7 c7 1d 5b 37
       -1.0508286e-05 -0.00011689098 -1.0508071e-05 1.306035e-05
0000d0 86 4b 30 b7 fe 1d 5b 37 fd f4 5b 38 a5 ae 01 b8
       -1.0508002e-05 1.30604e-05 5.2441832e-05 -3.0918647e-05
0000e0 ce f4 5b 38 6a ae 01 b8 02 8e ed b8 76 ae 01 b8
       5.244166e-05 -3.0918432e-05 -0.00011327492 -3.0918476e-05
0000f0 0f f5 5b 38 69 ae 01 b8 9c f4 5b 38 28 ff 39 32
       5.2441897e-05 -3.091843e-05 5.244148e-05 1.0826433e-08
000100 17 01 c3 b5 c2 a2 3a 32 2f 01 c3 b5 72 37 68 37
       -1.4528949e-06 1.0863632e-08 -1.4528977e-06 1.3841187e-05
000110 74 01 c3 b5 13 db 39 32 34 01 c3 b5 8c 2c 3a 32
       -1.4529055e-06 1.0818229e-08 -1.4528982e-06 1.0836754e-08
000120 a1 73 45 36 6b e7 6d 36 89 73 45 36 a4 e7 6d 36
       2.9422592e-06 3.5450455e-06 2.9422538e-06 3.5450585e-06
000130 08 d5 6e 36 48 e7 6d 36 93 73 45 36 5f e7 6d 36
       3.5588764e-06 3.5450375e-06 2.942256e-06 3.5450428e-06
000140 55 73 45 36 fa 46 f8 b9 02 bb 09 ba 7e 47 f8 b9
       2.942242e-06 -0.00047355128 -0.00052540016 -0.00047355512
000150 d7 ba 09 ba dc 07 0e ba f1 b9 09 ba 23 46 f8 b9
       -0.00052539766 -0.0005418041 -0.00052538427 -0.00047354502
000160 e4 b8 09 ba 9f 43 f8 b9 ba 4d f8 b9 6a d2 09 ba
       -0.0005253686 -0.00047352628 -0.00047360157 -0.00052574894
000170 2e 4e f8 b9 65 d2 09 ba 0d 6e 0e ba 6d d1 09 ba
       -0.00047360495 -0.00052574865 -0.0005433269 -0.0005257342
000180 0d 4d f8 b9 37 d0 09 ba 74 4a f8 b9 f0 8e f8 b9
       -0.00047359653 -0.00052571617 -0.00047357718 -0.00047408743
000190 bd ec 09 ba d8 8f f8 b9 c0 ec 09 ba 52 23 0e ba
       -0.0005261412 -0.00047409418 -0.0005261414 -0.0005422133
0001a0 cd eb 09 ba 74 8e f8 b9 a2 ea 09 ba d4 8b f8 b9
       -0.00052612723 -0.00047408382 -0.0005261098 -0.00047406426
0001b0 3f 10 47 36 2c 39 28 37 21 10 47 36 2a 39 28 37
       2.9662767e-06 1.0026892e-05 2.96627e-06 1.002689e-05
0001c0 13 17 b3 37 19 39 28 37 1b 10 47 36 1a 39 28 37
       2.1349208e-05 1.0026874e-05 2.9662685e-06 1.0026875e-05
0001d0 fc 0f 47 36 b2 8e 1d b7 aa b5 97 37 a3 8e 1d b7
       2.9662615e-06 -9.391153e-06 1.8085197e-05 -9.391139e-06
0001e0 91 b5 97 37 9b 4b 5c 38 9e b5 97 37 b4 8e 1d b7
       1.8085151e-05 5.25225e-05 1.8085175e-05 -9.391155e-06
0001f0 98 b5 97 37 7f 8e 1d b7 78 52 91 34 69 4b e3 34
       1.8085164e-05 -9.391107e-06 2.7068359e-07 4.2336913e-07
000200 63 52 91 34 72 4b e3 34 ca 1b 50 36 45 4b e3 34
       2.70683e-07 4.2336939e-07 3.101059e-06 4.233681e-07
000210 90 52 91 34 20 4b e3 34 21 52 91 34 e8 c3 f6 39
       2.7068427e-07 4.2336706e-07 2.706811e-07 0.00047066738
000220 86 60 08 3a 43 c4 f6 39 88 60 08 3a 6a 81 0c 3a
       0.00052023714 0.00047067003 0.00052023726 0.00053598604
000230 91 5f 08 3a 10 c3 f6 39 93 5e 08 3a 63 c0 f6 39
       0.0005202229 0.0004706611 0.0005202081 0.00047064116
000240 9e 51 40 b5 7c db ef b6 d5 5a 40 b5 ae db ef b6
       -7.164434e-07 -7.1483064e-06 -7.165775e-07 -7.148329e-06
000250 3a 1a b4 b7 3d db ef b6 51 5b 40 b5 47 db ef b6
       -2.1469885e-05 -7.1482777e-06 -7.1658457e-07 -7.1482823e-06
000260 df 64 40 b5 99 fd f6 b9 65 13 08 ba fb fd f6 b9
       -7.167236e-07 -0.0004710972 -0.00051908783 -0.00047110007
000270 57 13 08 ba a7 86 08 ba 75 12 08 ba a5 fc f6 b9
       -0.000519087 -0.0005208053 -0.00051907386 -0.0004710901
000280 54 11 08 ba 19 fa f6 b9 9b 58 bb 36 16 db c2 36
       -0.00051905704 -0.00047107114 5.5833493e-06 5.8071555e-06
000290 12 59 bb 36 ee da c2 36 2d 5c c0 b8 29 da c2 36
       5.5834034e-06 5.8071373e-06 -9.1724425e-05 5.8070477e-06
0002a0 a7 59 bb 36 35 d9 c2 36 31 5a bb 36 57 05 19 b7
       5.583471e-06 5.8069368e-06 5.583534e-06 -9.120754e-06
0002b0 8f 27 c2 b6 53 05 19 b7 ff 27 c2 b6 ee ea 80 37
       -5.7862558e-06 -9.12075e-06 -5.7863067e-06 1.5368187e-05
0002c0 49 27 c2 b6 67 05 19 b7 dc 27 c2 b6 2d 05 19 b7
       -5.786224e-06 -9.1207685e-06 -5.786291e-06 -9.120716e-06
0002d0 2f dd 95 36 86 1a 80 37 0b dd 95 36 7b 1a 80 37
       4.466295e-06 1.527114e-05 4.466279e-06 1.527112e-05
0002e0 b8 21 4e 38 74 1a 80 37 10 dd 95 36 74 1a 80 37
       4.914563e-05 1.5271107e-05 4.466281e-06 1.5271107e-05
0002f0 f5 dc 95 36 88 7f f6 b9 17 68 07 ba fe 7f f6 b9
       4.466269e-06 -0.00047015795 -0.0005165352 -0.00047016138
000300 fe 67 07 ba 84 2d 06 ba 03 67 07 ba fd 7e f6 b9
       -0.00051653374 -0.00051184767 -0.0005165191 -0.0004701539
000310 ed 65 07 ba 6c 7c f6 b9 1d 90 ed 39 e6 7b f9 39
       -0.00051650294 -0.00047013478 0.00045311535 0.00047585292
000320 c2 90 ed 39 a0 7b f9 39 22 e1 f6 39 0a 7a f9 39
       0.00045312016 0.0004758509 0.00047088513 0.00047583907
000330 73 8f ed 39 f4 77 f9 39 d6 8c ed 39 54 2e 24 b6
       0.0004531104 0.00047582353 0.00045309094 -2.446487e-06
000340 8d 31 95 b6 02 2d 24 b6 5e 31 95 b6 e8 8b a7 b8
       -4.4463145e-06 -2.4464102e-06 -4.446293e-06 -7.98924e-05
000350 50 32 95 b6 17 31 24 b6 a7 32 95 b6 be 2e 24 b6
       -4.446403e-06 -2.4466478e-06 -4.4464427e-06 -2.4465112e-06
000360 8e 8f 3a 36 17 d6 62 36 4d 8f 3a 36 11 d6 62 36
       2.779972e-06 3.380124e-06 2.7799572e-06 3.3801227e-06
000370 69 5e e4 35 25 d6 62 36 3d 8f 3a 36 28 d6 62 36
       1.7014801e-06 3.3801273e-06 2.7799535e-06 3.380128e-06
000380 bf 8e 3a 36 9d 60 36 b7 31 0e b3 36 7f 60 36 b7
       2.779925e-06 -1.087054e-05 5.336268e-06 -1.0870513e-05
000390 2d 0d b3 36 64 8b f5 37 05 0e b3 36 c7 60 36 b7
       5.3361496e-06 2.9271185e-05 5.336248e-06 -1.0870578e-05
0003a0 bd 0d b3 36 48 60 36 b7 1d ee 01 b7 f1 08 95 36
       5.336215e-06 -1.0870463e-05 -7.744439e-06 4.441587e-06
0003b0 05 ee 01 b7 64 08 95 36 36 7f 86 37 15 09 95 36
       -7.744417e-06 4.441523e-06 1.6033282e-05 4.4416033e-06
0003c0 3a ee 01 b7 ad 08 95 36 e8 ed 01 b7 d0 3d dc b6
       -7.744466e-06 4.441556e-06 -7.744391e-06 -6.563707e-06
0003d0 5b 16 1c b8 6d 3d dc b6 43 16 1c b8 50 2e ec b8
       -3.721412e-05 -6.563662e-06 -3.721403e-05 -0.00011261983
0003e0 44 16 1c b8 4c 3d dc b6 3e 16 1c b8 6b 3d dc b6
       -3.7214035e-05 -6.563647e-06 -3.7214013e-05 -6.563661e-06
0003f0 c1 b2 7b b6 0a 9e 09 b9 6a b6 7b b6 11 9e 09 b9
       -3.7505963e-06 -0.00013124212 -3.7508094e-06 -0.00013124222

conv.bias f4 [64]
000000 94 76 12 3a 91 76 12 3a 83 76 12 3a 5d 76 12 ba
       0.00055871275 0.0005587126 0.00055871176 -0.00055870955
000010 d7 68 5e bc 43 76 12 ba 6c 76 12 ba 4d 76 12 ba
       -0.0135748 -0.00055870804 -0.0005587104 -0.0005587086
000020 8a 76 12 ba 90 76 12 ba 97 76 12 ba 96 76 12 ba
       -0.00055871217 -0.0005587125 -0.0005587129 -0.00055871287
000030 31 76 12 3a 75 76 12 3a c1 76 12 ba 25 6c 08 3a
       0.000558707 0.00055871095 -0.0005587154 0.0005204103
000040 78 76 12 3a 5a 76 12 3a 8a 76 12 ba 95 76 12 3a
       0.0005587111 0.0005587094 -0.00055871217 0.0005587128
000050 3d 76 12 3a 47 76 12 3a 45 76 12 3a 59 76 12 3a
       0.0005587077 0.00055870827 0.00055870815 0.0005587093
000060 4b 76 12 3a a4 76 12 3a 49 76 12 ba ba 76 12 3a
       0.0005587085 0.0005587137 -0.0005587084 0.00055871496
000070 9c 76 12 ba 67 76 12 3a 9b 76 12 3a 8b 76 12 3a
       -0.0005587132 0.00055871013 0.00055871316 0.0005587122
000080 b8 76 12 ba 5d 94 34 3d 8d 76 12 ba 6b 76 12 ba
       -0.00055871485 0.044086803 -0.00055871235 -0.00055871037
000090 d0 76 12 3a 87 ef c2 bd 90 76 12 3a 93 76 12 ba
       0.00055871624 -0.095183425 0.0005587125 -0.0005587127
0000a0 9c 76 12 ba 21 52 18 be 50 76 12 3a 90 76 12 ba
       -0.0005587132 -0.1487508 0.0005587088 -0.0005587125
0000b0 41 76 12 3a 95 76 12 ba 64 76 12 ba 5c 15 12 be
       0.0005587079 -0.0005587128 -0.00055870996 -0.1426596
0000c0 6c 17 c2 bd 13 d5 a5 bd 95 76 12 ba 52 88 ad bd
       -0.094771236 -0.08097281 -0.0005587128 -0.08473267
0000d0 a8 76 12 3a 3f 76 12 ba 94 76 12 ba 60 76 12 ba
       0.0005587139 -0.0005587078 -0.00055871275 -0.0005587097
0000e0 7c 76 12 ba 86 76 12 3a 7b 76 12 ba 89 76 12 3a
       -0.00055871136 0.00055871194 -0.0005587113 0.0005587121
0000f0 55 76 12 3a 94 76 12 ba b9 76 12 3a 54 76 12 3a
       0.0005587091 -0.00055871275 0.0005587149 0.000558709

lstm.weight_ih f4 [256, 64]
000000 32 6d 63 3a 30 6d 63 3a 33 6d 63 3a 33 6d 63 ba
       0.0008675634 0.0008675633 0.0008675635 -0.0008675635
000010 8d 09 57 bb 2f 6d 63 ba 38 6d 63 ba 32 6d 63 ba
       -0.003281209 -0.00086756324 -0.00086756377 -0.0008675634
000020 38 6d 63 ba 32 6d 63 ba 30 6d 63 ba 35 6d 63 ba
       -0.00086756377 -0.0008675634 -0.0008675633 -0.0008675636
000030 2f 6d 63 3a 3a 6d 63 3a 38 6d 63 ba d3 24 5f 3a
       0.00086756324 0.0008675639 -0.00086756377 0.0008512262
000040 38 6d 63 3a 31 6d 63 3a 36 6d 63 ba 35 6d 63 3a
       0.00086756377 0.00086756336 -0.00086756365 0.0008675636
000050 35 6d 63 3a 32 6d 63 3a 30 6d 63 3a 36 6d 63 3a
       0.0008675636 0.0008675634 0.0008675633 0.00086756365
000060 31 6d 63 3a 32 6d 63 3a 30 6d 63 ba 36 6d 63 3a
       0.00086756336 0.0008675634 -0.0008675633 0.00086756365
000070 37 6d 63 ba 33 6d 63 3a 30 6d 63 3a 39 6d 63 3a
       -0.0008675637 0.0008675635 0.0008675633 0.0008675638
000080 34 6d 63 ba 37 01 2f 3c 3b 6d 63 ba 34 6d 63 ba
       -0.00086756353 0.010681442 -0.00086756394 -0.00086756353
000090 3f 6d 63 3a 1c 3a bd bc 30 6d 63 3a 39 6d 63 ba
       0.0008675642 -0.023098998 0.0008675633 -0.0008675638
0000a0 3d 6d 63 ba df f1 13 bd 30 6d 63 3a 33 6d 63 ba
       -0.00086756406 -0.036119338 0.0008675633 -0.0008675635
0000b0 28 6d 63 3a 39 6d 63 ba 36 6d 63 ba c1 e4 0d bd
       0.00086756283 -0.0008675638 -0.00086756365 -0.034641985
0000c0 a6 54 bc bc f5 de a0 bc 31 6d 63 ba 44 3d a8 bc
       -0.022989582 -0.019637564 -0.00086756336 -0.020537026
0000d0 33 6d 63 3a 30 6d 63 ba 31 6d 63 ba 32 6d 63 ba
       0.0008675635 -0.0008675633 -0.00086756336 -0.0008675634
0000e0 31 6d 63 ba 32 6d 63 3a 36 6d 63 ba 2f 6d 63 3a
       -0.00086756336 0.0008675634 -0.00086756365 0.00086756324
0000f0 32 6d 63 3a 3a 6d 63 ba 33 6d 63 3a 2d 6d 63 3a
       0.0008675634 -0.0008675639 0.0008675635 0.0008675631
000100 b4 cd 16 ba b9 cd 16 ba b0 cd 16 ba c7 cd 16 3a
       -0.0005752698 -0.0005752701 -0.0005752696 0.0005752709
000110 69 24 e7 bc 15 ce 16 3a be cd 16 3a 11 ce 16 3a
       -0.028215604 0.00057527545 0.0005752704 0.0005752752
000120 a0 cd 16 3a b1 cd 16 3a ac cd 16 3a b5 cd 16 3a
       0.00057526864 0.00057526963 0.00057526934 0.00057526986
000130 02 ce 16 ba c8 cd 16 ba cd cd 16 3a 66 a2 15 ba
       -0.00057527435 -0.00057527097 0.00057527126 -0.0005708098
000140 bd cd 16 ba a6 cd 16 ba c9 cd 16 3a c7 cd 16 ba
       -0.00057527033 -0.000575269 0.000575271 -0.0005752709
000150 d4 cd 16 ba d6 cd 16 ba fb cd 16 ba ca cd 16 ba
       -0.00057527167 -0.0005752718 -0.00057527394 -0.0005752711
000160 01 ce 16 ba ff cd 16 ba 0e ce 16 3a bf cd 16 ba
       -0.0005752743 -0.00057527417 0.00057527504 -0.00057527045
000170 a2 cd 16 3a a3 cd 16 ba b1 cd 16 ba ae cd 16 ba
       0.00057526876 -0.0005752688 -0.00057526963 -0.00057526946
000180 ae cd 16 3a c9 21 4a 3d c6 cd 16 3a c9 cd 16 3a
       0.00057526946 0.049348626 0.00057527085 0.000575271
000190 90 cd 16 ba 76 22 aa bd b1 cd 16 ba ca cd 16 3a
       -0.0005752677 -0.08307354 -0.00057526963 0.0005752711
0001a0 a2 cd 16 3a 46 cd f4 bd d0 cd 16 ba c7 cd 16 3a
       0.00057526876 -0.11953215 -0.00057527144 0.0005752709
0001b0 04 ce 16 ba bf cd 16 3a 90 cd 16 3a 70 0b e8 bd
       -0.00057527446 0.00057527045 0.0005752677 -0.113303065
0001c0 cf b5 a7 bd 17 bc 96 bd cd cd 16 3a ae f6 9b bd
       -0.08188974 -0.07360094 0.00057527126 -0.0761541
0001d0 b6 cd 16 ba ed cd 16 3a af cd 16 3a a4 cd 16 3a
       -0.0005752699 0.0005752731 0.0005752695 0.0005752689
0001e0 d3 cd 16 3a a2 cd 16 ba bc cd 16 3a cd cd 16 ba
       0.0005752716 -0.00057526876 0.0005752703 -0.00057527126
0001f0 e4 cd 16 ba a4 cd 16 3a bc cd 16 ba 07 ce 16 ba
       -0.0005752726 0.0005752689 -0.0005752703 -0.00057527464
000200 cd 03 29 ba cc 03 29 ba ce 03 29 ba c5 03 29 3a
       -0.0006447405 -0.0006447404 -0.00064474053 0.00064474
000210 1c 66 ee 3b be 03 29 3a cc 03 29 3a c3 03 29 3a
       0.007275356 0.0006447396 0.0006447404 0.0006447399
000220 d0 03 29 3a cd 03 29 3a cb 03 29 3a cc 03 29 3a
       0.00064474065 0.0006447405 0.00064474036 0.0006447404
000230 bd 03 29 ba c7 03 29 ba e0 03 29 3a ed b7 23 ba
       -0.00064473954 -0.0006447401 0.0006447416 -0.00062453636
000240 c6 03 29 ba c3 03 29 ba d0 03 29 3a cb 03 29 ba
       -0.00064474007 -0.0006447399 0.00064474065 -0.00064474036
000250 c4 03 29 ba c3 03 29 ba c0 03 29 ba c5 03 29 ba
       -0.00064473995 -0.0006447399 -0.0006447397 -0.00064474
000260 bf 03 29 ba c9 03 29 ba c0 03 29 3a cb 03 29 ba
       -0.00064473966 -0.00064474024 0.0006447397 -0.00064474036
000270 d0 03 29 3a c4 03 29 ba cd 03 29 ba cb 03 29 ba
       0.00064474065 -0.00064473995 -0.0006447405 -0.00064474036
000280 d1 03 29 3a b4 98 cd bc cb 03 29 3a c6 03 29 3a
       0.0006447407 -0.025097229 0.00064474036 0.00064474007
000290 dc 03 29 ba 9d 14 60 3d cc 03 29 ba ca 03 29 3a
       -0.00064474135 0.05470716 -0.0006447404 0.0006447403
0002a0 cd 03 29 3a df cf af 3d c3 03 29 ba cc 03 29 3a
       0.0006447405 0.0858457 -0.0006447399 0.0006447404
0002b0 bb 03 29 ba cb 03 29 3a c5 03 29 3a a6 76 a8 3d
       -0.0006447394 0.00064474036 0.00064474 0.082257554
0002c0 f3 e2 5e 3d fc 36 3e 3d cc 03 29 3a 7f fe 46 3d
       0.054415654 0.046439156 0.0006447404 0.04858255
0002d0 cd 03 29 ba c1 03 29 3a cc 03 29 3a c4 03 29 3a
       -0.0006447405 0.0006447398 0.0006447404 0.00064473995
0002e0 cb 03 29 3a cd 03 29 ba ca 03 29 3a cc 03 29 ba
       0.00064474036 -0.0006447405 0.0006447403 -0.0006447404
0002f0 c2 03 29 ba cd 03 29 3a cb 03 29 ba bc 03 29 ba
       -0.00064473983 0.0006447405 -0.00064474036 -0.0006447395
000300 8c 31 a2 b9 8e 31 a2 b9 8d 31 a2 b9 76 31 a2 39
       -0.00030935963 -0.0003093597 -0.00030935966 0.000309359
000310 c8 e9 dc 3b 73 31 a2 39 81 31 a2 39 72 31 a2 39
       0.006741736 0.0003093589 0.0003093593 0.00030935887
000320 8b 31 a2 39 8d 31 a2 39 8e 31 a2 39 8f 31 a2 39
       0.0003093596 0.00030935966 0.0003093597 0.00030935972
000330 6d 31 a2 b9 7c 31 a2 b9 b1 31 a2 39 04 9e 9c b9
       -0.00030935873 -0.00030935917 0.0003093607 -0.0002987237
000340 79 31 a2 b9 71 31 a2 b9 8d 31 a2 39 90 31 a2 b9
       -0.00030935908 -0.00030935885 0.00030935966 -0.00030935975
000350 73 31 a2 b9 73 31 a2 b9 71 31 a2 b9 74 31 a2 b9
       -0.0003093589 -0.0003093589 -0.00030935885 -0.00030935893
000360 72 31 a2 b9 84 31 a2 b9 76 31 a2 39 91 31 a2 b9
       -0.00030935887 -0.0003093594 0.000309359 -0.00030935978
000370 8f 31 a2 39 75 31 a2 b9 8c 31 a2 b9 89 31 a2 b9
       0.00030935972 -0.00030935896 -0.00030935963 -0.00030935954
000380 94 31 a2 39 fe 3c ca bc 8e 31 a2 39 71 31 a2 39
       0.00030935986 -0.024687286 0.0003093597 0.00030935885
000390 a3 31 a2 b9 b7 f1 5f 3d 8d 31 a2 b9 8b 31 a2 39
       -0.0003093603 0.054673877 -0.00030935966 0.0003093596
0003a0 8c 31 a2 39 66 93 b0 3d 76 31 a2 b9 8f 31 a2 39
       0.00030935963 0.08621864 -0.000309359 0.00030935972
0003b0 74 31 a2 b9 8d 31 a2 39 77 31 a2 39 4a 2a a9 3d
       -0.00030935893 0.00030935966 0.00030935902 0.08260019
0003c0 00 cd 5e 3d 67 b0 3d 3d 88 31 a2 39 01 8e 46 3d
       0.054394722 0.04631081 0.00030935952 0.04847527
0003d0 8d 31 a2 b9 77 31 a2 39 89 31 a2 39 72 31 a2 39
       -0.00030935966 0.00030935902 0.00030935954 0.00030935887
0003e0 8e 31 a2 39 94 31 a2 b9 80 31 a2 39 8e 31 a2 b9
       0.0003093597 -0.00030935986 0.00030935928 -0.0003093597
0003f0 79 31 a2 b9 8b 31 a2 39 80 31 a2 b9 72 31 a2 b9
       -0.00030935908 0.0003093596 -0.00030935928 -0.00030935887
